Navigation/checkpoint.pth (torch_old, 28417 bytes, 6 tensors)

fc1.weight f4 [64, 37]
00000000: e342 52bd 8c89 d43e 3e09 4ebf e381 babe
00000010: ae68 f8be bd67 2a3e 6323 2ebe 6abd 5ebe
00000020: bf7d 5b3e 77f7 18be 37f8 f13d 7d82 17be
00000030: 303d 24be cdfd 81be df56 8ebe 0200 793e
00000040: 4332 40bf 69dc cbbd 9823 b2bd 502c 5fbf
00000050: 44c1 41be f774 973e 0efe 66bd ada6 963b
00000060: 3a6e 2dbb 5ef4 53be 0db2 da3d 8e14 ef3d
00000070: dcd3 afbd d105 383d 8c36 43bf f48a 2e3d
00000080: 93fd bb3d 7735 803b c48f 1abe eac5 96bd
00000090: 76e5 7dbd 9eae bcbc 0bd9 a13b 94f2 c93d
000000a0: 137a 243e 4269 4f3d e061 cbbd 9563 f5bd
000000b0: c57e 82bc 042c 32bf cebe 68bf cac4 693e
000000c0: 96c8 2ebe 1a1f d7bd 97bc 02bf 44e5 bbbe
000000d0: 27c4 883e d341 1c3c b741 1fbe 104e 77be
000000e0: d9d2 12bf 03d5 fb3c 5726 95bd c87f 49be
000000f0: 9042 b9be 636f cfbe 92c6 123c e995 cdbd
00000100: ef39 29be 9556 473e d5c4 943c 33be a63c
00000110: b4d8 68bd c929 373d 7c94 023d 3f3f 28bf
00000120: c4c3 023e 4b75 49bb 3f44 313e fd0d a13d
00000130: ea3a 173e 2a3c 153b 1a58 94be 92fe 7cbf
00000140: b638 323e 464e b33e 6f8f 1fbd cab6 90be
00000150: 635d 993d 1118 7cbd 3b56 523d ae71 45be
00000160: e32b a3bd 05d6 2dbd b82d 77be 57a4 9e3e
00000170: 0122 063e 572d 0cbe 5c41 fcbe 4545 f13d
00000180: 5706 3e3e 9a2b 88bd 1d70 18be 27b8 2fbf
00000190: 5656 893e af66 6e3e 9494 9b3d 8262 dbbe
000001a0: 8ef7 45bf 23b3 05bd b973 37bd db9e 843e
000001b0: 4301 adbe e06e d4bc 5bd1 47bc 8971 623e
000001c0: 66da 29bd bbca 0b3e 0648 64be a063 44be
000001d0: 9fe9 1bbe 9b4d e0be d50e 863e 9f36 1c3e
000001e0: 8ca7 6abd d86a 0dbe 7b29 0c3d 572a 183d
000001f0: bd3e b5be ebbe 80be 7c91 3abe 6811 6dbe
00000200: 04a3 6cbe 9396 5f3c 5db9 37be ab69 113e
00000210: 0aa5 e2be b09b 96bd 08e1 043d 1698 ecbe
00000220: a938 233e bdb9 3abe 5110 c3be 4412 b2bd
00000230: 5a87 8d3e 2825 dbbd 82a7 bf3e 3ceb d1bd
00000240: 94e2 8ebe 114c 1e3e 2ef1 bb3d fc26 333c
00000250: 6067 8abd 4c8a fdbd e447 18be 8ec1 01be
00000260: 00e1 ebbd e589 a73d e8af 873d a72b 0cbc
00000270: ea17 e83d 97f2 8fbd 2e6f bf3e 1af2 e6be
00000280: 20c3 9fbe cdc4 03bf 5c15 03c0 45cb cfbc
00000290: 255b e13a 7068 343c ba94 953c bd94 2f3e
000002a0: 6084 e5bb b026 9dbc 98fe fbbc 1b0d 293e
000002b0: 8343 563e 8b93 823d 9565 b6bb 4a9f 893d
000002c0: bee5 bd3d 829c 113d d9a3 d33d 1204 cd3c
000002d0: 1623 c73c b1d3 013d 1313 973c 9fef a93c
000002e0: 9a67 bf3b 6a2a 5f3d d184 17bc f1a1 1b3d
000002f0: edf8 33bc b188 313b 24f0 c83e 8819 fdbe
00000300: fa1c 98be 24f3 5bbf c8df 1cc0 a72f 22bb
00000310: 4851 22bd 1fc7 ffbc 1082 82bb 80b6 bd3c
00000320: eee4 58bc 73c1 033d a1e1 483d c934 9139
00000330: d0e7 b1bc 3dec db3d 5fd5 f03d 709c 1e3e
00000340: c494 613e 227f 0f3e 23ec b23d 0126 9d3d
00000350: 32bb c73c 2c17 763e 9fe7 4b3e c113 86bc
00000360: e1fc 973c d95e ca3d fa8b 453e a63d 5c3e
00000370: 02d4 ef3b 43c3 093b 4d94 97be 1ef2 af3e
00000380: 0289 13be b225 eabc 4db9 0abf 2a9c 03bf
00000390: ed50 de3d b49a cbbc ed7f 4bbe 47f1 913d
000003a0: 7d53 85bd 9e64 16bd b265 7a3d e291 e73d
000003b0: c20f 2f3e b849 0cbf 41d5 5f3e cd39 a7bc
000003c0: 1b9e 8ebd 94f8 d0be cb8f 6dbe bd4b 283d
000003d0: ce96 403e 35db 2fbe 698f 8f3e fe93 34bf
000003e0: 1582 873d 375e e03c 1b83 e6bd cc58 b1be
000003f0: c4e7 cd3d 06ef 24be 44a2 ebbd 2d00 b4bd
-0.05133332 0.4151119 -0.8048285 -0.3642722 -0.48517364 0.16641136 -0.17005686 -0.21751943
0.21434687 -0.1493815 0.11814921 -0.14795871 -0.16038966 -0.25388947 -0.27800652 0.24316409
-0.75076693 -0.09954149 -0.08698195 -0.8717699 -0.18921381 0.29581425 -0.05639463 0.004597506
-0.0026463405 -0.20698687 0.10678492 0.11673842 -0.08585331 0.044927422 -0.76255107 0.042612985
0.09179225 0.0039126235 -0.15093905 -0.07361968 -0.06198641 -0.023032483 0.0049392036 0.09860721
0.16062193 0.05063749 -0.099307775 -0.119818844 -0.015929589 -0.6959841 -0.90916145 0.22828975
-0.17068705 -0.10503979 -0.51069015 -0.36698353 0.26712152 0.009537178 -0.15552412 -0.24150872
-0.5735298 0.03074122 -0.07282703 -0.19677651 -0.36183596 -0.4051467 0.008958476 -0.10038359
-0.16526006 0.19466622 0.018160263 0.020354366 -0.05684729 0.044717584 0.031879887 -0.65721506
0.12769991 -0.0030740078 0.1731119 0.07863996 0.14768568 0.0022771456 -0.28973466 -0.98825943
0.17404446 0.35020655 -0.03895515 -0.28264457 0.07488515 -0.06154639 0.051351767 -0.19281647
-0.07967355 -0.042440433 -0.24138534 0.30984756 0.13098909 -0.13689171 -0.49268615 0.1178079
0.18557106 -0.06648941 -0.14886518 -0.6864037 0.26823682 0.23281358 0.075966984 -0.42848593
-0.77330863 -0.03264154 -0.044788096 0.25902447 -0.33790025 -0.025931776 -0.01219591 0.22113623
-0.041468047 0.13651554 -0.222931 -0.19178629 -0.15225838 -0.43809208 0.2618319 0.15255211
-0.05728869 -0.13810289 0.034219246 0.037149753 -0.35399428 -0.2514566 -0.1821956 -0.23151171
-0.2310906 0.01364674 -0.17941804 0.14200465 -0.4426654 -0.07353914 0.03244117 -0.46209782
0.15939583 -0.18234916 -0.38098386 -0.0869489 0.27642328 -0.10700446 0.37432486 -0.102499455
-0.2790724 0.15458705 0.09176861 0.010934588 -0.067579985 -0.12379894 -0.14871174 -0.12671492
-0.11517525 0.08180598 0.06625348 -0.008555329 0.11332686 -0.07028692 0.3738951 -0.45106584
-0.31203556 -0.5147217 -2.0481787 -0.025365481 0.0017193301 0.011011228 0.018259395 0.17146583
-0.0070043057 -0.019183487 -0.030761048 0.16508906 0.20924191 0.06375798 -0.0055663087 0.06719835
0.092723355 0.035549648 0.10333986 0.025026355 0.024308722 0.031696025 0.018441712 0.020744143
0.0058412077 0.05448381 -0.0092479745 0.037996236 -0.0109846415 0.002708953 0.39245713 -0.4943354
-0.29709607 -0.8591788 -2.4511585 -0.0024747641 -0.039628297 -0.031222878 -0.00398279 0.023158312
-0.013238175 0.03216691 0.0490433 0.00027695883 -0.021716982 0.10738418 0.11759447 0.15489364
0.22029406 0.14013341 0.08736446 0.07673264 0.024381254 0.24032277 0.19912575 -0.016366841
0.0185532 0.09881372 0.19291678 0.21507892 0.0073189745 0.0021020926 -0.29605332 0.34364408
-0.14407733 -0.028582428 -0.54188997 -0.5141016 0.10855279 -0.024854042 -0.19873019 0.07126098
-0.06510065 -0.03671705 0.06113214 0.11307122 0.17095855 -0.54799986 0.21858694 -0.020413304
-0.0696375 -0.4081465 -0.23199384 0.041087855 0.18807527 -0.17173465 0.280391 -0.7053832
0.06616608 0.027388675 -0.11255475 -0.3463806 0.100539714 -0.16106805 -0.11505559 -0.08789096

fc1.bias f4 [64]
00000000: c3f6 fd3d d500 35bd c457 31bd b13d 27be
00000010: 14a9 033e 60df bcba 506d e2bd 4f8b 56bc
00000020: 0b7b 1e3c 19e6 92be 3e75 2b3e acdb 923e
00000030: 371c bb3d 07eb 1f3d f569 07bd 00bc 86bc
00000040: cd05 8b3d 8ed1 c03d 34a3 05bd b02f 56be
00000050: 54fd 32be cd12 cf3c 4171 08bd bd53 d0bd
00000060: 8db0 21be 6aaa 213e c648 debd 9df4 b93c
00000070: c570 7f3e da5b d73d 1a86 55be 2960 8cbe
00000080: 4c72 713e 69b3 cabc 1b64 92be d7ad fcbc
00000090: 6190 61bd e522 dc3c 6442 edbd d0ea d5bd
000000a0: 27e8 64be 0cf8 bdbd ac37 ab3d 1e79 543e
000000b0: f954 e6bd 0c2f bbbd 3f81 0cbe 0b44 57be
000000c0: b6cd f1bd 025f 053d 89e3 50be 4c0c 9e3c
000000d0: f70b 0bbe 1a9a 6ebe 728a bcbe 3fe7 7cbe
000000e0: f2d8 0c3e 351b 6a3d 8fa8 89bd 70a4 44be
000000f0: 550d bf3c 7d49 dcbb 3840 bfbc 484d a4bc
0.12400582 -0.044190247 -0.04329659 -0.16332127 0.12857467 -0.0014409833 -0.11056006 -0.013094737
0.00967289 -0.28691176 0.16743943 0.2868322 0.09136241 0.0390425 -0.033060033 -0.016447067
0.06788216 0.094149694 -0.032626346 -0.20916629 -0.1747945 0.02527752 -0.033311132 -0.10172222
-0.15790005 0.15787664 -0.10853724 0.022699649 0.24945362 0.10515566 -0.20851937 -0.27417114
0.23578757 -0.024743753 -0.28592 -0.030844612 -0.05506933 0.026872108 -0.11584929 -0.104451776
-0.22354184 -0.09275827 0.08360228 0.20749328 -0.11246676 -0.09139833 -0.13721178 -0.2102205
-0.118068144 0.03256131 -0.20399298 0.019292973 -0.13578783 -0.23300973 -0.36824375 -0.24697588
0.13754633 0.057154853 -0.06721603 -0.19203353 0.023321787 -0.0067226277 -0.023346052 -0.020056382

fc2.weight f4 [64, 64]
00000000: cd52 bebe 4b7b 0dbe 2813 e4bd 96ac 07be
00000010: c257 bf3e 6963 c2be 8edf bdbe f50e b13d
00000020: d511 9d3d c240 9bbe 7a11 3d3d 0264 29bf
00000030: 3fdb 8dbd 2e3e 31bd bdf0 86be c996 adbe
00000040: 16c9 a2be f2c9 2d3e d507 cd3c 0fbf 0cbf
00000050: 9dc9 88be 7355 a3bd 239c c7bd 9b09 c33d
00000060: 26dd f5be db38 203e 9e78 c03e 2fb7 9dbd
00000070: 0fbb a2bd 0db3 373c 9242 c23c 8df4 8abe
00000080: 5b6d db3e 8b86 533e 4c24 debd 7bdd aebe
00000090: 8660 fa39 c97d 17be 96c1 b03e 7f0a 193e
000000a0: 80f2 06bf bd02 d53e 7fa9 00be f1a9 51be
000000b0: 1dfe 583e 7ec2 c3bd eb1f a3be 5b25 ee3e
000000c0: c735 00be eb7f b2bd 329d e8be bb7b 74be
000000d0: be3d 47bf ecb0 b53e 59c2 513e d6cc b73c
000000e0: 7ca6 a73d 75ae 65be 00a2 fc3a 4d72 1a3e
000000f0: 1523 c5be 76bc a23e 0b6d f5be ef3c e4bd
00000100: 1916 923d 3c57 293e b84e 15bf de9a 393e
00000110: a817 5bbe b4ad 8f3e e530 2abc 86e8 8dbb
00000120: 5a12 1a3e 0d8a 573d 1313 22bd f7ce c43e
00000130: bddb c7be 5d7b 30be 0f56 38bd 8dcd 8a3c
00000140: 1537 f93c 9ecf 273e a599 edbd 781b 3cbe
00000150: f234 cfbc 2eba 3ebd 2f88 4f3e 8885 003e
00000160: 3f3f d63c 61a7 893e d438 bcbe 7d37 503e
00000170: 7882 643e 28f7 783e e86f bb3e 09b2 eb3d
00000180: 38df 9b3d 35e5 2cbe f6dc 353e caff 9cbe
00000190: 2be8 c2bd 9f51 ad3e d5f3 703d 1370 3ebe
000001a0: 8a4b d83d f501 953d 9e02 0cbe 5095 a2bd
000001b0: c143 90be a6c7 b9bd bb0d 6cbe b626 d4bd
000001c0: 7d52 41bc 7f36 3dbb 139d a93c 7743 a63d
000001d0: 43ab 843c 554c 1fbb b7dc b6bd 77e6 6dba
000001e0: 9847 013d ff3c 49be 5d9d 263e 556f 85bd
000001f0: dd00 4fbd 7c3f 113e 4dc0 d53d 05ec cbbc
00000200: 55f4 a3be c0e9 09be 3ee1 6dbe a18e 263d
00000210: 38c8 c93e afdf 3c3d 98b5 333e 37f9 05be
00000220: 6899 bb3e ce39 a9bd fa63 75bd f37b 723d
00000230: 424f 32be 3c53 513d 29a3 153d 4cea 49bc
00000240: 8665 babe 5393 693e 3a62 ee3d bd5f 84be
00000250: ea3d d9bd 5096 5b3e 0805 02be 3d67 efbc
00000260: 970b 2bbd ec2a ba3e c216 8d3e 7b00 533e
00000270: b449 b43d 4583 a63e 5614 783e 4aee a13e
00000280: 12db 6abd 3a2d a33e 23af e03c 7438 41bd
00000290: 7836 4abd 3a15 96be dde8 8b3d 6c49 a5bd
000002a0: 7d97 e93d 4145 eabd 969c 4b3c ac39 43be
000002b0: 802d d6bd 24ad 113e 3920 8dbd e058 a2bd
000002c0: e490 6b3d f3b2 28be dec8 00be 51c6 2ebe
000002d0: 8c39 ee3d 28f9 183e d544 28bd 8e62 f33c
000002e0: 4706 843d 0f81 3cbe c1e7 6d3e b3ca 333d
000002f0: b42b 19be b3bb dbbd 9bbf 69bd a986 5b3d
00000300: c687 493e 07bd e6be 7a9f 05bf ecf6 ecbc
00000310: 641f 58bd e2fb 15bc 58e0 39bf 20dc 75bd
00000320: a747 9bbe 919f d5be 7b1a de3c fb8a 143d
00000330: 2482 8dbe f3ac 703e a896 5dbd 0999 62be
00000340: d520 dcbe 0e9c 7cbe 0df1 3c3e 47d0 d7be
00000350: 4872 a5be ce3a 393d c139 903d 4ae6 933e
00000360: 806d a0bc cc30 0b3e 48b0 cd3d 27ab ea3d
00000370: 55f1 713d 25de ccbc eed3 df3e fde9 b63c
00000380: 10fb 37bd d2dc 22be e6d6 c0be 67ba 193f
00000390: 3172 c73d 9c5f 2b3e c9e8 14be fc84 42be
000003a0: a124 17bd f117 7fbe 3512 b5be b7ac acbe
000003b0: 9df7 103f e378 6b3e 24fa 443b 0b59 2e3e
000003c0: 0ccc b8bd 6723 993b ef66 3f3e 299e 96be
000003d0: a496 863d bdc8 c43d 195e 6e3d 9087 41be
000003e0: 9c99 213e 530d 633d 5376 59bd 47eb 883e
000003f0: 5dfb 2fbe 9dc6 21be b025 70be 0706 1ebd
-0.37172547 -0.13816564 -0.11136466 -0.1324943 0.3737164 -0.3796647 -0.3708462 0.08645431
0.07669417 -0.30322844 0.046159245 -0.66168225 -0.069265835 -0.04327219 -0.26355544 -0.33904102
-0.3179404 0.16971567 0.025028149 -0.5497903 -0.2671632 -0.079752825 -0.097465776 0.095233165
-0.48020285 0.15646689 0.37592024 -0.07700955 -0.07945835 0.011212123 0.023713384 -0.27139702
0.4285687 0.20656793 -0.10846767 -0.3415335 0.0004775563 -0.14794077 0.34522694 0.1494541
-0.52713776 0.41603652 -0.12564658 -0.20474984 0.21190687 -0.09558581 -0.3186029 0.46512875
-0.12520514 -0.08715805 -0.4543243 -0.23875324 -0.77828586 0.35486543 0.20484294 0.02243654
0.08186051 -0.22429831 0.0019274354 0.15082665 -0.38503328 0.3178441 -0.47934756 -0.11144435
0.07133121 0.16537184 -0.5832324 0.18125483 -0.21395743 0.28062212 -0.010387634 -0.0043306975
0.15046063 0.05262189 -0.03956897 0.38439152 -0.39034835 -0.1723456 -0.045003947 0.016943717
0.030421773 0.16387793 -0.11601571 -0.18369853 -0.025293801 -0.046564274 0.20266794 0.12550938
0.026153205 0.26885512 -0.36762106 0.20333667 0.22315395 0.24313033 0.36608815 0.11508567
0.07610935 -0.1688431 0.17760071 -0.30663902 -0.09516939 0.33851334 0.058826286 -0.1859744
0.10561283 0.07275764 -0.13672873 -0.07938635 -0.28176692 -0.09071283 -0.23052113 -0.10358946
-0.011799452 -0.0028871594 0.020704782 0.08118337 0.016194945 -0.0024306972 -0.08928817 -0.00090751745
0.031562418 -0.19652174 0.16270967 -0.065153755 -0.050537933 0.14184374 0.10437069 -0.024892816
-0.32022348 -0.13468075 -0.23230454 0.040663365 0.39410567 0.04611176 0.17549741 -0.13083349
0.36640477 -0.082629785 -0.0599098 0.05920024 -0.17413047 0.05110477 0.036532555 -0.012323927
-0.3640558 0.22810106 0.11639829 -0.25854293 -0.10607512 0.21444058 -0.12697232 -0.029224033
-0.0417591 0.36360872 0.27556425 0.20605652 0.0880312 0.32522026 0.24226508 0.31627113
-0.057337828 0.31870443 0.027427262 -0.04717298 -0.04936835 -0.2931307 0.068315245 -0.08070645
0.11405847 -0.114389904 0.01242747 -0.19064969 -0.10457897 0.14226204 -0.068909116 -0.07927108
0.057511225 -0.16474514 -0.12576625 -0.17067839 0.1163207 0.14938796 -0.04108127 0.02971008
0.0644651 -0.18408607 0.23232938 0.04389448 -0.14958078 -0.1072916 -0.057067495 0.05359522
0.196807 -0.4506609 -0.52196467 -0.028926335 -0.05276431 -0.009154292 -0.72607946 -0.06002438
-0.30328104 -0.41723302 0.027112236 0.036265355 -0.27638352 0.23503475 -0.054098755 -0.22128691
-0.429938 -0.24668905 0.18451329 -0.4215109 -0.32313752 0.045222096 0.07042266 0.28886634
-0.019583464 0.13592833 0.100433886 0.11458426 0.059068043 -0.02500827 0.43716377 0.022328371
-0.044917166 -0.15904549 -0.37663954 0.6005005 0.09738577 0.16735691 -0.14541925 -0.18996042
-0.036900166 -0.24911477 -0.35365453 -0.3372552 0.5662783 0.22995333 0.0030056322 0.17026155
-0.09023294 0.0046734097 0.1869161 -0.29417542 0.06571701 0.096086 0.058195207 -0.18899369
0.15781254 0.05543263 -0.05309136 0.26742002 -0.17185731 -0.15798421 -0.23451877 -0.038579967

fc2.bias f4 [64]
00000000: a156 82bd bf8f 833e 3b96 2b3e 5dfc f3bc
00000010: cee5 433e 82ed 85be 15b1 56bd 653b 32be
00000020: f25d 163f 28f9 493f 5dc3 81be 148b c53e
00000030: 1e7d a53e e5ba 8e3d 87d6 93be ca0d d63e
00000040: 7653 25bd 1304 b8bd 5a81 09be c2dc 633e
00000050: ee3b bc3e d0c2 433f 8a27 92be 2b4b 14be
00000060: a282 0ebd f5fc 46be 4824 38be 718a 65be
00000070: 0645 a23d 473e d33d 5950 b9bd 52d9 c73e
00000080: dde1 2cbe c52c f83e 7e26 053f 87f8 883b
00000090: 481d 0abe 7e4b 7fbe 102d 033f beda c63d
000000a0: f0ff 0bbe 59ac 5b3f edfa 133f fd04 20bd
000000b0: b160 813d 038b f3bd 2493 863d 2782 0cbe
000000c0: 077b a43d ab06 223e 2f45 23be c1c1 413f
000000d0: 0bcc 853e d27f 88be 6ecf 213f 745b adbd
000000e0: 32f5 65be 6f92 bbbe fa22 75bd 7d80 b1bd
000000f0: f344 e83d 44cd f83e c026 b9bc 3156 8abd
-0.063641794 0.25695607 0.16756527 -0.029783422 0.19130632 -0.26157767 -0.052414972 -0.1740547
0.587371 0.7889581 -0.25344363 0.3858267 0.3232202 0.06969241 -0.2887461 0.41807395
-0.040362798 -0.08985152 -0.1342825 0.22252181 0.36764473 0.76469135 -0.2854579 -0.144818
-0.03479255 -0.19432433 -0.1798259 -0.22416092 0.079233214 0.10314613 -0.09048528 0.3903299
-0.16883035 0.48471656 0.5201186 0.0041800174 -0.13487732 -0.24931142 0.51240635 0.097096905
-0.13671851 0.85809857 0.5780476 -0.039067257 0.063172705 -0.11891749 0.065710336 -0.13721524
0.08031278 0.15822856 -0.1594436 0.7568627 0.26132235 -0.2666002 0.6320714 -0.08464709
-0.22456816 -0.36635157 -0.05984781 -0.08667085 0.11341276 0.48594105 -0.022601485 -0.06754721

fc3.weight f4 [4, 64]
00000000: 9fd2 d5be 9df1 763e 1bc3 a73d e6b3 143e
00000010: 5b98 963e 14ec b9be b8b2 d73d b1e3 e8bd
00000020: af6f 413e 48b4 6c3e 8fa6 9ebe 1fb7 763e
00000030: 613e be3d 2b86 cebc 54e4 75be 071a 1d3e
00000040: 18bc abbc 9950 fcbe 9303 cabd b536 cb3d
00000050: cd1e d23e 91e3 5e3e 7807 06bd c8a4 eb3b
00000060: 6c08 fbbc dd30 4cbe 0bc0 b7bd ca2a 89be
00000070: 205f 883e bba4 c43e 0a57 43bf 8ac2 1c3e
00000080: ba34 49be e0a3 6b3e 8a64 4b3e b2d5 023f
00000090: 9b51 d63d 7e73 763e 1d3e e93e c0fb b83e
000000a0: 742a a83d c6df 823e fd96 5d3e bf22 873e
000000b0: a500 2a3e 3cfe e5be 6bfc 7c3d e589 11be
000000c0: b3e7 e5bc e87c 4d3e 765c 6ebe bf08 783e
000000d0: 607d 693e a58b 2fbe 0530 653e e026 d53e
000000e0: 0f7e d0be af9e a4bd f0ce 84bc 2825 ea3e
000000f0: 282e 963e 1b07 1a3e 3e15 b6be 6336 8a3e
00000100: d1e9 6e3e 2965 6c3e aa49 243e 674f 72bd
00000110: e91d 4f3e f061 1fbe 1b1c 663e 8fa1 efbd
00000120: 98b0 203e 68f4 4c3e 2aa1 64be e944 733e
00000130: 9027 423d c286 493e 37ed 84be d98d bb3e
00000140: a852 20be e7c6 50be 6ebf 80bd 7ff1 4d3e
00000150: 0e99 b23e 6c9b be3e de93 f1bd e4e5 cb3d
00000160: f77d 633e 30c6 c8bd f949 9dbe b8ef 00be
00000170: 40e5 4e3e 8a07 a13e c02f a3bd 7722 5f3e
00000180: 6cdc d03c 2461 333e bbdc 2c3e b4c3 cb3e
00000190: 2366 a4bd 6be7 18be 6a32 ac3e 115b 0c3f
000001a0: 6ddd d03d e441 5e3e 7b01 5d3e f524 e2bd
000001b0: 6226 623e 185f e2bc 522d f43d 32e7 a6be
000001c0: 1223 b2bc 6f92 443e 246f 2dbe 0313 3e3e
000001d0: b4d6 783e e173 04be f475 5a3e a10b 053f
000001e0: 1279 19bd 3263 0b3e 3779 88bd 8ae7 3a3f
000001f0: 100c b73e 588a 873e 6330 7fbe 8c44 153e
00000200: b68d a8be 4be0 833e 98ed 9b3e cd4a 093d
00000210: 4f7a c03e 29d9 24bf 4887 073f 8c24 abbe
00000220: b536 323e 275d 6a3e f86d 4dbe 8d35 563e
00000230: 039f e03d 3ea7 34bf 2ba5 b8be 7fbb bd3e
00000240: c2f3 203d fd83 0abf c0af 0cbc 10f2 d03b
00000250: 1b9c 363e 41ce 9f3e 5bf4 a5be a48c 6d3d
00000260: c178 123e cdcf 50be 412e 5a3b 2bea a3be
00000270: f4eb 263e 0e7e 0c3f 6e4a 823e 6392 453d
00000280: 509e 97be e121 643e 4a49 8e3e 70c3 b53e
00000290: 7780 2cbe 94d4 e73e 3bc1 b73e 2154 33bd
000002a0: e421 8f3d b2e3 8e3e 5189 803e b36e 1d3f
000002b0: 42b7 a23e 8ad5 7b3e 9d8a 8d3e 8cb0 d1be
000002c0: fb22 903e 9974 573e 9dcd 18bf b123 8f3e
000002d0: d235 8c3d 3971 97bd 1ae0 4e3e 63db 993d
000002e0: fd1a 96bc 35f1 613e 1808 d63d 4936 8f3d
000002f0: 1d23 30be 75bb 763e 25e9 a5be 4cb3 c1ba
00000300: fc9f 713e 354f 543e ae3f e03d 1234 50be
00000310: 9603 013e 6f70 ab3d 7bd4 42be 7219 13bd
00000320: f336 6c3e b2e0 9b3e 7121 17bd d18a 143c
00000330: 8199 603e e175 ff3e 8f66 85be d325 6f3e
00000340: af4c 2c3e a18f 083f f23e ac3d 605c 883e
00000350: 1066 573e c225 b23e 02b4 96be e5d4 f43d
00000360: 5ae8 bd3b 36d3 0bbf 871e 52bd 45bf 8a3e
00000370: cf01 a63e 1640 533e 3797 c1bd eacf 073e
00000380: 6f70 25be c3b4 303e 58f3 5a3d a5f3 e43e
00000390: b05a 15bf 8fb4 94be 61e4 863e d877 d43e
000003a0: 93f8 bdbd 1337 903e 5509 853e 7c0b 0ebe
000003b0: 66e0 a53d bcb2 5dbf 514d 483e 9a84 28bf
000003c0: 403d 723e 3d3a 973e 844d 98be b2a3 973e
000003d0: 7acd de3d 69d9 9cbe f9be 753e 8a66 3c3f
000003e0: cf56 83be 8ddc 94be fbe6 febe dd06 90be
000003f0: b74e 263d 13d9 ff3d 879f f3bd 3a9c 213f
-0.41762254 0.24115606 0.0819151 0.14521751 0.29413113 -0.36312926 0.10532135 -0.11371554
0.1889026 0.23115647 -0.3098645 0.24093293 0.092892416 -0.02521046 -0.24012882 0.1534196
-0.020963714 -0.4928024 -0.09863963 0.09922544 0.41039124 0.21766497 -0.032721967 0.0071912743
-0.030643664 -0.19940515 -0.08972176 -0.26790458 0.26635075 0.3840693 -0.76304686 0.15308586
-0.1964902 0.23011732 0.19862571 0.51107323 0.10464784 0.24067494 0.455552 0.3612957
0.08211222 0.2556135 0.21639629 0.26393697 0.16601808 -0.44920528 0.061764162 -0.14212759
-0.028064584 0.20067179 -0.23277459 0.24222086 0.22801733 -0.17143114 0.22381599 0.41631222
-0.40721175 -0.08038079 -0.016211957 0.45731473 0.2933209 0.15041773 -0.35563082 0.2699462
0.23331381 0.23085465 0.16043726 -0.059157755 0.20226254 -0.15564704 0.22471659 -0.11700737
0.15692365 0.20015109 -0.22327104 0.23756756 0.04740101 0.19680312 -0.2596223 0.3663166
-0.15656531 -0.20388375 -0.06286512 0.20111655 0.34882396 0.37227952 -0.117957816 0.099559575
0.2221602 -0.09803426 -0.307205 -0.12591445 0.2020464 0.31451064 -0.07968092 0.21790491
0.02549573 0.17517525 0.16881077 0.39797747 -0.080272935 -0.14932029 0.33632213 0.54826456
0.101984836 0.21704823 0.21582596 -0.11042205 0.22084954 -0.027633235 0.11922707 -0.32598263
-0.021745238 0.19196485 -0.16936928 0.1856194 0.24300653 -0.1293483 0.21334058 0.5197087
-0.037468977 0.13612059 -0.06663745 0.7300955 0.3575139 0.26472735 -0.24920802 0.1457693
-0.32920617 0.2575706 0.30454707 0.0335186 0.37593314 -0.6439386 0.529408 -0.3342632
0.17403682 0.22887097 -0.20061481 0.20918866 0.10967829 -0.7056769 -0.36063513 0.3705711
0.039294966 -0.5410765 -0.008586824 0.0063765123 0.17832987 0.31212047 -0.3241299 0.057995453
0.14303876 -0.2039177 0.003329173 -0.32014593 0.16300946 0.54879844 0.2544741 0.04823531
-0.2961297 0.22278549 0.2779029 0.3550067 -0.1684588 0.45279372 0.3588961 -0.043781403
0.06988886 0.27908093 0.25104764 0.6149704 0.3178044 0.24593177 0.27644816 -0.40955007
0.28151688 0.21040572 -0.5968874 0.27956918 0.06846203 -0.073946424 0.20202675 0.07512548
-0.018323416 0.2206467 0.104507625 0.06992776 -0.17200895 0.24094947 -0.32404438 -0.0014778166
0.23596185 0.2073334 0.10949646 -0.20332363 0.12599024 0.083710544 -0.19026367 -0.03591294
0.23067836 0.30444866 -0.036897127 0.0090663 0.21933557 0.49894622 -0.26054808 0.23354273
0.16826127 0.5334416 0.08410443 0.26632977 0.21035028 0.34794432 -0.2943421 0.11954669
0.0057955207 -0.5461916 -0.051298644 0.27099052 0.32423255 0.20629916 -0.0945267 0.13262907
-0.16156171 0.17256455 0.053454727 0.44717136 -0.58341503 -0.29044005 0.26346114 0.41497684
-0.092759274 0.28167018 0.25983682 -0.13871568 0.08099441 -0.8660085 0.19560744 -0.65827334
0.23656178 0.2953662 -0.2974664 0.29617077 0.10879035 -0.3063462 0.23998632 0.7359396
-0.25652167 -0.29074517 -0.497856 -0.28130236 0.040602412 0.124925755 -0.11895662 0.6312901

fc3.bias f4 [4]
00000000: 8cd7 183f 6183 e13e 4914 b23e 7615 d83e
0.597039 0.44045547 0.347811 0.42203873
