model_weight/actor.pt (torch_old, 88895 bytes, 8 tensors)

hidden1.weight f4 [128, 33]
00000000: 39ad 7abe 07f3 0dbe 1985 ec3d f44c 8d3e
00000010: 9553 62be 8aa7 123d 2b08 e1bd 4f89 50be
00000020: 07c3 cf3d 2225 30be 30db 8bbd 2e3f f73d
00000030: bffc 03be 591c b63e f020 6c3d 979c e33c
00000040: 15c0 19bf 86b9 35be a9f4 1cbe c977 6a3d
00000050: 02b3 b8bc 308c 5e3e b124 8cbe 6107 a33d
00000060: e19c 70bd 14fb 9d3c 0ef0 5cbe fb80 443d
00000070: fbbf f6bd e644 253e 6cbb d93d 0f68 e1bd
00000080: c175 babe 850c 0cbe 20d2 233d f9ae d6be
00000090: 6681 6c3e d946 963d b27a eebe 9347 19bf
000000a0: 7e99 4e3e 456e abbe bfa1 d2bc 1805 303c
000000b0: 425b 09be f357 abbd dc43 c4bd 5dc8 5e3c
000000c0: 9dee 6c3e 166b 8b3d 2575 b33e 3c82 303e
000000d0: 93a7 203e 8ba2 18be 2feb 50bd b09b d6bd
000000e0: c950 eabd 7c68 d33b 124f 9a3d a0e8 37bd
000000f0: b0ae 14be ca90 8cbd f3cf 8cbd 7409 573e
00000100: 1519 2ebe a059 4b3f a1e0 3c3e b858 f2bd
00000110: 8886 b33d fadc 4fbf 989d bf3d 162f f43d
00000120: c370 333f 29b9 2d3d a728 633e c707 4dbe
00000130: 345f 513e b422 053d 5ad1 2bbd d074 5abe
00000140: 18a3 80be 488f eabd cc47 843e b9f6 a03e
00000150: 202e 89be 2f3b a1be db50 1c3e 8229 68be
00000160: ef2f a3bd 91d5 193e a5da 8abd 0120 cebd
00000170: f172 d43b 9a01 793d 2a53 4dbd b87b aabc
00000180: 3802 87be 8724 e9bd aa30 4a3f cdd6 04be
00000190: 039d 1dbc 809e 95be 5b4f adbe dc6f 29be
000001a0: 74ee 29bd 5012 eabe c1f6 f73d 48ce 903e
000001b0: 761d 003c 8937 1cbc 38b5 9bbb 5991 df3d
000001c0: a495 c2be c27d 23bd 2fe0 7bbc 831e ae3e
000001d0: 1b2b 9abd 8651 9b3c 8eaa 1b3e 8307 ef3d
000001e0: a6f3 1fbd c9f6 1b3e e369 45be 0463 07bd
000001f0: 786c 463d da8c 5f3e e34d 813e 5a63 ab3e
00000200: 6c98 1f3e 4f35 80be 5020 24bc 3372 9d3f
00000210: 89a4 483e f3c9 5b3d c56c 2bbe a252 27be
00000220: 49ba 543e 0adb 67bd 7846 82be 2eda 543e
00000230: 46cc d63b 054b c23c b301 ef3d 113a f8bd
00000240: aac1 dcbd d5cf 6bbe a038 c23e 3cd5 2c3e
00000250: faaf 8e3e 8690 1a3d be64 09be 5b35 763d
00000260: 6c8d e73c 4dbb 9fbc 57d8 6abe 5b17 ae3d
00000270: e3a6 203e c3cd 82bc 0779 c63e 8ffb afbe
00000280: a127 82bd 901f c6bd f67b 683c a0f3 eabc
00000290: 59c2 ab3e 7b05 e9bc 7f51 94bc 2a31 e73d
000002a0: 0aea 0f3e 040a 35bd 6586 0b3d ddaf 9e3d
000002b0: 8da1 b9bc 9631 aa3d 3723 abbc 6ffa 0a3e
000002c0: aca9 d23d db24 0d3e ab02 1f3e 315d 1bbe
000002d0: 2e87 3b3e 6a05 95be 65d2 a4bd 3802 bfbd
000002e0: 8e8a 55be 240f c0bd 104e 2abe e671 acbd
000002f0: a517 353e 813b a4bc d146 c53d 6636 99bb
00000300: 90e1 643d 0a61 93be 347d 8f3d 63f2 64bc
00000310: 5896 a0bc f520 a03f b16b a83d 0000 033e
00000320: de1b 02be ffa9 ac3e e7af 94be 2edc 0fbd
00000330: b3bb 9ebe 4844 1f3e 3cdc 1c3e aebf 28bd
00000340: c3a2 c93a 91f0 313d 8f1d f9bd 784b 313e
00000350: 361a 8b3e 656e 15be df42 dc3c 5afa cc3e
00000360: 7b27 c2be 4e23 bdbe 6224 0abd b876 c73c
00000370: 3f94 14bd fdc6 b3bb a23c 653d e908 85bd
00000380: 5f0f f2be d23f 093b 66ea 153e 944d 293d
00000390: 17c7 3f3e e837 f4bd b81a f9be 7fe0 fd3d
000003a0: 5907 713e 789b 8bbe 62fb a7be 9fc6 6bbe
000003b0: 48df 4d3e b077 1ebd 6415 24bd ab6b ecbc
000003c0: 9eff 793d b556 6b3d 7278 993d 248a 2b3e
000003d0: 36e3 873e 889a 36be 5adb 823e d46f b93e
000003e0: 0d0f b33d c8e1 b7be 679e 7dbc 272b 7c3e
000003f0: 328f 233e f653 1dbe ce08 5a3e 45f6 83bc
-0.24480142 -0.13862239 0.11548824 0.27597773 -0.22102197 0.03580431 -0.10987886 -0.20364879
0.101446204 -0.17201665 -0.06828916 0.120725974 -0.12889384 0.35568503 0.0576486 0.027784629
-0.6005872 -0.17746553 -0.15327705 0.057243142 -0.022546295 0.21733165 -0.27371743 0.07960392
-0.05874336 0.019284762 -0.21575949 0.047974568 -0.12048336 0.16139564 0.10631451 -0.11006176
-0.36417964 -0.13676651 0.039995313 -0.4193037 0.23096237 0.07337732 -0.46577984 -0.5987484
0.2017574 -0.33482566 -0.025711892 0.010743402 -0.13413718 -0.08366384 -0.09583256 0.013597575
0.23137899 0.068075344 0.35050312 0.1723718 0.15688924 -0.14905755 -0.05100554 -0.10478914
-0.1144119 0.0064516645 0.07534613 -0.044899583 -0.14519763 -0.06863554 -0.06875601 0.209997
-0.17001756 0.7943363 0.18445064 -0.11833328 0.08765894 -0.8119656 0.093562305 0.119230434
0.70093936 0.04241291 0.22183476 -0.20022498 0.20446473 0.0325038 -0.0419477 -0.21333623
-0.2512443 -0.1145311 0.25836027 0.31438234 -0.26793003 -0.31490466 0.15265219 -0.22672084
-0.07968127 0.15022875 -0.067799844 -0.10064698 0.0064834286 0.060792543 -0.05012814 -0.020810947
-0.2636888 -0.1138392 0.78980505 -0.12972565 -0.009619954 -0.29222488 -0.33849606 -0.16546577
-0.041487172 -0.45717096 0.121076114 0.2828238 0.007819524 -0.009534725 -0.0047518276 0.10916395
-0.38004792 -0.039914854 -0.015373274 0.34007654 -0.07527753 0.018959772 0.1520178 0.116713546
-0.03905072 0.1523086 -0.19278674 -0.033053413 0.048443288 0.21831074 0.25254735 0.33474237
0.15585488 -0.2504067 -0.0100174695 1.2300476 0.19594015 0.05365939 -0.16740711 -0.16340116
0.20774187 -0.056605376 -0.25444388 0.20786354 0.006555113 0.023717413 0.11670246 -0.1212045
-0.10779126 -0.230285 0.37933826 0.16878217 0.27868634 0.037735485 -0.13417336 0.060109477
0.028265677 -0.019498492 -0.2293409 0.085005485 0.15688662 -0.015967255 0.38764212 -0.3437161
-0.06355215 -0.09673989 0.014189711 -0.028680623 0.33546713 -0.028444996 -0.018105267 0.11288674
0.14054123 -0.044199005 0.034063715 0.07748387 -0.022660041 0.08310239 -0.020890815 0.13572095
0.102862686 0.1378359 0.15528361 -0.15172268 0.18313286 -0.29105693 -0.08047942 -0.09326595
-0.20853636 -0.09377888 -0.16631341 -0.08420162 0.17684801 -0.020047905 0.09632648 -0.0046756743
0.055879176 -0.28784972 0.070063025 -0.013973805 -0.01960294 1.2510058 0.082236655 0.12792969
-0.12705943 0.33723447 -0.29040453 -0.03512209 -0.31002578 0.15553391 0.15318388 -0.041198425
0.001538359 0.043442313 -0.12163841 0.17313945 0.27168435 -0.14592893 0.026887355 0.40034753
-0.37920746 -0.36940998 -0.033726104 0.024348602 -0.03627419 -0.0054863677 0.055966027 -0.0649584
-0.47277352 0.002094258 0.14640197 0.04133375 0.1872829 -0.11924726 -0.48653197 0.12396335
0.23537959 -0.2726705 -0.32808977 -0.23024987 0.20104706 -0.03868836 -0.040059462 -0.028859934
0.06103479 0.057455737 0.07493676 0.16751915 0.26540536 -0.17832386 0.25557977 0.3621813
0.08743105 -0.35914445 -0.015479661 0.24625836 0.15972593 -0.1536406 0.21292421 -0.016108641

hidden1.bias f4 [128]
00000000: b211 d13d dbb2 833d 77d1 acbd 5b81 79be
00000010: e450 813d 8ad3 9abd ac47 acbc 42b9 00be
00000020: ac39 7c3e 8200 97be 4262 183d 7e90 61bd
00000030: 4bf6 eabd 4ded 803d cdc1 03be 0961 aabd
00000040: 002a 1e3e bf49 46be 7ecb eabd ab8b 5fbe
00000050: ee2a 353c 2a46 28be af96 33be 2c54 b73d
00000060: 35a7 08be 0bad 2f3e c49d a83d 10db 17be
00000070: e8c5 c2bd 8cdd ddbd d6de 6f3d 9705 37bd
00000080: ea33 793e ba3a 113e 58f1 edbd de1e 5bbe
00000090: 0557 bc3d 0d43 89be f6fa 2a3b 0c5c 10be
000000a0: da84 8f3d 418e 3f3e abd5 e53d 7aaf 0e3e
000000b0: 3808 26be d147 37be 4bda c13d c379 873e
000000c0: 5ce1 5dbe a65b 8dbe 2fc0 cdbd c2e8 b7bd
000000d0: 59df 723d 103f f6bd e27f 003e f246 06be
000000e0: 6c0c 4bbe 512a 2fbe b412 50bd 8263 fabd
000000f0: d521 b2bc fedf d8bd daeb 6fbd b498 05be
00000100: 131d 95bd 314b 27bd 2113 62be 921b 5abe
00000110: 5dc8 ebbd 34e9 ddbc 6b1d 95be a98b 6cbe
00000120: 3e50 50bd 0994 e6bd 9bb5 253d 7239 c2bd
00000130: ab9c a13d 395e 51be c039 2e3e ec28 1dbe
00000140: ee51 e2bd 7c8b 023e d5a1 913d 7d8a 69bd
00000150: dfbb 0dbe c2ac 20bd 1ca1 2ebe 80b1 523e
00000160: 1f42 efbc 0c2e a03c 200c ac3d 746a 5abd
00000170: acc7 82be 446a 13be eb17 00be 444d 283d
00000180: fae9 2dbe dd81 6fbd 424b e83d 66e6 dc39
00000190: 2b55 43be 1ce1 9dbd c345 dcbd 00e9 03be
000001a0: 86b3 81bd 3c13 4cbc 326b 7abd c778 3ebc
000001b0: 9085 23be 71a4 f13d 440c c0bd 0607 b2bd
000001c0: 4224 08be 575d 0fbe 9663 3abe 249f b03d
000001d0: 3917 f73d 03cf d23d 146b 97be b86e 843d
000001e0: 7237 24be f970 1e3e 6998 8b3e f129 523e
000001f0: 16a4 89bd 932b b03c 3ebd 68be ce1f df3d
0.10208453 0.06430598 -0.0843839 -0.24365751 0.06314257 -0.07559879 -0.02103027 -0.1257067
0.24631375 -0.29492575 0.03720308 -0.05506944 -0.11472758 0.062952615 -0.12866898 -0.08319289
0.15445709 -0.1936407 -0.11464594 -0.21830623 0.0110575985 -0.16433015 -0.1753795 0.089516014
-0.13345034 0.17155854 0.082332164 -0.1482966 -0.09510404 -0.10833272 0.058562122 -0.044683065
0.2433621 0.14182559 -0.11618298 -0.21398494 0.09196285 -0.26808968 0.0026089526 -0.14097613
0.07007761 0.1870661 0.112223946 0.13934126 -0.16214073 -0.1789849 0.09465464 0.26460084
-0.21667999 -0.27608985 -0.10046422 -0.08979942 0.059295032 -0.12023747 0.12548783 -0.13113001
-0.19828957 -0.17105986 -0.050799087 -0.12226011 -0.021744648 -0.10589598 -0.058574535 -0.13046533
-0.07280936 -0.040843192 -0.2207761 -0.2129958 -0.11512826 -0.027088739 -0.29124007 -0.23100151
-0.050857775 -0.11258704 0.040456396 -0.09483613 0.0789121 -0.204461 0.17014217 -0.15347642
-0.11050783 0.12748522 0.07110945 -0.05701684 -0.13841198 -0.039227255 -0.17053646 0.20575523
-0.029206334 0.019553207 0.0840075 -0.053324178 -0.25542963 -0.14396006 -0.12509124 0.04108931
-0.16983786 -0.058473457 0.11342479 0.0004213333 -0.19075458 -0.07708952 -0.107554935 -0.12881851
-0.063330695 -0.012455758 -0.061137386 -0.011625475 -0.15968919 0.11798943 -0.093773395 -0.08692746
-0.13295081 -0.1400045 -0.18202052 0.08624104 0.12064976 0.102933906 -0.29573882 0.064664304
-0.16036776 0.15472783 0.27264717 0.20523812 -0.0672075 0.021505153 -0.2272844 0.10894738

hidden2.weight f4 [128, 128]
00000000: e47b e5bd 291f e2bd 5a27 443e 5b0b e03d
00000010: 18a8 2fbe ec2e 123e 1fa6 90be 9683 0dbe
00000020: ee9d cab9 3de8 953d 9076 973e 697f d83c
00000030: b82d 843e e139 803e 95c8 8cbd fb0d 1ebe
00000040: 5436 6f3d bfe7 b9be a3cc 3d3e bcc3 df3d
00000050: 218c f93d 2cee ac3d 9563 56bb 1d95 a3be
00000060: 1d8c 203e f039 4dbe 0ac4 cfbc 4dcc e03d
00000070: d6c3 abbc 6800 97be 9866 333e 87e0 58bd
00000080: 0c67 69be 4742 88be 53d1 a6be 75f3 53be
00000090: 17b0 70bd b4ff 1d3e 0022 8bbe b787 c6bd
000000a0: 7be6 103e 1fcb 49be 7796 b23c e8af 1e3d
000000b0: 128b b4bc 5efe 2c3e d449 e5bc 953f 1abd
000000c0: 7c4c 8dbe 1e69 64be 95d8 29be f329 793b
000000d0: 29c6 783d ef13 913c 56fe 133b 599d 86be
000000e0: 2e6d 9a3c 44ab d9bd 3c51 c7be beee 1ebe
000000f0: 9865 ab3d 7a5d f73c 629b eabc 05d4 ec3c
00000100: 2727 8fbe 7259 89bb 0419 b8be f902 afbd
00000110: f13b 85bd 74b9 90bd cdbc 573e 7e59 163d
00000120: 2366 083d baae 2a3e 6a40 643e 637a f2be
00000130: 39b7 4dbd b1a7 d1bc 1460 cfbd 72d5 c4bd
00000140: 2969 7ebd dc45 5f3d 161e 99bb f59e 783d
00000150: f33e 44be 3693 63be ef0b f9bd f3ff 303e
00000160: 0c12 83bd 4931 28be f54a 4cbe 43d8 17be
00000170: d00d d4bd 1328 623e 8092 1a3e c83c e2bd
00000180: 289c c53e e15f 8a3c 1d93 82bd 28f7 c4bd
00000190: 1182 6d3e 29b3 c83e d9fa 81be 6806 adbc
000001a0: 477c 6abd f1ec 10bd 3bc9 10ba 061f 363d
000001b0: 2f02 68bd cb7c 463e 249d fa3d 7be2 523d
000001c0: e6b5 e03d 2a85 4a3e 1c10 49be f3f6 8b3d
000001d0: 6618 41bd 7216 0e3e a5a9 2d3d a999 51be
000001e0: 892b adbd 8f9b 92be 55ae 11be 6976 47be
000001f0: 6371 97be 8b10 d3bd 3297 a93e ef86 d83d
00000200: 524d e0bd 3332 a13d b340 113e addf e6be
00000210: d940 19bd 8f9f 1cbe 1f01 16bd d9cd 6cbe
00000220: 339d 09be 5f42 21be 19f0 19bd 6c50 2fbe
00000230: 85e1 c63c d956 b93c e04d e63d 4f30 5c3d
00000240: 2133 63be be6e dfbd 1050 70be 18a9 21be
00000250: b0ec 86be d265 0fbd fdfb 02bd b161 92bd
00000260: b9af f13d 3fa0 28be b67c c83d dfc3 303e
00000270: b954 fdbd 1e95 4ebd 1f27 15be 9a9c 5cbd
00000280: d56b 823d 0648 973e 59fa 083e d0fd f93c
00000290: cd25 2c3e 0053 913d 8de9 553c d52f 8ebe
000002a0: d554 9ebd e9a9 1a3e 2054 33be 8372 fdbd
000002b0: 35e1 0e3e ac6b 78bd 6a36 0dbe 7237 2dbd
000002c0: 1995 25bd ed0d 9bbd 1488 d9bb e4d3 62be
000002d0: 4539 373c f923 84be 4909 8a3c 1b4e 3dbe
000002e0: a5df 7d3d 3498 c13d 58f5 41be 5991 473e
000002f0: 7eac cebc d0de c23d 2c4f f93d eb6d d4bd
00000300: d19f 833d b627 76be 29e5 d93d 3bf1 94be
00000310: a1e8 a7bd 99bb 51be 5ba6 36be fb1f 113e
00000320: f2ee 62bb 7548 fe3d 0f2c d7be b70d 193d
00000330: 2261 05bd 0926 49bd c233 96bd 306f debc
00000340: a9a2 12bf 6be6 abbd 1ae8 41bd 276d eebd
00000350: 55bf f7bc 2dec 213d beb8 81be 38e1 65bd
00000360: 2782 20be d354 443e d261 54be fd3c 81be
00000370: 363c 03be 50d3 493d 9aeb afbd 754e 72be
00000380: 41ae 303e dfde 013e f351 2ebe fb8f a73d
00000390: edcd 1abe 7d00 3e3d 6e59 6abe da60 dcbb
000003a0: 1cfd 63be 6a0b cfbc d40a 1abe de9b 50be
000003b0: b049 11be 0eac 9a3c 0c4b 0c3e cf33 8ebd
000003c0: 66b7 823d b10b 5e3d 63e4 a0be b8c2 ebbd
000003d0: 9006 893d 0460 50be a27a 513c e9d6 f7bb
000003e0: 69cf a7bd 67c2 593d 8365 06bd 46d0 8c3d
000003f0: 038f 10be 5cb1 513e 99ac 00bf 8099 a3bd
-0.11205271 -0.110410996 0.19155636 0.10939666 -0.17153966 0.14275712 -0.2825174 -0.13819727
-0.0003864611 0.073196866 0.29582644 0.026427941 0.2581613 0.25044158 -0.068741955 -0.1543502
0.05840142 -0.3630962 0.18535094 0.10926005 0.121849306 0.08443865 -0.0032713164 -0.31949702
0.15678449 -0.20041633 -0.025362033 0.10976467 -0.020967405 -0.29492497 0.17519605 -0.0529485
-0.22793216 -0.26613066 -0.32581577 -0.2069834 -0.058761682 0.15429574 -0.27174377 -0.09693854
0.14150421 -0.19706391 0.021800263 0.038741976 -0.02203897 0.16893908 -0.027989306 -0.037658293
-0.27597415 -0.22305724 -0.16586526 0.0038019388 0.060735855 0.0177097 0.0022582016 -0.26291922
0.018850889 -0.106283695 -0.38929164 -0.1552076 0.08368987 0.03019594 -0.028638545 0.028909693
-0.27959558 -0.004191571 -0.35956585 -0.08545489 -0.065055735 -0.070666224 0.21068116 0.03670644
0.03330053 0.16668215 0.22290197 -0.47359 -0.050223563 -0.025592657 -0.10125747 -0.09611024
-0.062112007 0.054509982 -0.004672776 0.06069847 -0.19164638 -0.22224125 -0.12160479 0.17285137
-0.063999265 -0.16425051 -0.19950469 -0.14828591 -0.10354197 0.220856 0.15094948 -0.11046749
0.385957 0.016891422 -0.06375716 -0.09617454 0.23194148 0.39199188 -0.25386694 -0.021121219
-0.057247426 -0.035382215 -0.000552315 0.04446318 -0.056642707 0.19383542 0.122370034 0.05148552
0.109721944 0.1977736 -0.19635051 0.06834211 -0.04714241 0.1387575 0.042398114 -0.20468773
-0.08455569 -0.28634307 -0.14226659 -0.19478764 -0.29578695 -0.1030589 0.33123165 0.105726115
-0.10952248 0.07870903 0.14184837 -0.45092526 -0.03741536 -0.15295242 -0.036622163 -0.231254
-0.13438873 -0.15747975 -0.03758249 -0.17120522 0.024277458 0.02262442 0.11245322 0.05375701
-0.22187473 -0.10909794 -0.23468041 -0.1578716 -0.26352453 -0.035009213 -0.031978596 -0.071475394
0.118010946 -0.16467379 0.09789412 0.17262219 -0.12369675 -0.050435178 -0.14565705 -0.053860284
0.063682236 0.29547137 0.1337675 0.030516535 0.16811295 0.07095909 0.013056171 -0.27770868
-0.07731024 0.15103878 -0.1751256 -0.12375357 0.13953097 -0.06064956 -0.13790289 -0.042289205
-0.040425394 -0.075710155 -0.006638536 -0.22151142 0.011183088 -0.25808695 0.01685013 -0.18486826
0.061980862 0.094528586 -0.18941247 0.1948904 -0.025228735 0.09515154 0.12173304 -0.10372528
0.06426967 -0.24038586 0.10639412 -0.29090294 -0.08198667 -0.20481719 -0.17836897 0.14172356
-0.0034627286 0.12416164 -0.42025802 0.037366595 -0.032563336 -0.04910854 -0.07334091 -0.027152628
-0.5727945 -0.08393558 -0.04734049 -0.11641913 -0.030242601 0.039531875 -0.2533626 -0.05612299
-0.15674649 0.19172983 -0.2074044 -0.25241843 -0.12815937 0.04927379 -0.08589859 -0.23662741
0.17253973 0.12682675 -0.17023449 0.08181759 -0.15117617 0.046387184 -0.22885677 -0.006725413
-0.22264522 -0.025273997 -0.15043193 -0.20371959 -0.14188266 0.01888087 0.13700503 -0.069434755
0.06382637 0.05421037 -0.31424245 -0.11511749 0.06690705 -0.20349127 0.012785586 -0.007563461
-0.08193857 0.053163912 -0.032811653 0.068756625 -0.14117055 0.20477813 -0.50263363 -0.07988262

hidden2.bias f4 [128]
00000000: 01e1 d2ba 8e2e c5bd f4a3 a6bc e1af 893e
00000010: 834c 1ebd 3032 11be 58c1 50bd 87ac a43d
00000020: 2599 893d 738a 243d 8e86 3c3d 42e9 2b3e
00000030: bc4c df3d 9d50 8a3d 8de9 6abd e946 1c3d
00000040: 077c 833d ced1 ddbc f88c 023f b77d fa3b
00000050: 5205 7ab7 50a8 013d dea7 0b3d db74 7dbd
00000060: 0765 5abd 008e 12bc 2672 bf3d 2502 8f3d
00000070: d9c4 053d 8aca 67bc 737d 3fbd 42d2 58bd
00000080: ee5a 06bd a07b df3d d78f 3cbd a2e6 abbd
00000090: 0108 ce3d 5c6c 88bc de77 99bc 0d49 b1bd
000000a0: 5e07 2b3e b16f 983b 2834 99bc 0be1 723d
000000b0: 6522 133e 7bfc 4ebd 0af5 7a3e a484 ca3d
000000c0: 24de 35bd 94c7 06bd 6a44 993d bbf6 ffbc
000000d0: 75ee 20bd 6fc6 e7bd 1411 463b 19cc 03be
000000e0: fb25 7f3d ace2 e43c ab8a 31be 7f5f b7bd
000000f0: cb28 df3e d845 993c 466b ff3c 167f eabd
00000100: 0d25 0bbc bb3a 093c 0033 d5bc f7ea a93d
00000110: 0a90 993d 0f50 f93d c95a 36bc dde4 0d3d
00000120: 3717 35bb 7a92 95bd eb07 873d 3d79 743c
00000130: e6e0 c53d d934 dabc 842d 3d3e 3a9b e5bd
00000140: 3ce3 10bd 61d5 873c 20af 563d a6e6 03bc
00000150: c1e6 643d 0db1 c03d d1e3 3abd 053b 063e
00000160: 07e4 eebc 34be ee3d c632 aabd a14b 75bd
00000170: 474e 0bbe 435d 8fbd 0260 2d3d e29d ad3d
00000180: fefb 2fbd eeb3 c9bd 6d1b 3e3d 5e66 96bd
00000190: c458 acbd 8c42 d3bb 67c9 8e3c 3ca0 c1bc
000001a0: 1b55 a23c aeee 88bd 351b 313e 763e 06bd
000001b0: 0fa9 34bc 2784 48bd 6c3c 8ebd 4aca 8c3d
000001c0: 1fed a23c d7f5 a23d 842e be3d 5566 4bbd
000001d0: f46d 45bd 85d0 b13c ec21 f3bc ad86 04bd
000001e0: 88e9 303d c023 8cba 1422 65be 2238 4e3d
000001f0: e5f1 c5bd 7a5a f03c 904e a53b 048d a73d
-0.0016088785 -0.0962802 -0.02034185 0.26891997 -0.038647186 -0.14179301 -0.050965637 0.080407195
0.06718663 0.040171098 0.04602676 0.167882 0.10903308 0.06753657 -0.057351638 0.038153563
0.06420141 -0.027077582 0.5099635 0.007644381 -1.49024e-05 0.031654656 0.034095638 -0.06187902
-0.053319003 -0.008944988 0.09347944 0.06982831 0.03265843 -0.01414741 -0.046750497 -0.052934892
-0.03280156 0.109122515 -0.046035614 -0.08393599 0.100601204 -0.016653232 -0.018733915 -0.086565115
0.16702029 0.0046519865 -0.018701628 0.05929665 0.14368589 -0.050533753 0.24507537 0.098885804
-0.044401303 -0.032905176 0.07483752 -0.03124558 -0.03928991 -0.11317145 0.0030222582 -0.12870826
0.06229208 0.027940117 -0.17338054 -0.08953761 0.4358581 0.018710062 0.031179082 -0.11450021
-0.00849272 0.008375819 -0.026025295 0.08296769 0.074981764 0.12173473 -0.011130043 0.03464209
-0.0027632245 -0.07303329 0.06593307 0.014921484 0.096620366 -0.026636528 0.18474394 -0.11211248
-0.035372958 0.01658124 0.052413106 -0.008050596 0.055884127 0.0940877 -0.04562742 0.13108452
-0.029161466 0.11657372 -0.083104655 -0.05988658 -0.13604079 -0.0700021 0.04232789 0.084773794
-0.042964928 -0.09848772 0.046412874 -0.07343744 -0.08415368 -0.006447142 0.01743002 -0.023635976
0.019815972 -0.066861495 0.17295535 -0.03277441 -0.011026635 -0.048954155 -0.06945118 0.06874521
0.019888459 0.079570465 0.09286216 -0.04965814 -0.048200563 0.021705875 -0.029679261 -0.032355
0.043191463 -0.0010691807 -0.22376281 0.0503465 -0.09665278 0.029340018 0.005044766 0.081811935

log_std_layer.weight f4 [4, 128]
00000000: e68e 0abc 8545 0c3d 288f b33b 90bf eb3b
00000010: 5b0a 0ebb 648e 74bb e179 35bc 6ef6 873b
00000020: d64e 7bbc b7e4 d738 17d7 e4b9 7794 4c3b
00000030: 34ce f6bb 46a7 35bd 93a3 1dbb ddf0 053c
00000040: 8c83 af3c 282b c5ba f712 be3d 163e 1dbc
00000050: 8da4 22bb 56c2 faba 6d34 823b 705d a23a
00000060: b2a3 a2bc d932 dab9 5680 363c fd40 3f3b
00000070: c964 b63b d62e ab3b 878a 81bb 17e5 02bc
00000080: 599c e9ba 11d2 fe3b f424 9fba 4d4b c4bc
00000090: ded4 1bbc 96a5 b63c bf3e e53b a6dd afbc
000000a0: b090 703a 4c53 5b3c 3468 93ba 825f 18bb
000000b0: c894 45bc 88cd 40bb 847a 973b f965 463c
000000c0: f421 c63b 0c72 803c 7cc6 233c 190f 5b3c
000000d0: e346 1db9 f93f 763b 159c 74bb bcf8 d03c
000000e0: 5ca7 89bb c712 463c 01c4 0cbc f98f 92bb
000000f0: 693f 823b f301 85bc 51b7 8d3c 4cdc 503b
00000100: a4d1 1dbc 0c19 f3bb d53d b63a dd37 243c
00000110: 3bf4 e63b 4f26 a73b f712 853c a023 adba
00000120: fe1c a337 d91e f33a da6b c73a 22b8 563c
00000130: 2b92 863c 707e 50bc e49f 1e3c 0a82 763c
00000140: 2da9 c23c 0b7a 80bb 6a91 b63b f400 153d
00000150: 6f88 d43b 2eee dc3a f5e8 48bb f0d1 26bb
00000160: 4450 40bb f303 d939 6ff5 7cba 1224 78bc
00000170: 4678 133b 804d 5d39 3bc9 ccbb da86 453a
00000180: 643a d339 c438 e8bb 6771 6c3b cfce 66bc
00000190: 00be 003c c68d abbb 23f0 30bc b6a9 943c
000001a0: 5d05 e9bb fe5b 483b 504d d13b f3e2 bb3a
000001b0: a560 0f3c b0d3 03bc fd96 5abc 7dee 33bb
000001c0: 91dd 99bb 91b5 953c b632 dbba 2c46 6ebc
000001d0: 4878 8f3c 7dcd cb3b 0b9b 50bc 67da d4bb
000001e0: e27f e23a fb3a 0d3c 2d29 23bc 667a 45bc
000001f0: 8191 32bc 3a81 0fbb bf98 ed3a b3f6 c33b
00000200: 6d30 a53a dc5d 163d 14c4 2b3b 17c6 013d
00000210: 3cc0 443c eacf 753c 79b2 8cba 0f72 a73c
00000220: 2bf1 73bc 7f0c 66bb 738c 663a a688 a33a
00000230: 4c70 18bc 283b 2c3d efc2 653a cecb 7e3c
00000240: 543c 1dbb 12c6 98ba 7a51 eb3d 2bdc 9ab9
00000250: bc24 97bc 03ed bc3b db27 a6ba e1e4 8c3b
00000260: 9d46 033b a79c 7bbc 2f6a a53c 9545 1d3a
00000270: 214d 42bc 62d3 05bc 86b8 91ba ec19 8dbc
00000280: 43c4 3dbb 0461 8fbc 8879 833b b26d 72bb
00000290: 9841 77bb 7618 8fbc 5c61 bf3a b5ca 79bb
000002a0: 9e26 823b 3746 143b ed25 f7ba 4c78 433a
000002b0: 7f1e 50ba ed60 b8bb 451c 2a3c d539 5cbb
000002c0: 8a93 cd3b b43a 89bc 5f08 9c3b c56a 2abc
000002d0: f48c 9e3c f4ee 613c a44a 953b fed4 d6bc
000002e0: 2172 6ebc f06e 30bd d9ee ff3b e477 86bc
000002f0: ebd9 60bb 3698 85bb c5a7 5cbb 25fb f53b
00000300: 084e 693c 209a 8bbc f210 7b3b 7d67 c3bc
00000310: bfec ec3b d7d9 b83b 5761 5abb dec1 943b
00000320: 26b8 e2bb 90a0 d5b9 064c 30bc 2eb3 283c
00000330: 8f2c 62bd 88ee a73c c6b0 9f3b d257 95bc
00000340: c9cb 1fbd 8c43 b0bb b531 733b e8d7 6d3c
00000350: 4dd1 4bbb 615f 073c be3a 02bc 2dbf 563b
00000360: c4fb 373c 60da 3ebb a8de 2dbc 7923 b53c
00000370: ddb7 263c 1dc2 5ebc 52ff 20bc b1fb f23c
00000380: 5492 70bb 8f6d 45bc 087c 7f3b 6c50 2e3c
00000390: 0728 d93b 5df6 933b e619 3abc afef 8f3c
000003a0: a74a 05bc 01d3 67ba 9ba4 8a3c d012 ba3c
000003b0: 0e37 fb3b 60e8 193b 2e51 f43b 573c 36bd
000003c0: 728a 963c a683 f138 9e09 d83a dfde 9abc
000003d0: c9d7 a4ba 76a9 0b3b 24ed 9cbc 6f11 31bc
000003e0: fdbe 0ebc e210 c2bc 648c 97bc ff5e 8fbc
000003f0: facc 11bb acc8 b2ba b5f0 f03b 22f6 aa3b
-0.008456921 0.034245986 0.005479712 0.007194467 -0.0021673653 -0.0037316317 -0.0110764215 0.0041492498
-0.01533862 0.000102946 -0.00043647803 0.0031216422 -0.0075319055 -0.044348978 -0.0024053797 0.008175102
0.021425031 -0.0015042769 0.09280961 -0.009597322 -0.0024817318 -0.0019131403 0.003973535 0.0012387466
-0.019853447 -0.00041618085 0.011138996 0.0029183023 0.0055662137 0.005224089 -0.0039532813 -0.00798919
-0.0017823084 0.0077765067 -0.001214175 -0.023961687 -0.009511201 0.022295754 0.0069960053 -0.021467995
0.00091768336 0.013386559 -0.0011246265 -0.0023250286 -0.012059398 -0.0029419381 0.0046227593 0.012109273
0.006046528 0.015679382 0.009996053 0.013370299 -0.00014999094 0.0037574752 -0.0037324477 0.02550923
-0.004200859 0.012089438 -0.008591653 -0.0044727293 0.0039748442 -0.016236281 0.017299326 0.0031869588
-0.009632502 -0.0074187573 0.0013903925 0.0100230845 0.0070481575 0.0051010023 0.016244395 -0.001320947
1.9444615e-05 0.0018548622 0.0015214637 0.013105424 0.01642712 -0.012725458 0.009681676 0.015045652
0.02376231 -0.0039207987 0.005571534 0.036377862 0.0064859907 0.0016855651 -0.0030656431 -0.0025454722
-0.0029344717 0.00041392408 -0.00096496096 -0.015145319 0.0022502108 0.00021105073 -0.0062495745 0.0007535048
0.0004028856 -0.007086845 0.0036078335 -0.014087393 0.0078577995 -0.0052354066 -0.010799441 0.01814733
-0.007111235 0.003057241 0.00638739 0.0014334604 0.008751069 -0.008046076 -0.0133416625 -0.0027455383
-0.004695602 0.018275054 -0.0016723487 -0.0145430975 0.01751341 0.0062195645 -0.012732278 -0.006495762
0.0017280544 0.008620019 -0.009958548 -0.012053108 -0.010898949 -0.0021897093 0.0018127187 0.0059803366
0.0012602933 0.036710605 0.00262094 0.031683054 0.012008723 0.015003184 -0.0010734341 0.02044013
-0.014889042 -0.0035102663 0.0008794732 0.0012476637 -0.009304117 0.042048603 0.0008764704 0.0155515205
-0.0023992257 -0.0011655709 0.1149015 -0.00029537207 -0.018450134 0.0057655587 -0.0012676673 0.0042997454
0.0020031102 -0.015357173 0.020192234 0.0005999443 -0.011859209 -0.008168073 -0.0011117614 -0.017224275
-0.0028956092 -0.017502315 0.0040122904 -0.0036991653 -0.0037728306 -0.017467719 0.0014601159 -0.0038115208
0.0039718887 0.002262486 -0.0018855907 0.00074565853 -0.00079391146 -0.005626789 0.010382717 -0.0033603807
0.0062736915 -0.016751625 0.00476174 -0.010401432 0.019354321 0.013789881 0.004556017 -0.02622461
-0.014553578 -0.04307455 0.0078104553 -0.01641459 -0.0034309577 -0.004076983 -0.0033669334 0.0075067454
0.0142397955 -0.017041266 0.003830966 -0.023853058 0.007230371 0.005641203 -0.003332218 0.0045397123
-0.006918925 -0.00040746154 -0.010760313 0.010296626 -0.055218276 0.020499483 0.004873368 -0.018230353
-0.039012704 -0.005379146 0.0037108485 0.014516808 -0.0031100095 0.008262486 -0.007948576 0.0032767758
0.011229459 -0.002912186 -0.010612167 0.022111641 0.010175672 -0.013596085 -0.009826498 0.029661031
-0.0036708312 -0.012050047 0.003898384 0.010639291 0.006627086 0.004515453 -0.011358714 0.017570345
-0.008135474 -0.0008843393 0.016924193 0.022714049 0.007666475 0.0023484454 0.0074559664 -0.04449114
0.018376563 0.00011516297 0.0016482358 -0.018905101 -0.0012576516 0.0021310723 -0.019156046 -0.010807379
-0.008712527 -0.023689691 -0.01849956 -0.017501352 -0.002224742 -0.0013640127 0.0073529133 0.0052173296

log_std_layer.bias f4 [4]
00000000: 9000 f23e b1dc fc3e c66d d13e 9626 db3e
0.47266054 0.49387124 0.40904063 0.42802876

mu_layer.weight f4 [4, 128]
00000000: aef3 c63e 053e bd3c 8cf1 873e 438b 1ebf
00000010: d7c2 513f 13a9 43bf 8a35 2a3f 91f2 87be
00000020: 8378 a73c ecc2 46bd 0ed8 0e3d 9237 363d
00000030: bf73 16bf 58e2 543f 1e8f 2c3e 1cb4 e13d
00000040: 517d d4be 3173 eabe 3719 b7ba 6989 acbe
00000050: f799 933d b901 823e 73f1 123f 283b 913e
00000060: f038 9b3e e3fd 823e 0c26 253e f146 09bf
00000070: ee05 aa3e 63d4 3fbe 9c6a 5cbe c05d 5fbf
00000080: 9a35 9d3e 05b3 d4be 7f86 c1be 28a2 abbd
00000090: ceaf 72be e980 b33d 5c65 d83e 3e49 e2be
000000a0: a6df 0cbf 49ec 073f 1df4 f8be 7e9f ff3e
000000b0: 01ef c13e cbe0 4d3f 4e40 cc3c 706c f5be
000000c0: 221f 353f 8640 d3be 7d25 963e cc5c c43e
000000d0: adbe 94bd 940f 9d3d c266 cc3e 2393 943e
000000e0: 0b57 8e3e a677 febe 39d0 22bf cc76 68be
000000f0: 9991 a13e fc72 923e 03db 1dbe 8eb9 ecbe
00000100: 9521 c63e 2754 273f acb3 2d3f 4664 2b3f
00000110: 937d c43e eaea fb3d 1c9e 90be 7dda 65be
00000120: 6e5b 42bf c3f6 203e c617 bfbe 8585 7b3e
00000130: 5c4f 943e cd2d cbbd 45c6 223f c5ac dcbd
00000140: 77af c13d 6689 6bbe b02a 89bd 5a77 34bf
00000150: a77e d7bd 82ed 64bd 41f6 cc3e 652d 293e
00000160: 516f 213f f57e 24bf f0a6 c3be eb70 e7be
00000170: fd88 ea3e 72e9 6abe 4aa2 893e 3547 2abe
00000180: 96b0 b13e 4c48 d2bd 3768 12be 4fed 9cbe
00000190: 1a66 263e ba33 f3be 424b 18be 789d 30bf
000001a0: d874 f3be 07cb 7b3e 5162 cd3e c861 c1be
000001b0: 3e0a 643e fce6 01bf 1ac9 34bd 45ee 173e
000001c0: 9020 4e3f a7b1 b6bc 7e9c 9d3e 317c 4fbe
000001d0: ad08 c5be c819 173f 9853 213f b5e5 2c3d
000001e0: b89a c33d 0359 7dbe 6980 cdbd eb52 833d
000001f0: 8c83 663d d5b3 6abe b815 c7bd 2fc8 06bf
00000200: 4d43 e33e a406 0b3d 284e ec3e 4793 8f3d
00000210: 4d0f 103e f6ac 7f3e ba79 3b3e a372 6abe
00000220: e7b9 33bd 0e5a 84bf 4215 a33d 191f 55bf
00000230: 46bf af3e 0407 0a3e ebbd 603f 7515 a53e
00000240: 448d 0fbf d98b 6a3e 959f 04bd c4ba e23d
00000250: 246f c93d dd1d 533f 25b1 2a3f da1c c33e
00000260: ffb8 1b3c 3b41 9ebc ff35 5ebd 751f 76be
00000270: ed97 48be 378f 42bc 9c30 ccbd c9fd adbe
00000280: 4bf8 a8be b71d 36be 2b80 103f d643 543f
00000290: f1be 4e3f 16ae dfbe 66a5 0c3e b296 3e3c
000002a0: db53 dfbd a8aa 1abf 5436 09bf 3b25 993e
000002b0: fbcf 143f 42b9 d8be 6c39 d1be c40f 7c3e
000002c0: 1cd1 83bd 2b5b 0fbf 2681 cb3e 91f5 bdbe
000002d0: a41c 31bf 744f 983e c427 9ebd d49e 6a3e
000002e0: f0cd 573f 3c08 593f 9ab9 8f3d 5540 33bb
000002f0: 97df a0be 52c3 52be 5636 9f3e a426 c1bd
00000300: b99d f63c 1b6e 093f f4a3 3e3b 7569 263e
00000310: 020f ef3d 2438 f1be fc7c 4ebf 4d6d ff3e
00000320: 270a e93e 5743 293f 4427 613e a519 513f
00000330: 0d26 9d3d 382b a33e 36c0 193e 7155 063f
00000340: 59f5 3bbe 3df2 0dbf 9cd6 e93e adac c0bb
00000350: 7685 bebe 8736 fa3d 5409 abbe 1b73 bebc
00000360: 3b82 d53c 2fae 863d aca8 1b3f 8f2b 8ebe
00000370: 4b04 e53e a33e 9dbe 46aa c5be a8c6 b8be
00000380: cd07 e83d 12f9 4e3f 7645 ba3e 73a2 fcbe
00000390: 1254 65be 4792 7dbf 9b4c 04bf bd92 403d
000003a0: ba28 c73e 46e2 fa3d eadf c7be d495 3e3e
000003b0: 8db3 e13e d455 0a3f 87ab 91bc 94c9 ec3e
000003c0: ace7 1fbe 8ea3 833e 6e43 a93e 87eb 1b3e
000003d0: a48e a3bd 4e1d 2bbe 8ecd d2be 4264 01bf
000003e0: d527 b7be 9234 03bf 3c7d bb3d 2c04 973b
000003f0: 2ba4 0cbf c56d b63c 4190 b4be 609a 423e
0.38857788 0.023100862 0.26551473 -0.61931247 0.81937927 -0.7642986 0.66487944 -0.2655225
0.020443207 -0.048525736 0.034874015 0.04448659 -0.58770365 0.83157873 0.1685147 0.11020681
-0.4150186 -0.4579101 -0.0013969307 -0.33698586 0.07207101 0.2539194 0.5739967 0.28365445
0.30316877 0.25584325 0.16127795 -0.53623873 0.3320765 -0.18733363 -0.21525043 -0.87252426
0.30704957 -0.4154283 -0.37797925 -0.08380538 -0.23699877 0.08764822 0.4226483 -0.44196504
-0.5502876 0.5309492 -0.48623744 0.4992637 0.37877658 0.8042113 0.024933007 -0.47934294
0.7075063 -0.41260165 0.29325476 0.38352048 -0.07262931 0.07668987 0.39922148 0.29018506
0.27800784 -0.4970066 -0.6359897 -0.22701567 0.31556395 0.2860335 -0.15415578 -0.46235317
0.38697496 0.6536278 0.6785228 0.6694988 0.38377056 0.12300666 -0.28245628 -0.22446628
-0.7592076 0.15719132 -0.37322825 0.24562652 0.28966796 -0.09920845 0.63583785 -0.10775141
0.094572954 -0.23001632 -0.06697595 -0.70494616 -0.10522204 -0.055890568 0.40031627 0.16521223
0.6306048 -0.6425622 -0.382133 -0.45203337 0.4580764 -0.22940615 0.2688163 -0.16628726
0.34705037 -0.10267696 -0.14297567 -0.30649802 0.16249886 -0.47500402 -0.14872459 -0.6899028
-0.47550082 0.24589168 0.40114072 -0.37769914 0.22269532 -0.5074308 -0.044137098 0.14836986
0.80518436 -0.022301508 0.30783457 -0.20262219 -0.38483182 0.59023714 0.6301818 0.042211253
0.09550995 -0.24740987 -0.10034258 0.064123 0.056277797 -0.22920163 -0.097209394 -0.52649206
0.44387284 0.03394188 0.46153378 0.07010513 0.14068337 0.24968323 0.18308154 -0.22895293
-0.043878462 -1.0339983 0.07963039 -0.83250576 0.34325618 0.13479239 0.8778979 0.32242933
-0.5607493 0.2290491 -0.03237875 0.11070779 0.098356515 0.8246744 0.6667655 0.3810795
0.009504556 -0.019318214 -0.054250713 -0.24035437 -0.19589205 -0.011874965 -0.09970209 -0.33982685
-0.33001933 -0.17784773 0.5644557 0.8291601 0.80760103 -0.43687505 0.1373497 0.011632608
-0.10904666 -0.6041665 -0.53598523 0.29911217 0.58129853 -0.4232884 -0.40864122 0.24615389
-0.06436369 -0.55998486 0.3974697 -0.37101415 -0.6918433 0.29748118 -0.077224284 0.2291215
0.8429861 0.8477819 0.070178226 -0.0027351577 -0.31420586 -0.20582321 0.31096143 -0.09431198
0.030104505 0.5368363 0.0029089423 0.16251166 0.116727844 -0.47113144 -0.8065946 0.49888077
0.45515558 0.6611838 0.21987635 0.81679755 0.07673273 0.3186891 0.15014729 0.52474123
-0.18355311 -0.5544775 0.45671546 -0.0058799596 -0.37211198 0.122174315 -0.33405554 -0.023248246
0.026063075 0.06576192 0.6080425 -0.27767608 0.44729838 -0.3071185 -0.3860647 -0.36089063
0.11329613 0.808488 0.3638112 -0.4934269 -0.22395352 -0.99051327 -0.5167939 0.04701494
0.3889826 0.122501895 -0.3903802 0.18611842 0.440823 0.54037213 -0.017781986 0.46247542
-0.1561572 0.2571072 0.33059257 0.15226565 -0.07986191 -0.16710398 -0.4117245 -0.50543606
-0.35772577 -0.5125209 0.09154746 0.0046086516 -0.54938 0.022269139 -0.35266307 0.19004202

mu_layer.bias f4 [4]
00000000: ac8f fdbc 65c0 3e3d 6485 cabc 18a6 23bc
-0.030952297 0.0465702 -0.024721809 -0.00998833
