model_weight/dqn.pt (torch_old, 28529 bytes, 6 tensors)

layers.0.weight f4 [64, 37]
0	0xbd8d2d1f	-0.06893372
1	0xbd8c4cb2	-0.06850566
2	0xbe14513b	-0.14484112
3	0xbdd53f61	-0.10412479
4	0xbddddb11	-0.10832799
5	0xbcff953e	-0.031199094
6	0xbc4066fa	-0.0117433015
7	0xbe129903	-0.14316182
8	0xbc89579d	-0.01676541
9	0xbe0d150d	-0.13777561
10	0x3aaedcc6	0.0013340942
11	0xbdc57968	-0.09642297
12	0xbdd426c1	-0.10358954
13	0xbd0f8bf8	-0.035045594
14	0x3cff92a0	0.031197846
15	0x3b398a58	0.002831122
16	0xbd717c84	-0.058956638
17	0xbe014f7a	-0.12627974
18	0xbdb3cd11	-0.08779348
19	0x3e24aa61	0.1608062
20	0x3cebf288	0.028802171
21	0xbd88afc4	-0.0667415
22	0x3de36a9b	0.11104318
23	0x3d4ef9f1	0.05053133
24	0x3c48ce98	0.012256287
25	0xbdcf2440	-0.10114336
26	0x3d3eff9c	0.046630487
27	0xbe32ccb0	-0.17460895
28	0xbe4c52ae	-0.19953415
29	0xbe113b0c	-0.14182681
30	0x3dc5cfac	0.09658751
31	0x3dbe20d7	0.092836075
32	0xbe59ca37	-0.21268545
33	0x3c0f3382	0.008740308
34	0xbe06a73f	-0.13149737
35	0xbe2a6860	-0.16641378
36	0xbe1bbcb7	-0.15208708
37	0x3d1dedb7	0.03855678
38	0x3d8b0127	0.06787329
39	0xbd0ee764	-0.03488864
40	0x3e47217b	0.19446366
41	0x3d9fae24	0.077968866
42	0x3e3e9d5c	0.18614715
43	0xbdc2cc37	-0.09511607
44	0x3e38ab26	0.18034038
45	0xbdb1abaa	-0.086753204
46	0xbda7e7f6	-0.0819854
47	0xbd4e32ec	-0.05034153
48	0xb955c77c	-0.00020387577
49	0xbdf2883f	-0.11842393
50	0x3e75a912	0.23990276
51	0xbe3935f8	-0.18086994
52	0x3ce24d5a	0.027624775
53	0xbdecde79	-0.11565871
54	0xbd5c9acc	-0.053858563
55	0x3dc542c1	0.09631873
56	0xbe0973dd	-0.13423105
57	0x3db779d2	0.08958782
58	0x3d4f9fad	0.050689388
59	0x3e2ee9fc	0.17081445
60	0x3e1daf92	0.15399006
61	0x3d6978ac	0.056999847
62	0xbdbf087b	-0.093277894
63	0x3db0c9cd	0.086322404
64	0xbdb769b4	-0.08955708
65	0x3cc1d86c	0.023662768
66	0xbd91dd43	-0.071222804
67	0x3e1ece77	0.15508448
68	0x3bfcd166	0.007715392
69	0x3e2aba16	0.16672549
70	0x3e2adb08	0.16685116
71	0xbe3f902f	-0.18707345
72	0xbe051093	-0.12994604
73	0xbbea9c56	-0.00715975
74	0x3e08edd3	0.13371973
75	0x3d1f350f	0.03886896
76	0x3e40d68e	0.18831846
77	0xbb88e57b	-0.004177747
78	0x3da37797	0.07981794
79	0xbd8e0d1d	-0.06936095
80	0x3e84a2b7	0.25905392
81	0x3dfdfab8	0.124013364
82	0x3ab398c8	0.0013702149
83	0x3d439ac0	0.047755003
84	0xbbd9d1f3	-0.0066473424
85	0xbd6090a8	-0.054825455
86	0xbd579581	-0.052632812
87	0xbd8a21cc	-0.067447275
88	0x3d3e3c1a	0.046444036
89	0xbdbd5913	-0.09245505
90	0x3deb2ab3	0.114827536
91	0x3e458ec0	0.19292736
92	0x3caeead2	0.021352205
93	0xbe070449	-0.13185228
94	0x3db12d38	0.08651203
95	0x3dce963e	0.1008725
96	0x3ca10ed9	0.0196604
97	0xbbb707c8	-0.0055856444
98	0x3cd1e8ac	0.025623642
99	0xbd2926af	-0.041296657
100	0xbd610a9c	-0.05494176
101	0xbc722ec4	-0.014781658
102	0x3dffdc4c	0.1249319
103	0x3d556d4e	0.052106194
104	0x3d7fd13b	0.062455397
105	0x3dfffd3a	0.12499471
106	0xbdb2bd9d	-0.08727572
107	0x3e26e82f	0.16299509
108	0x3db9d106	0.09073071
109	0xba57a728	-0.00082265073
110	0x3c5cd77d	0.013479111
111	0xbce0d718	-0.027446315
112	0xbdc3789e	-0.0954449
113	0x3e03bd49	0.12865175
114	0x3da74d93	0.08169093
115	0x3d83ef65	0.06442145
116	0xbd4a0e0f	-0.049329814
117	0x3dc34aa7	0.09535723
118	0xbb1fef01	-0.0024403932
119	0xbd58df68	-0.05294743
120	0x3e1f42b4	0.15552789
121	0x3bdabb53	0.006675163
122	0x3dd05091	0.10171617
123	0xbd85dc0d	-0.06536112
124	0x3deb7bce	0.11498223
125	0xbd56946a	-0.052387632
126	0xbe1a186c	-0.15048379
127	0xbd2aeba1	-0.04172862
128	0x3c8b1141	0.016976
129	0xbdd955a7	-0.1061204
130	0xbd085e49	-0.033293042
131	0x3d89e1ce	0.06732522
132	0xbe22b917	-0.15890919
133	0xbe2d7e98	-0.16942823
134	0x3e12dac5	0.14341266
135	0xbe066d25	-0.13127573
136	0xbddbf757	-0.10740536
137	0xbd2ffabb	-0.042963725
138	0xbcfca2bc	-0.030839317
139	0xbdd12620	-0.1021235
140	0xbd24dedf	-0.04025161
141	0x3d9285f6	0.07154457
142	0xbcd28264	-0.02569694
143	0xbd825ea6	-0.06365709
144	0xbe08d106	-0.13360986
145	0xbb8947e0	-0.0041894764
146	0xbdb6ab89	-0.089194365
147	0x3cbada27	0.022809101
148	0xbcff009f	-0.031128226
149	0xbc21ab62	-0.009867521
150	0x3c37d649	0.011220523
151	0xbd51041d	-0.051029313
152	0xbdbd1d84	-0.09234145
153	0x3e23e785	0.16006286
154	0xbde30e5d	-0.11086724
155	0xbe302a93	-0.17203741
156	0xbe116f68	-0.14202654
157	0xbe7e4806	-0.24832162
158	0xbd00fa18	-0.031488508
159	0xbda35c8f	-0.079766385
160	0xbde6b4c8	-0.1126495
161	0xbdcc4c5e	-0.099755034
162	0xbd6e4783	-0.058173668
163	0x3cae8426	0.021303248
164	0x3e1e5235	0.15461047
165	0xbbd7322e	-0.006567261
166	0x3de57160	0.11203265
167	0xbd82fb7b	-0.06395622
168	0xbd6557e5	-0.055992026
169	0x3d43b6f9	0.04778192
170	0x3e045df9	0.12926473
171	0x3dbd84fb	0.0925388
172	0x3cc4ab3f	0.024007438
173	0x3d412d58	0.047162384
174	0xbddcfbd6	-0.107902214
175	0x3dc91814	0.09819046
176	0x3dbd8bc2	0.09255172
177	0x3c734da9	0.014850059
178	0xbdbeeadb	-0.09322139
179	0xbdcbf8a1	-0.099595316
180	0x3ddc3cb0	0.10753763
181	0x3d82b119	0.06381435
182	0xbd2b364c	-0.04179983
183	0x3dbb698e	0.09150992
184	0x3d78e768	0.06076756
185	0xbdb378f3	-0.087633036
186	0xbe1e1ed2	-0.15441445
187	0x3d8bfc83	0.06835272
188	0xbcebff4e	-0.028808262
189	0xbc2a9ac2	-0.010412874
190	0xbdaa258b	-0.08307942
191	0x3d951828	0.07279998
192	0x3de1fbb2	0.11034335
193	0x3dfc7ba0	0.12328267
194	0x3e19b9c2	0.15012267
195	0xbd64e248	-0.05587986
196	0xbd8e9084	-0.06961158
197	0x3d662aba	0.05619309
198	0x3d7d7db2	0.06188745
199	0x3dc011ca	0.09378393
200	0x3dea76c6	0.114484355
201	0x3e080757	0.1328405
202	0x3d90b6ab	0.07066091
203	0xbde3c118	-0.11120814
204	0xbcaa058b	-0.020754596
205	0xbb9e70c7	-0.0048352215
206	0x3e2d96a2	0.16951993
207	0x3d20b5fb	0.03923605
208	0x3e3ac9ea	0.18241087
209	0xbda5ca8b	-0.08095273
210	0xbb48111e	-0.003052778
211	0x3e2f7588	0.17134678
212	0xbd84cf70	-0.06484878
213	0x3ca2a782	0.019855265
214	0x3e68518b	0.22687356
215	0xbe2c606e	-0.1683366
216	0xbd4e633a	-0.0503876
217	0x3e3e019d	0.18555303
218	0xbd5232ce	-0.051317982
219	0x3d470afb	0.048594456
220	0x3d896538	0.06708759
221	0x3d3d03ad	0.046146084
222	0x3d53fb1b	0.051753145
223	0x3d872f21	0.06600786
224	0x3d53a062	0.051666625
225	0xbdc5c5ff	-0.096569054
226	0xbbc68d16	-0.006059299
227	0x3c64ea04	0.013971809
228	0x3b5dc21e	0.0033837627
229	0xbd3db334	-0.04631348
230	0x3e3bc14a	0.18335453
231	0xbe1e2257	-0.15442787
232	0x3c22fe38	0.009948306
233	0x3c17b1ad	0.00925867
234	0xbd101079	-0.03517196
235	0xbdfede85	-0.12444786
236	0xbdddb017	-0.10824602
237	0xbda0774d	-0.07835255
238	0x3d2b2828	0.041786343
239	0xbd736d3c	-0.059430346
240	0x3def49d3	0.11684003
241	0x3d4eaeb2	0.05045957
242	0x3dd70c2b	0.10500368
243	0x3db9811b	0.09057828
244	0x3dcd5d5b	0.10027572
245	0x3d9d753c	0.07688376
246	0xbe0ded6e	-0.13860103
247	0x3d30e70b	0.04318909
248	0x3c3be8b8	0.011469059
249	0x3d9680c4	0.07348779
250	0xbd114ec1	-0.035475496
251	0xbe15ef83	-0.14642148
252	0x3d7ecf98	0.062209696
253	0x3c83913b	0.016060462
254	0x3cad3bbe	0.021146651
255	0x3d216b1c	0.039408788

layers.0.bias f4 [64]
0	0x3d3e9ddc	0.046537265
1	0x3e702d4d	0.23454781
2	0x3e7e313d	0.2482347
3	0xbcb6f59e	-0.022333916
4	0x3d80ce40	0.06289339
5	0x3e3c1575	0.1836756
6	0x3e3b1a69	0.18271793
7	0xbdd0883b	-0.10182234
8	0x3dc0e37f	0.094183914
9	0x3d808f7f	0.0627737
10	0xbb38d1ca	-0.0028201216
11	0x3e299896	0.16562113
12	0xbe2d0289	-0.16895498
13	0xbca048a5	-0.01956589
14	0xbdd25d2d	-0.10271678
15	0x3e43f170	0.1913507
16	0xbe77bf24	-0.24194008
17	0x3e81358e	0.2523617
18	0x3e55a88d	0.20865078
19	0x3e30388f	0.17209075
20	0x3db08b6b	0.08620342
21	0xbd791ef3	-0.06082053
22	0x3d50e258	0.05099711
23	0x3daabebc	0.08337161
24	0x3d3242f3	0.04352088
25	0xbd6c2cd1	-0.057659928
26	0xbda889c6	-0.08229403
27	0x3e46c103	0.19409566
28	0x3e33c906	0.17557153
29	0x3d17c3a6	0.03705182
30	0x3e0df454	0.13862735
31	0x3dc7c137	0.0975365
32	0x3dd98938	0.106218755
33	0xbd86d67d	-0.06583879
34	0x3ddd6a7b	0.10811325
35	0xbd7f449c	-0.06232129
36	0x39340959	0.0001716962
37	0xbd91f5cb	-0.071269594
38	0x3e21b5ee	0.15792057
39	0x3e034b5f	0.1282172
40	0x3dd2eab7	0.102986746
41	0xbdfe08a8	-0.12403995
42	0xbda221cc	-0.079166025
43	0x3e867649	0.2626212
44	0xbd964a70	-0.073384166
45	0xbcb0b6ed	-0.0215716
46	0x3cce59b6	0.025189262
47	0x3dc746bf	0.097302906
48	0xbe30b6cc	-0.17257231
49	0xbd9133b8	-0.07089943
50	0xbe0cf087	-0.13763629
51	0x3e04a414	0.12953216
52	0xbe15d990	-0.14633775
53	0x3dd34c07	0.103172354
54	0x3cffdec1	0.031234147
55	0xbde86ca6	-0.11348848
56	0x3c781a23	0.01514295
57	0xbd275ab6	-0.040857993
58	0xbd5baf69	-0.05363408
59	0x3e5a4505	0.21315391
60	0x3e0af0a3	0.13568358
61	0xbcc871d4	-0.02446834
62	0x3e240d4e	0.160207
63	0x3e67e22e	0.22644874

layers.2.weight f4 [64, 64]
0	0x3dc58392	0.09644236
1	0x3e2d05ef	0.16896795
2	0x3e081711	0.13290049
3	0x3d13d3a5	0.03609051
4	0xbbd3ab37	-0.0064596194
5	0x3df82ce4	0.12117937
6	0xbd4bf4fc	-0.049794182
7	0x3dbf655a	0.09345503
8	0xbd7b3dde	-0.061338298
9	0x3db0d265	0.086338796
10	0xbd962caa	-0.07332738
11	0x3dd77a1e	0.10521339
12	0x3c764001	0.015029908
13	0xbadfd5ee	-0.0017077306
14	0x3d88d7ba	0.066817716
15	0x3d9b2ab0	0.07576501
16	0x3bfc6354	0.0077022705
17	0x3c96ac26	0.018392634
18	0xbd57e9e6	-0.052713297
19	0xbd5c286d	-0.05374949
20	0x3dd3f55e	0.103495345
21	0x3d1d5fec	0.038421556
22	0x3a5e4757	0.00084792584
23	0xbd02440f	-0.031803187
24	0x3e1261af	0.14295076
25	0x3c8932c6	0.016747843
26	0x3ca08dff	0.019598959
27	0x3da562f4	0.080755144
28	0x3c0d3605	0.008618836
29	0x3debaf87	0.115080886
30	0xbd4b316f	-0.04960769
31	0x3d9de61d	0.07709906
32	0xbd070c98	-0.032970995
33	0xbd201a4e	-0.039087586
34	0xbc593f55	-0.013259728
35	0xbd743042	-0.059616335
36	0x3db98a05	0.09059528
37	0xbb889a3e	-0.0041687777
38	0xbdc2f240	-0.09518862
39	0x3ddc7aa8	0.10765582
40	0xbc050a23	-0.008120093
41	0x3d70e610	0.058813155
42	0x3d1966a3	0.037451398
43	0x3dcc4cd1	0.09975589
44	0xbd29ef6a	-0.04148809
45	0x3d1e17c2	0.038596876
46	0xbdd4a179	-0.10382361
47	0xbaae987f	-0.0013320594
48	0xbd966c69	-0.07344896
49	0xbc97eb07	-0.018544687
50	0xbd5511fa	-0.052019097
51	0x3df0ca5a	0.117573455
52	0xbe012778	-0.12612712
53	0xbe03b358	-0.12861383
54	0x3cf15dd6	0.02946369
55	0x3e29b3c4	0.16572481
56	0x3d4dab9b	0.050212484
57	0x3d977a7b	0.07396408
58	0xbdba520d	-0.09097681
59	0x3b913cdb	0.0044323034
60	0x3dfdf36c	0.12399945
61	0x3d984b44	0.07436231
62	0xbd9beb61	-0.07613254
63	0xbc522e47	-0.012828416
64	0xbd275244	-0.04084994
65	0xbdbaae44	-0.0911527
66	0x3d44a9ec	0.048013613
67	0x3e14583e	0.14486787
68	0xbdc5a6b1	-0.096509345
69	0xbd312aa2	-0.04325355
70	0xbd6fa7b8	-0.05850956
71	0xbda12360	-0.07868075
72	0x3d16b99e	0.036798112
73	0xbd3cda5d	-0.046106685
74	0xbdb739b0	-0.0894655
75	0xbdf46c8b	-0.119347654
76	0x3dac2e4e	0.084072694
77	0xbe297386	-0.16547975
78	0xbc16ab6f	-0.009196146
79	0xbdcdaa8e	-0.10042296
80	0xbb0e95e9	-0.0021756834
81	0x3cc96a03	0.024586683
82	0x3d8d78ec	0.0690783
83	0x3ddb3fb4	0.1070551
84	0xbca0e187	-0.01963879
85	0xbd31bdd6	-0.043393932
86	0x3dbbaab6	0.0916342
87	0xbd1afeeb	-0.037840765
88	0x3e0046a5	0.12526949
89	0xbe130c9c	-0.14360279
90	0xbd011e3a	-0.031522967
91	0x3d855544	0.06510404
92	0xbe090376	-0.13380226
93	0x3dbfc999	0.093646236
94	0x3d98f871	0.074692614
95	0xbd58486d	-0.052803446
96	0xbda8d03a	-0.08242841
97	0x3dd7a01e	0.10528587
98	0xbde98797	-0.11402815
99	0x3d594ed6	0.0530537
100	0x3d9a954b	0.075480066
101	0x3da222a7	0.07916766
102	0x3d36845a	0.044559814
103	0x3d8e6752	0.069533005
104	0xbd57aa09	-0.052652393
105	0x3e2b4156	0.16724142
106	0xbd0b57b3	-0.034019183
107	0x3d933fc5	0.071898974
108	0xbdb460bb	-0.088075124
109	0xbc73c559	-0.014878594
110	0xbd5cf87c	-0.05394791
111	0xbd85c1be	-0.06531094
112	0x3c22d760	0.009939045
113	0x3bab7105	0.005231979
114	0x3d995572	0.074870005
115	0xbd90b4a1	-0.07065702
116	0x3bc8b4a0	0.006125048
117	0xbd0cabfe	-0.034343712
118	0x3d037069	0.032089625
119	0x3c4a8f88	0.012363322
120	0x3e1e578f	0.15463088
121	0x3c526bbd	0.01284307
122	0x3d02c278	0.03192374
123	0xbe22983a	-0.15878382
124	0xbd9b8f69	-0.07595713
125	0xbd5e786a	-0.054314055
126	0x3dc95854	0.098313004
127	0x3ccf1bf5	0.025281886
128	0xbd41ab3b	-0.04728244
129	0xbdc96d7e	-0.09835337
130	0xbc69a38f	-0.014260187
131	0x3d17f105	0.03709509
132	0xbda8a918	-0.08235377
133	0x3db7143f	0.089394085
134	0xba76b254	-0.0009410728
135	0x3c82630a	0.015916366
136	0xbc3a7d8d	-0.011382473
137	0x3c604689	0.013688692
138	0xbd49245c	-0.04910694
139	0xbd8e3b6a	-0.06944926
140	0x3d9f7ea7	0.07787829
141	0xbcc7a891	-0.02437237
142	0xbca1c510	-0.019747287
143	0x3ddcc9d7	0.107806854
144	0x3dd1f35c	0.10251495
145	0xbd975789	-0.07389743
146	0xbd83dbbe	-0.06438397
147	0xbd61add6	-0.055097423
148	0xbde940f8	-0.11389345
149	0x3cd34a36	0.025792222
150	0x3da8f28e	0.08249389
151	0xbd6b494d	-0.057442952
152	0xbdfcb581	-0.123393066
153	0xbdd441eb	-0.10364135
154	0x3c894b1e	0.016759451
155	0x3cc044a7	0.023470236
156	0x3bf8297e	0.0075733056
157	0xbd7092d6	-0.058733784
158	0x3d3a41c4	0.045472875
159	0xbda5f6b3	-0.08103695
160	0x3ce9e916	0.028553527
161	0x3c0f9406	0.008763319
162	0x3cb9ea2e	0.022694673
163	0x3d5ab510	0.05339533
164	0x3bb19cc9	0.0054203016
165	0xbdac2b52	-0.084067
166	0x3dfb7ce0	0.122796774
167	0x3df4bec3	0.119504474
168	0xbd72fc9b	-0.059322935
169	0x3deefce6	0.1166933
170	0xbc1ecf4e	-0.00969298
171	0x3d489e45	0.048979063
172	0xbb24dc94	-0.002515589
173	0x3d484542	0.048894174
174	0x3d363811	0.044487063
175	0x3d208a71	0.039194528
176	0xbce3b714	-0.02779726
177	0x3c8ffbd6	0.01757614
178	0xbdcaf868	-0.09910661
179	0xbc1fde44	-0.009757582
180	0x3d8dd85c	0.06926033
181	0xbe0a6c13	-0.1351779
182	0xbe0fbbb5	-0.14036448
183	0x3bfa6fbd	0.007642715
184	0xbc5df79b	-0.013547803
185	0xbcac21f4	-0.021012284
186	0x3c9d3bca	0.019193549
187	0xbc6b3f5b	-0.014358367
188	0x3c294729	0.010331907
189	0x3b052135	0.0020313982
190	0xbe04371c	-0.12911648
191	0xbdc43680	-0.095807076
192	0x3c2c8139	0.010528856
193	0x3debeb30	0.11519468
194	0xbd0b5d54	-0.03402455
195	0x3bd2b24c	0.006429946
196	0x3ce70fd9	0.028205799
197	0xbde86206	-0.113468215
198	0x3e10a136	0.14123997
199	0xbd9bdb7f	-0.07610225
200	0x3d2057a1	0.03914607
201	0xbd8b945f	-0.06815409
202	0xbc2a5167	-0.010395384
203	0x3c53b8d3	0.0129224835
204	0xbe06862d	-0.13137121
205	0x3dace8a9	0.08442814
206	0x3d89179a	0.06693955
207	0xbb4ad84f	-0.0030951684
208	0xbe33b16d	-0.17548151
209	0x3d9a4e04	0.075344115
210	0x3e4c7200	0.19965363
211	0xbdb6e3c1	-0.08930159
212	0x3b8235fc	0.0039737206
213	0x3d8c06c8	0.06837231
214	0xbd666fba	-0.056258895
215	0x3d8534fc	0.065042466
216	0x3d14b5e4	0.036306277
217	0xbdb4d810	-0.08830273
218	0x3dc529f7	0.09627145
219	0x3d9b5194	0.07583919
220	0x3b6fb4b4	0.0036576213
221	0xbc95a07c	-0.018265001
222	0x3d1efd53	0.038815808
223	0xbd46702f	-0.04844683
224	0x3cd91dba	0.026503433
225	0x3d259a35	0.040430266
226	0x3e1d2285	0.153452
227	0x3cc6ccb3	0.02426753
228	0x3d9b959e	0.075968966
229	0xbd4285ff	-0.04749107
230	0x3d259e7d	0.04043435
231	0x3dac46fc	0.08411977
232	0x3cc26591	0.023730071
233	0xbe170532	-0.14748076
234	0xbd0109de	-0.03150355
235	0x3e110eb6	0.14165768
236	0x3dac4278	0.084111154
237	0xbdacb853	-0.084335946
238	0x3daaedb7	0.08346122
239	0xbc7d69b2	-0.015467094
240	0x3d848649	0.06470925
241	0x3d99eafd	0.075155236
242	0x3db7503c	0.0895085
243	0x3d69e45f	0.057102557
244	0xbdc92cb3	-0.09822979
245	0xbd417641	-0.047231916
246	0xbcdf5d51	-0.027266176
247	0x3dfd76ed	0.12376199
248	0xbc97e81a	-0.018543292
249	0xbdc627da	-0.0967557
250	0xbd9c360e	-0.076274976
251	0x3dfa71d3	0.122287415
252	0x3d71f7b4	0.05907412
253	0xbdb6fd3e	-0.08935021
254	0x3de73330	0.1128906
255	0x3d981ac4	0.0742698

layers.2.bias f4 [64]
0	0x3e142741	0.14468099
1	0xbc8db255	-0.01729695
2	0x3d0606ed	0.03272145
3	0x3dd867a3	0.10566642
4	0x3e25c5f5	0.16188796
5	0x3dac32a9	0.084081
6	0xbc8e5474	-0.017374255
7	0xbdfed60b	-0.12443169
8	0xbdd89bdf	-0.10576605
9	0xbda014c2	-0.07816459
10	0xbca4bb58	-0.020108864
11	0xbcab3a9a	-0.020901967
12	0xbde86a2e	-0.11348377
13	0x3d5e3e6d	0.054258753
14	0xbdfc4044	-0.12316945
15	0x3e15bea9	0.14623512
16	0xbd86b415	-0.06577317
17	0xbda3e590	-0.0800277
18	0x3e1ee0a8	0.15515387
19	0x3d84d011	0.06484998
20	0x3df988a0	0.12184262
21	0x3d1ba477	0.037998643
22	0xbd5e01cd	-0.054200936
23	0x3d0a495c	0.033761367
24	0x3dfe02c4	0.12402871
25	0x3d868a68	0.06569368
26	0xbdd081f5	-0.10181037
27	0x3de26ba9	0.11055691
28	0xbd08a209	-0.033357654
29	0xbe0f381e	-0.13986251
30	0x3ce7ce3f	0.028296588
31	0x3df5952d	0.11991344
32	0x3c761032	0.01501851
33	0xbbfe32cb	-0.00775752
34	0x3d9304c6	0.07178645
35	0xbc6339e0	-0.013868779
36	0x3d5fb967	0.054620173
37	0xbd0378fe	-0.03209781
38	0xbc731483	-0.014836433
39	0xbe0e4365	-0.13892896
40	0x3d7b4151	0.061341587
41	0x3e60000d	0.2187502
42	0x3de2bf75	0.11071674
43	0x3e3e97a1	0.1861253
44	0xbda1885c	-0.078873366
45	0x3d0adf15	0.033904154
46	0x3d6c0d7d	0.05763005
47	0x3de7625c	0.112980574
48	0x3d932237	0.0718426
49	0x3e1cc91b	0.1531109
50	0xbd063a77	-0.0327706
51	0x3d000601	0.031255726
52	0xbd98f0ca	-0.07467802
53	0x3e292bdd	0.16520639
54	0xbd290f14	-0.041274145
55	0xbc81deca	-0.015853304
56	0x3e06de5f	0.13170765
57	0xbcbca2f1	-0.023026915
58	0xbe171e4a	-0.14757648
59	0x3d893d2c	0.06701121
60	0xbde3489c	-0.110978335
61	0x3dd92c5a	0.106041625
62	0x3d9f7b57	0.07787197
63	0xbdfc3de6	-0.12316494

layers.4.weight f4 [4, 64]
0	0x3e1ffe21	0.15624286
1	0xbd1b064c	-0.037847802
2	0xbd82b2d8	-0.06381768
3	0x3e25fe60	0.16210318
4	0x3db4881b	0.088150226
5	0x3d6f3130	0.05839652
6	0x3c39aea3	0.011333141
7	0x3dde9d3e	0.10869835
8	0xbdd18b3d	-0.10231636
9	0xbcc2e802	-0.02379227
10	0x3c26b369	0.010174611
11	0xbca8e07e	-0.020614859
12	0xbc1f9c09	-0.0097417915
13	0x3e31027f	0.17286108
14	0xbdd505c6	-0.10401492
15	0x3e089a73	0.13340168
16	0x3d554626	0.052068852
17	0x3dc4b471	0.09604729
18	0x3e1fe2bb	0.15613835
19	0x3e53a44e	0.20668146
20	0x3dd9e46e	0.10639273
21	0xbd97bc6c	-0.074089855
22	0xbcd10e00	-0.025519371
23	0xbd80920c	-0.06277856
24	0x3dc295b7	0.09501212
25	0x3e2ee2fc	0.17078775
26	0x3e3afe50	0.18261075
27	0x3c763c26	0.015028989
28	0xbe0bab07	-0.1363946
29	0x3df9d4a5	0.12198762
30	0x3d8d7440	0.069069386
31	0xbcfe0eb0	-0.031012863
32	0xbd3acbda	-0.045604564
33	0xbc98815d	-0.018616373
34	0x3d5f9fd7	0.054595795
35	0x3e0cd25b	0.13752119
36	0x3d386211	0.0450154
37	0x3d3cc0c4	0.046082273
38	0xbc9b453c	-0.018953912
39	0xbdef0a14	-0.11671844
40	0xbd898bb3	-0.06716099
41	0x3d5c7cbc	0.053829893
42	0x3e2414c8	0.16023552
43	0x3e058341	0.1303835
44	0x3b4a7269	0.0030890948
45	0xbd9aac7b	-0.07552429
46	0x3d978447	0.07398277
47	0x3e393e2e	0.18090126
48	0xbd5be32e	-0.053683452
49	0x3dee1c83	0.11626532
50	0xbdf4340f	-0.11923992
51	0x3dca6e3a	0.09884305
52	0xbdf96d6e	-0.12179075
53	0x3c1d3e9b	0.009597446
54	0xbdaddbf2	-0.08489217
55	0x3d517695	0.05113848
56	0x3e320bb4	0.17387277
57	0xbd6fdfb4	-0.05856295
58	0xbd8ed2c3	-0.06973793
59	0xba7f0911	-0.0009728829
60	0x3de1843e	0.11011551
61	0x3db92981	0.09041119
62	0x3e22cb91	0.15897967
63	0x3dbb37cc	0.09141502
64	0xbcd2ba24	-0.025723524
65	0x3d101de5	0.03518476
66	0xbd5e3633	-0.054250907
67	0x3cedc47f	0.02902436
68	0x3dd2a6a7	0.10285693
69	0x3c735dc8	0.014853902
70	0x3d4aaf60	0.049483657
71	0xbccfec70	-0.025381297
72	0xbd658808	-0.056037933
73	0xbd9fecfe	-0.078088745
74	0x3c99bea2	0.018767659
75	0xbd22f8eb	-0.039788168
76	0xbc6146fc	-0.013749834
77	0x3d9a4223	0.07532146
78	0x3e17f5f4	0.14839917
79	0x3e19f430	0.15034556
80	0x3c5ea9f9	0.013590329
81	0xbca345e9	-0.019930797
82	0x3e5ebe0b	0.21752183
83	0x3e0cd099	0.13751449
84	0x3d0525c9	0.032506738
85	0x3cc82e1d	0.024436051
86	0x3dfe5f89	0.12420566
87	0x3d406411	0.04697043
88	0xbd3874a0	-0.045033097
89	0x3dd0c274	0.10193339
90	0x3cfdfe2c	0.031004988
91	0x3df65378	0.12027639
92	0xbc4bbe89	-0.012435564
93	0xbda50e7c	-0.08059403
94	0x3d0d00ea	0.0344247
95	0x3d9147d4	0.07093778
96	0xbd3653bf	-0.04451346
97	0xbc293feb	-0.010330181
98	0x3a1c9f39	0.0005974654
99	0xbd550734	-0.052008823
100	0x3deb0edd	0.11477444
101	0x3dbad850	0.091232896
102	0xbd4f44f5	-0.050602872
103	0xbd44eabf	-0.048075434
104	0xbd1f8d83	-0.038953315
105	0x3dd57d6f	0.10424315
106	0x3dce9e6a	0.10088809
107	0x3e322d80	0.1740017
108	0x3badab5f	0.00529997
109	0x3d67fb46	0.056636117
110	0xbd74c0a5	-0.059754033
111	0x3bbb5742	0.005717189
112	0x3d44dc9c	0.048061952
113	0x3dc0510a	0.09390457
114	0x3e0b9599	0.13631286
115	0x3d737d66	0.05944576
116	0x3d79fc1c	0.061031446
117	0x3ddd3e74	0.108029276
118	0x3d2b100f	0.04176336
119	0xbc3dde82	-0.0115886945
120	0x3e40a178	0.18811595
121	0x3d37c86e	0.04486888
122	0x3dd3ea2f	0.10347401
123	0x3dbf5702	0.09342767
124	0x3dc3a468	0.095528424
125	0x3d150026	0.036377095
126	0x3d3adea5	0.045622487
127	0x3df76046	0.120789096
128	0x3e15ec8b	0.14641015
129	0xbd2a417f	-0.04156637
130	0xbcee67f2	-0.0291023
131	0x3d851d5c	0.064997405
132	0x3d9a1dcf	0.07525217
133	0x3bcf65d1	0.006329276
134	0x3dd9b0c4	0.106294185
135	0xbd9d8d18	-0.07692927
136	0xbd364f4f	-0.04450923
137	0x3d0a7237	0.03380033
138	0xbd36850b	-0.044560473
139	0xbc73c7f2	-0.014879214
140	0xbd93521d	-0.07193396
141	0xbd84a5c8	-0.06476933
142	0xbbac2fd9	-0.0052547273
143	0x3dc1f4f8	0.09470552
144	0x3d25b94b	0.040459912
145	0xbca57e7d	-0.020201916
146	0x3daf47b4	0.08558598
147	0x3da04632	0.07825889
148	0xbb975733	-0.0046185493
149	0x3c13eb3f	0.009028255
150	0x3db11448	0.086464465
151	0xbb9fdf88	-0.004878942
152	0x3c09b076	0.008403888
153	0x3dc5ec60	0.096642256
154	0x3caccbc2	0.021093253
155	0x3dfdc9fd	0.12392042
156	0x3dacc1a2	0.0843537
157	0xbd197f4f	-0.037474927
158	0x3cf2d6d2	0.02964345
159	0x3c0e38ba	0.008680517
160	0xbcc72cde	-0.024313387
161	0x3cf6332d	0.0300537
162	0x3da7fd88	0.08202654
163	0x3e076902	0.13223651
164	0x3dd3f4a4	0.10349396
165	0xbda5f21c	-0.08102819
166	0xbd6b91ce	-0.057512097
167	0x3d642539	0.05569956
168	0x3d9820ae	0.07428108
169	0x3e0ac34d	0.13551064
170	0x3df36c66	0.1188591
171	0x3de6d414	0.112709194
172	0xbcd5eed9	-0.026114868
173	0x3da3bda3	0.07995155
174	0x3ba3d5b2	0.0049998397
175	0x3dc1f414	0.09470382
176	0x3e075bfe	0.13218686
177	0x3d4f3392	0.05058629
178	0x3d182c6a	0.03715173
179	0x3be91a78	0.007113751
180	0xbd335100	-0.04377842
181	0x3dd274e4	0.10276201
182	0xbc544a13	-0.012957114
183	0x3c906f86	0.017631304
184	0x3cedc1e2	0.029023115
185	0x3e033d27	0.12816297
186	0x3d8d500d	0.06900034
187	0x3e1a1f31	0.15050961
188	0xbd448d1a	-0.047986127
189	0x3d0b4975	0.0340056
190	0x3d3f7c6e	0.046749525
191	0xbc3da3b0	-0.011574671
192	0xbdad22d9	-0.08453912
193	0x3dca7bae	0.09886871
194	0x3cfaa43d	0.030595893
195	0x3c41b57e	0.011823056
196	0x3d10488d	0.03522544
197	0x3d066f57	0.032821026
198	0xbd9209f7	-0.07130807
199	0x3cf6eb78	0.030141577
200	0x3dcb1435	0.099159636
201	0xbc55e556	-0.013055166
202	0xbd13dda2	-0.036100037
203	0x3dd85aca	0.10564192
204	0xbbfb5925	-0.007670539
205	0xbcf1a338	-0.029496774
206	0x3cbc81c8	0.023011103
207	0xbddec3df	-0.10877203
208	0xbd685de9	-0.056730185
209	0xbd38312d	-0.044968773
210	0xbd95676b	-0.07295116
211	0xbcac9bfb	-0.021070471
212	0xbc9812ba	-0.018563617
213	0xbb8868c6	-0.0041628806
214	0xbddafbea	-0.1069258
215	0xbd879ec4	-0.06622079
216	0x3d2efb3b	0.04272006
217	0x3d29b45a	0.041431762
218	0xbd5cbf7c	-0.05389355
219	0x3c53b693	0.012921947
220	0xbdba0a0f	-0.0908395
221	0xbd29d5d0	-0.041463673
222	0xbdcf3a59	-0.10118551
223	0xbddf20e5	-0.10894946
224	0xbc90c7b2	-0.017673347
225	0x3c937ca0	0.018003762
226	0x3d14985d	0.036278117
227	0x3d579b74	0.052638486
228	0x3d154b91	0.03644902
229	0xbcdf2fb8	-0.027244434
230	0x3dc21a42	0.094776645
231	0xbd8120bf	-0.06305074
232	0xbd8eed68	-0.069788754
233	0xbc112224	-0.008858237
234	0x3d0947a1	0.033515576
235	0x3d913b93	0.07091441
236	0x3d2360bb	0.03988717
237	0x3d55af19	0.05216894
238	0xbdc24f5d	-0.094877936
239	0x3d9504c8	0.072763026
240	0x3dce2774	0.10066119
241	0x3d5469f5	0.05185886
242	0xbd7743e9	-0.0603675
243	0x3dc49e65	0.09600524
244	0xbadae580	-0.0016700476
245	0xbc3a6a1e	-0.011377839
246	0x3dbd7d6f	0.0925244
247	0xbdbb966a	-0.091595486
248	0xbcc7856f	-0.024355618
249	0x3c6df28c	0.01452316
250	0x3c7f64c0	0.0155879855
251	0xbca7483a	-0.020420182
252	0xbcbb0448	-0.02282919
253	0x3dbf721b	0.09347936
254	0xbdc520a3	-0.096253656
255	0x3dec23fc	0.11530301

layers.4.bias f4 [4]
0	0x3d7d37c9	0.06182078
1	0x3e3b96b1	0.18319203
2	0x3de7a875	0.113114275
3	0x3d88f709	0.06687743
