model_weight/dqn.pt (torch_old, 19696 bytes, 6 tensors)

layers.0.weight f4 [64, 37]
00000000: 9bf8 443d 9bbe 063e 2004 d73d 65b0 a93d
00000010: 533d ad3c d097 2f3e 5b71 e6bd 8f56 75bd
00000020: 4861 80bd 3f30 b23c eed4 52bd 5f3c 133e
00000030: 5eec 2a3e 804c fe3d 1ded 6b3e 36c5 0c3e
00000040: 4ac2 bc3c f9e6 043d 6491 0a3e 09cd cebd
00000050: 5da0 723e 8f9f 0cbd 4476 e039 2881 4cbb
00000060: d974 2cbe 25d9 953d 70e2 ae3d 3115 2c3c
00000070: 1680 34bd 5736 16be 63a0 833e 1aa5 993d
00000080: bea6 b4bd 1d97 c6bd 165c f1be 4838 07bd
00000090: bbe6 3c3b 3bea 063d 0303 573c ce6b 323d
000000a0: 4b3d 99bc d722 9ebd 4f44 1d3d ab34 933e
000000b0: d66c 6b3e 1ec0 823c 52ee b6bd cef2 313e
000000c0: 50a4 2d3e acf7 8d3d 9223 5d3e 0f68 1dbc
000000d0: 1323 81bd a8e4 3a3c e91d 723d 06d2 a0bc
000000e0: 572c 9f3c 5461 3f3e c084 813c 709c 3d3d
000000f0: a8a6 cd3d 438e 61bd b677 ebbd a4f4 5a3d
00000100: dc9d 883e 5ba6 0d3e ce8c 5e3e 4f3c 3e3e
00000110: 2a90 ab3d 763f ab3d e0f5 a73d 42b0 a3be
00000120: c35e 5cbd 0477 b53c fb8c 463e dfa4 0239
00000130: 001d 843d 799f 2d3e f9bd 36bd fc9a 6e3e
00000140: 2d87 1e3e ba78 debc 4db1 a5bd c839 89bd
00000150: 6a9e 863e 069c 183e 6949 5f3d 83c9 223e
00000160: 1278 843d 8e0d 3f3e 565d 783e 07f7 83bb
00000170: 22d3 833e 79d0 b5bd 2ea0 8a3a 6086 6d3d
00000180: 8db9 5abd 6430 a13c 96cf 57bb 7417 393e
00000190: 9648 013c e5e5 843c dfeb 0f3e 94c6 c9bd
000001a0: 69bb 373e ed0e 7ebd 54fc 20bc 207d 9f3d
000001b0: 7a51 acbe 1843 d5bc aaa6 583d bb54 8d3e
000001c0: 969b e83d 25c1 a63d 0b28 94bd 65db bcbe
000001d0: a91a c73c fb40 f03d b6ae 953d c831 7f3c
000001e0: 0932 2b3d ddfe 153e 1f8f 1c3d 5026 3a3d
000001f0: e94c 99bc 5b5a 54bd ca0c d93d d41d c7bc
00000200: d6e3 053d db13 fa3c a5d8 0ebe bbf9 ee3d
00000210: 95b3 10bc 5e18 84bd d66f 45be dfc3 8bbe
00000220: 01bd 9dbe 2acc 503e cca3 273d 9c66 8f3e
00000230: 8606 473f 94b3 933d 3c5d a33d 1c22 ae3d
00000240: 68ae 6f3e ddae 473e 1a49 cbbc 5151 3c3c
00000250: 9e7c 963d c991 1fbc 3f6b 97bd c2ba 4f3d
00000260: f613 4d3d e1f5 243e b232 833e 7948 22bc
00000270: 7158 213e 1f3c a7bd d7a9 723e 4deb f6bc
00000280: bb3f e13c 62ae da3d ed84 d83c 5150 fe3d
00000290: 357d 823d df8e e73d 5481 433d 73a5 7c3b
000002a0: 2a38 eb3d e7e9 173e af7c 403e fe6f 873d
000002b0: 7f4b e63d 5ac1 b73d c1a0 ce3d b731 3e3d
000002c0: fb0c 893e 6050 8b3e ec39 103d 53cc 3d3d
000002d0: bb15 983e 0fdd cd3d ccb9 40be cd5f 12bc
000002e0: 9673 833b 261b 253e 3d38 f7bb 6e68 8f3a
000002f0: f2e9 14bd a335 61be 7507 03bd 2335 12bc
00000300: ce59 b8bd 0da8 55be 700c 8abe 2467 3e3d
00000310: b59f 873d ee8b a43c c956 113c 260e c33d
00000320: 8352 c53d f46b cebd cad3 13bc fe64 dbbd
00000330: 3857 ebbd cd42 633c 4db8 0fbd 3240 9d3d
00000340: 1a6f c6bd 0f72 70bd 29d5 873d 6455 d13a
00000350: e880 303c 387f 47bd e00a 0e3e 5cec 0dbe
00000360: a5d7 1b3d 2174 30bd 870e 5c3d 8d2e 623e
00000370: 78f4 1a3c 4971 e73d 5a6c bc3d ddaa 343e
00000380: e2ff 393e ca5b 7f3d fb90 bf3c 6678 873e
00000390: aa9e 8c3d 3388 273d 6487 393e d914 793e
000003a0: 1f98 843e 0c16 de3d 7e71 f13d c162 163d
000003b0: 0bfb 35be 0689 f83d 0e45 c93c 40c2 ef3d
000003c0: ad23 fd3d a3a7 35bd 1f90 d73d e696 d43d
000003d0: b3f3 103e a7f0 3d3e f7b3 033e 1795 223e
000003e0: 1c35 7cbd ad58 c5bd cc6f 65be f591 84be
000003f0: 1894 353d 8f02 ac3c 4f4e 343d 2105 0a3e
0.04808865 0.13158648 0.10498834 0.08285598 0.021147406 0.17147756 -0.112520896 -0.059897
-0.06268555 0.021751521 -0.051472597 0.14378498 0.1669173 0.12416935 0.2303967 0.13747105
0.023041863 0.032446835 0.13532025 -0.10097701 0.23693986 -0.034331854 0.00042812724 -0.0031204913
-0.16841449 0.07316808 0.08539283 0.010503099 -0.044067465 -0.14669167 0.25708303 0.07502194
-0.08820866 -0.09696791 -0.47140568 -0.03301266 0.002882405 0.032938223 0.013123277 0.04355984
-0.018705985 -0.07721489 0.038395222 0.2875112 0.22990736 0.01596075 -0.08932175 0.17377779
0.16957211 0.06932005 0.215956 -0.009607329 -0.06305518 0.011407055 0.059110556 -0.019631397
0.019430323 0.18689471 0.01581037 0.04629177 0.10041553 -0.055067312 -0.114974424 0.053455964
0.26682937 0.13832991 0.217334 0.18577693 0.083771065 0.083617136 0.08201194 -0.31970412
-0.05380131 0.022151478 0.19389717 0.00012459185 0.06450844 0.16955365 -0.044614766 0.2330131
0.15481253 -0.027157176 -0.08090458 -0.06700474 0.26292735 0.14903268 0.05451337 0.15897183
0.06468214 0.18657514 0.24254355 -0.0040272507 0.2574702 -0.08877654 0.0010576302 0.057989478
-0.05339961 0.019676395 -0.0032930127 0.18075353 0.007890841 0.016222904 0.14054821 -0.09852329
0.17942585 -0.062025953 -0.009825785 0.077875376 -0.33655912 -0.02603297 0.05289332 0.27603707
0.11357801 0.08142308 -0.072342 -0.36886135 0.024304705 0.11731144 0.07308714 0.015575834
0.041795764 0.14648004 0.03822243 0.045446694 -0.018713431 -0.051843982 0.105981424 -0.024306215
0.032687984 0.030527046 -0.13949831 0.11668726 -0.008831878 -0.0644996 -0.19280943 -0.27297875
-0.3080826 0.20390382 0.040927693 0.28007972 0.7774433 0.07211986 0.079767674 0.085025996
0.23406374 0.19500299 -0.024815131 0.011493997 0.073479876 -0.009739348 -0.073935024 0.050715216
0.050067864 0.1610942 0.25624615 -0.009904974 0.15756394 -0.08165764 0.23697601 -0.030141497
0.02749621 0.10677792 0.026430571 0.12417663 0.063715376 0.113065474 0.04773076 0.0038550764
0.11485322 0.1483532 0.18797563 0.06613158 0.112448685 0.08972426 0.10089255 0.04643413
0.26767716 0.2720976 0.03521149 0.046337437 0.2970408 0.10051929 -0.18820876 -0.0089339735
0.0040115817 0.16123638 -0.007544546 0.0010941157 -0.03635592 -0.21993117 -0.031989533 -0.008923802
-0.09001504 -0.20864888 -0.26962614 0.04648508 0.066222586 0.020086255 0.008870789 0.09524183
0.096348785 -0.10079184 -0.009022662 -0.10712622 -0.11491245 0.013870907 -0.035087872 0.0767826
-0.0968916 -0.058702525 0.06632454 0.0015970883 0.010772921 -0.04870531 0.13871336 -0.13859695
0.03804745 -0.0430795 0.05372479 0.2208807 0.0094577 0.11300904 0.09200354 0.17643304
0.18164018 0.062343396 0.023384562 0.26459044 0.068662 0.040901374 0.18118054 0.24324359
0.2589731 0.10844049 0.11789225 0.036715273 -0.17771547 0.1213551 0.02456906 0.11706972
0.1236032 -0.044349324 0.10525536 0.10380344 0.14155464 0.18548833 0.1286162 0.15877186
-0.061574087 -0.09636054 -0.22405928 -0.25892606 0.044330686 0.020997314 0.044019993 0.13478519

layers.0.bias f4 [64]
00000000: 13f0 673e 3b0b 803e edd6 043e e8f1 c1bd
00000010: 3d3f 953d 6750 063d 2022 623e 4ae1 db3d
00000020: c1b5 3c3e fe93 b1bd dc40 b23d 3c7c 883e
00000030: 3f8d 78bd d11e 5a3c 2cb5 723e 31ad af3d
00000040: 4d4c 61bd ae9a 813e 33ff ed3d d873 113d
00000050: 829e 453e eb60 823e dfd9 a3bd 1df0 04be
00000060: ba5f 833e 5369 603d f911 143e 2117 46be
00000070: 884f 07be d0cc 113e c592 e93b d58e b93d
00000080: 0a43 7f3d cbb3 8cbd 61c9 263d fac4 23be
00000090: 4ecc 353e 85c6 133e e3a3 83bd 2e15 553e
000000a0: f1b8 593e 2b91 633d e8a3 983e 7a96 913e
000000b0: 192b 61be f145 32bd eb96 9fbb b450 19bd
000000c0: babb 8c3e 03b3 0dbe 6b3a 00bd e63d b33e
000000d0: 90a4 4b3e 0ae0 e23d 924d b53d 13de bc3e
000000e0: 5c75 893e 478d e83d 5c48 773d 3af2 0bbe
000000f0: 2ef3 0fbe 1380 01be 965c e83d 0e6b 503d
0.22650175 0.25008568 0.12972613 -0.09469968 0.07287452 0.03279152 0.2208333 0.1073633
0.18428709 -0.086708054 0.08703777 0.26657283 -0.060681578 0.013313011 0.23701924 0.085779555
-0.055004407 0.25313324 0.11620941 0.035510868 0.19298747 0.25464568 -0.0800054 -0.12982221
0.2565897 0.054787945 0.14459981 -0.1934476 -0.13213933 0.14238286 0.007128092 0.09060446
0.062319793 -0.0687023 0.040719394 -0.1599311 0.17753717 0.14431198 -0.06427743 0.2080886
0.21261956 0.055558365 0.2981255 0.28435117 -0.21989097 -0.043523733 -0.0048702857 -0.03743048
0.27486974 -0.13837819 -0.03130571 0.35008162 0.19886994 0.11077888 0.08852686 0.3688818
0.2684735 0.113550715 0.06037174 -0.13666621 -0.1405761 -0.12646513 0.11345784 0.050883345

layers.2.weight f4 [32, 64]
00000000: d80b 82be b207 c23d 8f93 913d 66a1 443c
00000010: c9e0 f4bd 2e8a 013e 3034 383e bdc9 b5bd
00000020: b09a 0cbe a784 c1bc cbd9 dabb 12d7 15bd
00000030: 0617 96bd ad55 56be 77f8 08be e6b0 05be
00000040: ab73 ddbb e6e0 9b3d 25d1 743e e4b4 a73d
00000050: 0a95 093e 7d30 bbbc 1d49 b83d 2359 78be
00000060: ce01 2ebe c8d8 a03e dcb9 18bd 7fda 61bd
00000070: d384 553c 25fe 8a3d d5f0 bc3d 6bd2 d6bd
00000080: 0555 c53c 4e0c 3bbe 2a06 b0bd 5e4f e5bb
00000090: 183d 12bd c862 27be f8ce 24bc cb86 e9bd
000000a0: aefa 01bd 12fb 8d3d 9eb4 bebd 353b 9e3d
000000b0: f4db 1b3d af67 d73c db58 663e b4d7 1c3f
000000c0: e9af ca3c c4ee 0c3e a8f0 4e3d 9f03 c83d
000000d0: f7cd 1fba 1cdf a43e 00dd 84be 4026 e4bc
000000e0: b23d bd3c ee83 f3bc 6071 203d 6d43 0b3d
000000f0: 53a1 60bd f75c 223e 5f52 5a3b 2610 263e
00000100: 7671 573e 85b7 4b3e 7925 e73d bc22 873d
00000110: d3a5 eb3d 6a6e 83bd 7ffc ab3d 2c5a a3bd
00000120: be11 64bd 65cf 10bd 27bb 093e 48c4 b93d
00000130: 2e0b 8b3e e30f 08be 0972 863d 11b9 933e
00000140: 32b5 13be 00bb 273e b062 ab3d 6d60 543e
00000150: 3498 dd3c 1b47 0c3e e9c0 b3bd 71ad 563e
00000160: 1849 f93c e259 823d 0caa 043e 661b 19be
00000170: c7a9 48bc 8859 95bc 1421 92bc ffb6 4a3d
00000180: 57c2 21bb ab74 c4bd ad37 303e f68f 1fbd
00000190: 4c9b 133e 9010 323d 8ab2 05be 779d afbd
000001a0: 4f4b ed3d b207 263e ab20 823d 00c7 edbc
000001b0: d1e1 873b 095a d3bc d5c1 3ebe f94b ae3e
000001c0: b856 1c3e ec97 44bd 2f19 eb3c ca1d 9d3d
000001d0: 58ef cbbd 1c1c 70be 2c99 443e edbd 7a3c
000001e0: 5d70 c7bc 5743 03bd e8e7 603e 6880 debd
000001f0: acb3 97bd a8f7 a6be 77c7 433c 2f05 da3b
00000200: 9f43 8b3c 1432 873d 5fef 06be 3abd b53d
00000210: 0c83 8f3d e330 3b3d c218 1d3e 257f 0d3e
00000220: 2bf5 483e 95eb 21be 613d c63d 49da 82b8
00000230: c131 bb3d 6858 733d 48ca f13d cb98 c5bd
00000240: a2d4 93be b53f b63d 2092 1e3e e6ee c33c
00000250: 6cc0 f73d fe59 a0bd ec1c 25be 229d a13e
00000260: 981a cbbd d634 203e 2d83 163e 4991 47be
00000270: 6d16 883d 075d 55bd 3885 6cbd 9398 ab3d
00000280: 3cef ec3c b827 08be 6a5f fbbc 8c5d 003d
00000290: 344c e3bd d39f 473d 41b4 113d ef48 873d
000002a0: b6ed 443d 029d c63d c19f fa3d 4a2d 153d
000002b0: 4516 19be 00ed bc3d d29a 6a3d 54a0 be3e
000002c0: 7cee bcbd d1a6 4c3d a4a1 76bd cf21 063d
000002d0: 7177 c13d f79d 8f3e d7ae 38be 386e 283e
000002e0: 47f4 51bd 5724 bd3d 3b81 4f3e c0c3 133e
000002f0: 1574 733d 7ddc 3d3e b087 08bd 7237 303d
00000300: f6a0 933e fd47 503e 3d26 093e 1cbe 743e
00000310: 8dc2 2a3e 5ac4 cc3d 14aa 443d 26ef 313e
00000320: abab 383e 46bf de3c e498 323d 2d22 fe3d
00000330: c7d3 9a3e b51a 25bd 4b62 353e 7030 833e
00000340: 6124 30bd 7bc3 fe3d a1b3 653d 3a9b da3d
00000350: eccd 313e 01b5 75bc c304 afbd 6f19 9b3e
00000360: d71a 173e 0017 9a3d 04f0 1f3d 3d3d 9f3d
00000370: 0cf1 06be aff7 a3bc 4b15 7bbd 4940 84bd
00000380: 8980 0d3e 9d87 8a3a d765 10bc 895f 253d
00000390: 601c 2f3d 9264 463e 0136 883d 00e7 423e
000003a0: 1fe3 233e 75ad 4b3e 763b 153e 6e12 913d
000003b0: 97a6 d0bd 67f8 d03d 7ec4 18be 197e 103e
000003c0: b7ad 443e fc28 20be e817 24bd 274c 423e
000003d0: d029 d53c c02b 2abe 43a0 593e ce8a 4b3e
000003e0: ec0c e83b 1cf5 9e3d ea74 143e 6fe4 df3b
000003f0: e983 d73d 6e17 39be c66b cbbd b6e9 3bbc
-0.2539966 0.09474124 0.07108223 0.012001371 -0.11956937 0.12650368 0.17988658 -0.08876369
-0.13730884 -0.023622824 -0.006678795 -0.03658206 -0.0732861 -0.2093112 -0.13376032 -0.13055763
-0.0067581735 0.07611255 0.23907907 0.08188799 0.1343576 -0.02285027 0.0899832 -0.24252753
-0.16992876 0.3141539 -0.037286624 -0.055140015 0.013032156 0.067867555 0.092256226 -0.10489353
0.024088392 -0.18266413 -0.08594926 -0.0069979867 -0.035702795 -0.16346276 -0.010059111 -0.11402663
-0.031733207 0.069326535 -0.09311794 0.077261366 0.03805156 0.026294557 0.22494833 0.61266637
0.024742084 0.13762957 0.050522476 0.09766316 -0.000609606 0.3220147 -0.2594986 -0.02785027
0.023100708 -0.029725995 0.039170623 0.03399985 -0.05484135 0.15855776 0.0033313257 0.16217098
0.21039376 0.19894226 0.11286444 0.06598422 0.11506238 -0.06417544 0.08397769 -0.07976183
-0.055680983 -0.035354037 0.13450299 0.09070641 0.27156967 -0.1328731 0.06564719 0.28852132
-0.1442459 0.16379929 0.083684325 0.20739909 0.027050115 0.13699 -0.08777029 0.209646
0.030430362 0.063648 0.12955493 -0.14951858 -0.012247509 -0.018231168 -0.017838039 0.049490925
-0.0024682486 -0.09592565 0.17208739 -0.03895565 0.1441471 0.043472826 -0.13056388 -0.08574956
0.115866296 0.16213873 0.06353887 -0.029025555 0.0041467925 -0.025799768 -0.18628629 0.34042338
0.15267456 -0.047996446 0.028698532 0.076716974 -0.099577606 -0.23448223 0.19199055 0.015304071
-0.024345571 -0.032046642 0.21963465 -0.10864335 -0.074073166 -0.32610822 0.011949412 0.00665345
0.017000018 0.066013485 -0.1317725 0.08873983 0.07007417 0.04570092 0.15341476 0.13818033
0.19624774 -0.15812524 0.09679676 -6.239542e-05 0.09140349 0.059410483 0.1180616 -0.096482836
-0.28873163 0.0889887 0.1548543 0.023917627 0.120972484 -0.07829665 -0.16124314 0.31565195
-0.09917182 0.15645155 0.14698477 -0.19489016 0.066449024 -0.05209067 -0.057744235 0.083787106
0.02892267 -0.13296402 -0.030685145 0.031339213 -0.11098519 0.048736405 0.035572294 0.06605708
0.04807826 0.096979156 0.12237502 0.036420144 -0.14949901 0.09224892 0.057276554 0.37231696
-0.09225175 0.049963776 -0.060212746 0.032747086 0.0944661 0.28050205 -0.18035446 0.16448295
-0.05125835 0.09235447 0.20264141 0.14430141 0.059436876 0.18541141 -0.033332527 0.043021627
0.2883374 0.20339961 0.13393493 0.23900646 0.16675778 0.099983886 0.04801376 0.17376384
0.18034236 0.027190816 0.04360284 0.12408862 0.30239698 -0.040308673 0.17713277 0.25622892
-0.043003444 0.12439629 0.05607951 0.10674138 0.17363709 -0.014996768 -0.0854583 0.30292842
0.14756332 0.07523918 0.039047256 0.07775352 -0.1317789 -0.020015566 -0.061299603 -0.06457574
0.13818564 0.001056898 -0.008813343 0.040374313 0.04275167 0.19374302 0.066509254 0.19033432
0.16004609 0.19890387 0.14573464 0.07083593 -0.101880245 0.10203629 -0.14918706 0.14110602
0.19206892 -0.15640634 -0.04006186 0.18974362 0.026020914 -0.16618252 0.21252541 0.19877169
0.0070816185 0.07761595 0.14497724 0.0068326513 0.10523207 -0.18075344 -0.099326655 -0.011469295

layers.2.bias f4 [32]
00000000: d17f db3d c9ef a33c 3167 95bd 7815 283e
00000010: aa0d 5d3e 10ee 853e 508e 3d3e afba 063d
00000020: 2493 c13d 8484 823d ba78 0fbe 44fe 973e
00000030: d6d7 f4bc 70a7 2fbd 3650 26bd c8d0 03be
00000040: 6952 ff3d a883 a1bd 0b0c b2bd 40e2 c13b
00000050: f2da 19be 61a3 0ebd f947 a33d 09b6 173e
00000060: f9e9 b33d f269 ab3d 8f41 ce3d 8e8f d3bd
00000070: 0775 cc3d d90e 053e b6e0 ca3c 5522 763e
0.107177384 0.0200118 -0.07295073 0.1641444 0.21587244 0.2615819 0.18511319 0.03289288
0.09451893 0.063729316 -0.14010897 0.29686177 -0.029888075 -0.04288429 -0.04060384 -0.12872612
0.1246689 -0.078864396 -0.08693703 0.0059168637 -0.15024927 -0.03482378 0.07972712 0.14815535
0.08784861 0.08369817 0.10071098 -0.10330115 0.09983259 0.12993945 0.024765354 0.24036534

layers.4.weight f4 [4, 32]
00000000: f972 3dbe 6178 523e 5707 00be 7e8a 043e
00000010: 7ab2 223e a414 713e 728c 543e c9dc 0e3e
00000020: 9508 293f 2d96 bc3d 6172 54be 4afa f63c
00000030: 3150 073f ddeb 043f 0c89 593f b7a1 103d
00000040: 5c72 673e 4821 cebe 0ae5 a53f 1241 c43d
00000050: 8a04 c0bc e27b c4bd 6a27 bf3d 8873 883d
00000060: 473e be3d f3db afbc 52c4 443e 6491 bcbd
00000070: 95c2 173e ae15 2d3f 3e21 b5bc c022 763e
00000080: e60d 683e 3db7 483e 1cac 123e 1d6d d83d
00000090: 1647 6d3e b75a 8b3e f2d2 403d 2405 4f3e
000000a0: 5fd2 113f b1f7 523e d4e0 c5bd 8dde 4d3e
000000b0: 03ed 253f e2e8 0d3f 76c4 393f ebbc 04be
000000c0: 5751 1f3e 084b d8bd 9a7e 923f e9a0 843e
000000d0: 1f64 bebd 368b 493d 20bd 0b3e 2777 53bc
000000e0: 7963 8d3d ef45 e0bd c858 0c3e 497f 90bd
000000f0: 9fd2 7bbd d9dc 043f d380 583e 8981 a03d
00000100: 3ac3 babe 7bbd 923e 9aec 3f3e 636e 813e
00000110: e91e 513e 55b9 243e 6916 89ba a492 ea3e
00000120: 9ede bb3f e1f3 be3e 022e 62bd b838 323e
00000130: b448 cf3f 3ca4 b43e be18 343f 3916 2b3a
00000140: 934b 883d 3466 bf3c 93a9 2c3f f2ab 7ebd
00000150: bd86 aa3e 7b78 ca3e 1f89 ad3d 1da1 613e
00000160: 3038 fa3d 6cad 4bbe 87be 2f3d cd0a 6f3a
00000170: afff 973c 8ac6 a63e f514 80be c522 ae3d
00000180: 1600 cb3e b7a6 8c3e 34dc 2f3e ac34 133e
00000190: 8d89 2c3e d44e 443d f731 103e ef55 2d3f
000001a0: 1887 f33d b58d 773f 6fb3 adbd 5200 d83c
000001b0: 024e a13f 4672 aa3e e1bc 493e a6f2 1cbf
000001c0: fe8f 873d 1b1d 953e a292 6c3f 71da d33d
000001d0: 0617 c0be 21e8 653d 75ed f33e 7bbf 54be
000001e0: 958f 063e d770 87be 89ae 073e 046b 4abe
000001f0: 564c 7b3e d711 513e 7401 bb3e 3d9b 5e3e
-0.1850089 0.20553733 -0.125028 0.12943456 0.15888396 0.2354303 0.207567 0.1395141
0.6602872 0.09208331 -0.20746757 0.030148644 0.5285674 0.519224 0.8497474 0.035310473
0.22602218 -0.40259767 1.2960522 0.09582724 -0.023439664 -0.09593941 0.093336895 0.06662661
0.09289222 -0.021467185 0.19215515 -0.092074186 0.14820321 0.67611206 -0.022110578 0.24036694
0.22661552 0.1960115 0.14323467 0.10567687 0.23171648 0.27217647 0.047076173 0.20216805
0.56961626 0.206023 -0.09662023 0.20104428 0.64814776 0.55433476 0.725654 -0.12962691
0.15558372 -0.10561186 1.1444886 0.25904015 -0.0929644 0.049205028 0.13646364 -0.012906826
0.069037385 -0.10950839 0.13705742 -0.07055528 -0.06148016 0.51899487 0.21142893 0.07837207
-0.3647707 0.28660187 0.187426 0.2527953 0.20421948 0.16086324 -0.0010458949 0.45815003
1.4677312 0.3729544 -0.055219658 0.17404449 1.6194062 0.3528155 0.70350254 0.0006526444
0.0665504 0.023364164 0.6744625 -0.0621757 0.33305922 0.39545044 0.084734194 0.22034116
0.12217748 -0.19890374 0.04290631 0.0009118736 0.018554537 0.32573348 -0.2501599 0.085027255
0.39648503 0.27470943 0.17173845 0.14375561 0.16849346 0.04792674 0.1408156 0.6770925
0.118910015 0.967006 -0.0848149 0.02636734 1.2601931 0.3329031 0.19700958 -0.6130775
0.06619261 0.29123768 0.92411244 0.10344399 -0.37517565 0.05612958 0.47642103 -0.20776169
0.1314071 -0.26453277 0.13250174 -0.19767386 0.24540839 0.20416962 0.36524546 0.21738906

layers.4.bias f4 [4]
00000000: 0bd4 65bd 277b c93d 65b3 9b3e 0f4e 693e
-0.056110423 0.098379426 0.30410305 0.22783683
