model_weight/mactor.pt (torch_old, 294205 bytes, 8 tensors)

hidden1.weight f4 [256, 24]
00000000: 58fa a73d a8b3 aabc 18f7 8bbc 08d6 58bd
00000010: 20dc de3d 9aec 90bd 8c80 65bd b03d 4d3e
00000020: 624b 4e3e 9af1 dcbd fea3 2d3e 1041 fb3d
00000030: e0a8 bb3c a891 8c3d 20b1 f2bc e6ad 143e
00000040: 9145 97bb bac5 90bc 86aa 043e 74dd 4fbd
00000050: dd9b 30be ae89 5ebe 80b2 94ba 8869 343e
00000060: abbf f8bd f4de f83d 78f4 bebc 249b 14be
00000070: feb5 24be 7873 bebc 0c76 5dbd 4a2c 393e
00000080: 99a1 36be 887f a23c 457c dcbd b822 e3bc
00000090: 82a4 123e c4ec d23d ba81 1a3e d981 45be
000000a0: 8173 2d3e 8710 33be d0ff d0bd bb3f 4ebe
000000b0: e38e 3cbe 15be 15bd ea1c 1a3e d85f b8bd
000000c0: c03d 503e f0ae 6cbd 2aa4 37be 1c0e fa3d
000000d0: 00c5 28bc c0c8 76bb 2f84 02be cc7a 253d
000000e0: a21f 9ebd 2225 3e3e 505d a7bc 42c8 053e
000000f0: 887b 783d 6252 d9bd 23e8 4cbe 60c8 6a3d
00000100: 6c43 323e a9aa 303e 8280 213e 109e ed3c
00000110: 0582 2d3e 8432 dfbc c21b 013e 5c14 263d
00000120: 5a01 bbbd 10d7 38bc 9024 313e 8cf0 953d
00000130: 2474 e43d 543a 143e af38 c4bd a8fc 49bd
00000140: ce9c 16be 9875 873c 2849 fc3d 1060 bb3d
00000150: 96e4 abbd 00d8 343d f4cb c63d 4001 02be
00000160: 49d1 aabc ec99 273d 382b 183e 26f6 4dbe
00000170: a3b5 d13c 86a2 3f3d e02b 063e b0f6 453e
00000180: c097 943d 00ef 463e 964e 2f3e 10da 483c
00000190: f059 823d 907d 4cbc 94b0 0f3e 61bc 1abe
000001a0: 5c1b ad3d 04b7 72bd 5ba9 0abe 049a 7dbd
000001b0: 0e93 023e beee 033e 5831 853c 80e9 913d
000001c0: 394e 3bbe b448 b9ba 88e5 a43c e386 17be
000001d0: d4e9 173e 65db 943d ac35 2c3e cc2d 00be
000001e0: bc7c 453e 9055 7ebc 5c04 483e b8a9 84bd
000001f0: 8293 debd b166 2abe c858 9f3d 7305 28be
00000200: bc56 08be 72b6 c1bd a843 ef3d 6eed 1b3e
00000210: 80cc 193c a076 593d 624e 2f3e 488e c2bd
00000220: 5d24 e6bd 7384 75be 57b2 1ebe a256 41be
00000230: c7a5 1abe 1422 c1bb 2ca7 16bd d43c 223d
00000240: f4b1 4dbe 809a 203c 6483 3e3e 2839 cabc
00000250: a083 9c3c e0a8 e63c f0b9 7c3c 9c0d 7ebd
00000260: ccbc 3ebd 00e7 4f3d d876 b8bc 58a3 03be
00000270: ef28 ebbd b1c7 4fbe fac2 1a3e 7c9c 023e
00000280: 9036 bd3d 368b 063e 5c85 18bd 55da 2dbe
00000290: 4037 463b 093c bcbd 409d 493e e8cd db3d
000002a0: 8003 e93d e803 f53d ea52 2dbe ee9e 4e3e
000002b0: 1efa 3f3e 9037 4c3d a8f8 82bc b83f 49bd
000002c0: 48b2 3cbe 81cb 05be 5851 dc3c a0ba f9bb
000002d0: f25b f2bd 081d fdbc e08e 053e 116e bebd
000002e0: 7648 20bd f825 f03d 143b 323e a0d4 2bbd
000002f0: a2e7 de3d dec6 3abe 30bb cf3c f2a0 bebd
00000300: 4a62 2f3e a0cd 903d 48b2 943d f839 cabc
00000310: feed 4e3e 3c4a a83d e8d5 323d aed2 81bd
00000320: e68f 0abe bc02 a3bd 9c0e de3d 61ae 34be
00000330: 50ff 343e 697b febd f01b d2bc 9c38 1f3d
00000340: 323e 70bd 32bf 5bbd 4080 773d 7a07 37be
00000350: c5c3 1bbe a926 53be 50aa 80bd 1226 153e
00000360: 306f 263e ee8d 2bbe 1cf4 2e3e 207d 603d
00000370: fcb7 d13d 68ed 75bd 6c6b 19be d0df 373e
00000380: 68b0 96bc e30c 38be 7870 e5bc f008 093d
00000390: 960f 1bbe 4ccd dbbd 40cb 86bd dc8e 903d
000003a0: 5dca 2f3e 02ae bc3c 0c5c 8e3d 2419 2b3e
000003b0: dc95 363e c5a0 213e 9af7 a4bd f1e1 3bbe
000003c0: 6482 18be 641f fdbd 02c0 e3bd c0ec 483c
000003d0: 47d5 0bbe 2cda 8d3d 28bb 10be b461 11bd
000003e0: f943 14be 689d 823d 0876 bf3c b038 013c
000003f0: c840 ba3d 413b 2bbe ed00 32be 7dbd d7bd
0.08202046 -0.02083762 -0.017085597 -0.05293849 0.10881829 -0.07076378 -0.056030795 0.20043063
0.20145944 -0.10788269 0.1695709 0.12268269 0.022907674 0.06863719 -0.029625475 0.14519462
-0.0046164473 -0.017672408 0.12955675 -0.050748304 -0.17246957 -0.21732208 -0.0011344701 0.17618382
-0.12145933 0.121519 -0.023309931 -0.14512306 -0.1608505 -0.02324842 -0.054067656 0.18083301
-0.17835082 0.019836202 -0.1076589 -0.027726516 0.14320567 0.10299066 0.1508855 -0.19287814
0.16938592 -0.17486773 -0.10205042 -0.20141499 -0.18413882 -0.03655823 0.15050092 -0.09002656
0.20336056 -0.05778402 -0.17933717 0.122097224 -0.010300875 -0.0037656277 -0.12745737 0.04040031
-0.07720877 0.18568853 -0.020430237 0.13064674 0.060664684 -0.106114164 -0.20010428 0.05732
0.17408532 0.17252602 0.15771678 0.029006034 0.1694413 -0.027245767 0.12608245 0.04054676
-0.09131117 -0.011281744 0.17299104 0.07321271 0.111549646 0.14475375 -0.09581124 -0.049313217
-0.14708254 0.016535565 0.12318641 0.09149182 -0.08393209 0.044151306 0.0970687 -0.1269579
-0.020851748 0.040918276 0.14860237 -0.2011343 0.025599306 0.046785854 0.13102674 0.19332385
0.072555065 0.19427109 0.17119822 0.012259021 0.063648105 -0.012481108 0.14032203 -0.15110923
0.08452484 -0.05925657 -0.13541166 -0.06191446 0.1275141 0.12884042 0.01625888 0.07124615
-0.18291558 -0.0014136047 0.02012898 -0.14797549 0.14835292 0.07268409 0.16817349 -0.1251747
0.19285864 -0.015523329 0.19532913 -0.06477684 -0.10867979 -0.16640736 0.077806056 -0.16408329
-0.13314337 -0.09458627 0.11682826 0.15227291 0.0093871355 0.053091645 0.17119744 -0.09499794
-0.112374045 -0.23976307 -0.15497719 -0.18880704 -0.15102302 -0.005893955 -0.03678052 0.03960879
-0.20087415 0.009802461 0.18604809 -0.024685457 0.019105732 0.028156698 0.01542519 -0.062024698
-0.04656677 0.05075741 -0.022517607 -0.1285528 -0.11482417 -0.2029102 0.1511344 0.12755007
0.092389226 0.13139042 -0.037236556 -0.16977818 0.0030245334 -0.09191138 0.19688892 0.10732633
0.11377621 0.11963636 -0.1692616 0.20177814 0.18747756 0.049857676 -0.01598771 -0.049133033
-0.18427384 -0.13065912 0.026894256 -0.0076211244 -0.118339434 -0.030897632 0.13042784 -0.09298337
-0.039131604 0.11725992 0.17405349 -0.041950822 0.10884024 -0.18239924 0.025357813 -0.09308042
0.17127338 0.0707047 0.07260567 -0.024685845 0.20207974 0.08217284 0.04366103 -0.06339012
-0.13531455 -0.07959506 0.1084263 -0.17644645 0.17675519 -0.12425882 -0.025648087 0.038872346
-0.058653064 -0.053649135 0.060425043 -0.17873946 -0.15211399 -0.20620216 -0.062824845 0.14565304
0.16253352 -0.1675336 0.17085308 0.05480683 0.1024017 -0.06004086 -0.14982384 0.17956471
-0.018394664 -0.17973666 -0.02800773 0.03345579 -0.15142664 -0.10732517 -0.065817356 0.07058498
0.17167039 0.023032192 0.0695115 0.16708809 0.17830604 0.15783985 -0.08055039 -0.18347909
-0.1489349 -0.12359503 -0.11120607 0.012263477 -0.13655578 0.069263786 -0.14133894 -0.035493568
-0.14479055 0.06377679 0.023371711 0.0078870505 0.09094387 -0.16721822 -0.17383166 -0.10534189

hidden1.bias f4 [256]
00000000: a801 8e3d eed6 4d3d ceab 2cbd a3f1 2f3e
00000010: ce7f f73d c10b 6a3d 40ae ebbb bb15 f6bd
00000020: 559d c2bd 7ae9 08be 9aaa cdbd 3862 693e
00000030: 689e f9bd 342a 123e 7388 283e 789b 6e3d
00000040: f6d2 3dbd 3906 513e defe 25be 1a38 f93d
00000050: 15a8 a5bd 0346 723e e660 f43d a71f f3bd
00000060: 0ee1 023e 415d a2bc fc77 5e3d 9ff2 2d3d
00000070: f037 3c3c 5044 82bc 4598 d9bd 0ffd e1bd
00000080: 7158 a5bd bd8e 3d3e 9968 81be 2388 483e
00000090: 4655 393e 9068 9a3d 0aa5 3ebe 0ac7 fcbd
000000a0: f054 0ebe a9c8 d2bb 7d86 debc e568 ad3c
000000b0: 9063 083e af26 c13d e1e5 363e 8726 07bd
000000c0: 2596 013e c25f c3bd dc0a 12be f0c5 003c
000000d0: ad23 1a3e 6842 cd3c e423 453d 201e 47be
000000e0: f7c6 663d 67d4 453d 6cd7 d0bd 1990 f5bc
000000f0: 6d00 85bb 31a7 1e3e b597 2abe 57e9 523e
00000100: 508d 503e 6452 0cbe 162e 2d3e 2617 813d
00000110: 01c2 aabd bd5a 58be 307c 513e 5527 5cbc
00000120: a8a6 533e 9449 383e 2ea7 9ebb d87e e73d
00000130: e8ca f9bc d381 02be 5fbb 2cbe 7b6d 12be
00000140: d8d4 8d3d a4f3 e93c 2e3a 363d 7a0b 723e
00000150: 214f 1b3e a75e 223e 4003 39bd b03b dd3d
00000160: bfee 0cbe ea12 2cbe e4dd fdbd f777 7a3d
00000170: 9654 25be 3c57 6a3e 290b 893d 7fdb 5d3e
00000180: 02d6 82bd 7dd7 fabc 32a3 473e 3636 853d
00000190: bf1c 24bc 4983 dc3c e0d5 2bbd 7d46 703e
000001a0: 12de 843e 8ecc 203e da27 003e f85a 423c
000001b0: c6a6 a83d ca92 2d3e ad90 81bd da3d 8f3d
000001c0: 6a52 ddbc 56b1 2e3e 3dfc 233d a16a 473e
000001d0: d7c3 8fbd 08b3 3d3d 0a17 89bd 0f0f 453e
000001e0: f27d a43d fe8e 003e 4971 b93d 385a da3b
000001f0: 40fe 363e 5a80 663e 0ccf 1ebe 7866 ddbd
00000200: 5983 02bc 6dc7 82bd ffdc 09bd 1aa7 2cbe
00000210: d485 24be 185f e1bc 5b97 eebd fa23 8c3d
00000220: 3307 f23d b452 b03d b6af a1bc f704 1fbe
00000230: af7f 51be b7d7 ff3d 1b84 253e 53cd e7bd
00000240: 56b3 e6bd 18c2 e63d e7f2 a63d 700e a83d
00000250: 4a73 23be 2d89 d9bc e74b 04be b1eb 893d
00000260: 0812 eabd 4636 3bbc 74a9 29bd b0a3 153e
00000270: 250c 0c3e 3aa5 8fba 7891 7dbd 4711 1f3e
00000280: 7c6b 95bd acea 2b3e 7390 0c3e 779c 3bbd
00000290: 43c4 84bd 246e 52be a244 173e 9b3a 7a3d
000002a0: c825 40bd 6a72 c2bb fde1 eb3d 35d9 33bd
000002b0: 12ed 5cbc 67be 13be 00f3 653e 25c1 8e3d
000002c0: 9691 083e 900a ad3d dd16 61bd aa50 673e
000002d0: ad2b 263d cd86 e1bd 5707 f2bd ff3a 973d
000002e0: b825 06bc 27df 13be 155e b73d 459e f8bd
000002f0: c423 07bd 9212 3c3c a995 b3bc e344 13be
00000300: b10a 15bd 3e5c 053e 3879 1e3d 81c4 5e3e
00000310: 9cc6 383d 20e7 403e b418 25be 7918 f03d
00000320: 22ac 483e 060d cebd 8d41 4bbd 77a2 0c3e
00000330: f079 b53d 773c 36be 9487 d13d 9860 78bd
00000340: 0f7e ffbc 1dce 5cbd b06c 65bd 30ad f1bd
00000350: 80c5 873b 6748 0c3d 90a4 553e 6bdb d7bd
00000360: 69ef acbb 88e1 8c3e f4d0 07be 5dfd 8e3d
00000370: a52b 3bbe 6d5b 983c e0dd 2f3e abf0 2a3d
00000380: ff62 cd3d 16c3 1b3d 35a5 eebc 995e e43d
00000390: b1b4 d4bd 5309 3cbe c5af 42be 40f7 c3bc
000003a0: 15af 323d 873e f5bd a0c9 d73c abc2 c1bd
000003b0: cd79 39be 4591 64bd 8352 3bbd 3c07 bbbd
000003c0: 8df0 823c 8972 ea3d 94ad c9bd ccff 4e3e
000003d0: 4b20 363e 091d 03be 54c7 413d e162 e7bd
000003e0: 82b5 123b 8043 963a b07d 0bbd 69ed c73d
000003f0: 5cc5 96bd f37e 5c3e 5dbf 27be 8ef1 a33d
0.0693391 0.0502538 -0.042156033 0.17182021 0.12084924 0.057140116 -0.007192403 -0.120158635
-0.09502665 -0.13370314 -0.10042305 0.22791374 -0.12188417 0.14273912 0.16458301 0.058253735
-0.046343766 0.2041253 -0.16210505 0.12168904 -0.080887 0.2365952 0.119325444 -0.118712716
0.12781164 -0.019819858 0.054313645 0.04246771 0.011487946 -0.015901715 -0.10624746 -0.11034595
-0.080735095 0.18511482 -0.25275114 0.19583182 0.18098935 0.07539475 -0.18617645 -0.12342651
-0.13899589 -0.006432612 -0.027163738 0.021168182 0.1331923 0.094312064 0.1786113 -0.032995727
0.12654932 -0.09539749 -0.14261955 0.007859692 0.15052672 0.025056079 0.04812993 -0.19445086
0.05634209 0.048298266 -0.101973385 -0.029975938 -0.0040588886 0.15493466 -0.16659434 0.20596825
0.20366406 -0.13703305 0.16912112 0.06303243 -0.083377846 -0.21128364 0.2045753 -0.013437112
0.20669043 0.17996818 -0.0048417067 0.113034904 -0.030492261 -0.12744837 -0.16868351 -0.14299576
0.06925362 0.02855856 0.04448908 0.2363719 0.15166904 0.1585642 -0.045169115 0.108024
-0.1376295 -0.1680409 -0.12395838 0.061149564 -0.16145548 0.2288484 0.06691582 0.21665762
-0.06388475 -0.030620331 0.19495848 0.065044805 -0.010016619 0.02691807 -0.041952014 0.23464389
0.25950676 0.15703031 0.12515202 0.011862509 0.082349345 0.16950527 -0.06326423 0.06994219
-0.027016837 0.17059836 0.040035475 0.1947427 -0.07019775 0.046313316 -0.066938475 0.19244026
0.08031835 0.12554547 0.090548106 0.006663587 0.17870426 0.225099 -0.1550867 -0.1081056
-0.007965886 -0.06385694 -0.033658024 -0.16860619 -0.16066676 -0.027511165 -0.116499625 0.068427995
0.118177794 0.08609524 -0.019737106 -0.15529238 -0.20458864 0.12492316 0.16163675 -0.11318459
-0.11264674 0.11267489 0.08151799 0.08205879 -0.15961948 -0.026554668 -0.1291958 0.06734408
-0.114292204 -0.011426514 -0.04142137 0.14613223 0.13676508 -0.0010959276 -0.061906308 0.15533935
-0.07295892 0.16788739 0.13726978 -0.045803513 -0.064827465 -0.20549828 0.14772275 0.061091047
-0.04691103 -0.0059340494 0.11517713 -0.043908317 -0.013484256 -0.14428101 0.22455978 0.06970433
0.13336787 0.0844928 -0.054953445 0.22589365 0.040568996 -0.11012039 -0.11817806 0.073842995
-0.008187704 -0.14440595 0.089534916 -0.121395625 -0.032993093 0.011479037 -0.02192195 -0.14381747
-0.03638715 0.13023469 0.038689822 0.21754648 0.045111284 0.18838167 -0.16122705 0.11723418
0.19596913 -0.10061078 -0.04962306 0.1373385 0.08861148 -0.17796503 0.102309376 -0.060638994
-0.03118804 -0.053907502 -0.056011856 -0.11800611 0.004143417 0.034248736 0.20863557 -0.105398975
-0.0052775634 0.27515817 -0.13263303 0.06981919 -0.18278368 0.018598283 0.17174482 0.041733425
0.10028648 0.038027845 -0.029131511 0.111508556 -0.10386027 -0.18362932 -0.19012363 -0.023921609
0.043624002 -0.11974817 0.02634126 -0.09460958 -0.1811287 -0.055802602 -0.045732986 -0.09132239
0.015983844 0.11447627 -0.098475605 0.20214766 0.17785756 -0.12804045 0.047309235 -0.112981565
0.002238602 0.0011464208 -0.03405541 0.09762079 -0.07361862 0.21532802 -0.16381593 0.08005057

hidden2.weight f4 [256, 256]
00000000: 60c7 323c c06d 693c a448 693d 668a 4ebd
00000010: 0692 17bd 06bd 303d 1cf9 07bd b675 18bd
00000020: c4cd ecbc 80a9 2e3b a261 3abd e8eb ae3c
00000030: 8086 7f3d 3c24 a53c 904c 58bc d201 5dbd
00000040: ee23 4f3d 7c6c 0abd 90ac 4e3c 6a19 3e3d
00000050: 2883 16bc 30c7 a33c 7c00 cfbc e8b6 19bd
00000060: 9817 2e3d 4cb9 e03c a894 093d f4c7 e4bc
00000070: dabf 6a3d 9aab 3d3d d6fb 38bd ac3f c9bc
00000080: 7054 aabb 80a7 d53c 48c4 98bc 0c01 54bd
00000090: 889a 20bc fac5 54bd 982b 133d cc26 fd3c
000000a0: 8869 5abc 58fb 1e3d 50f8 bcbb 681f cebc
000000b0: d418 6ebd 3c23 d3bc 5827 6abd 0099 653c
000000c0: 28da 6cbd c0ca 043c 6016 d0bb b033 d2bb
000000d0: 7205 273d 286c 093c 606e 753b 54cc cdbc
000000e0: c03e 2cbc 8037 4a3a 4ce9 143d d633 0ebd
000000f0: 58e3 623d 50ba a83b 2806 c93c 442c 02bd
00000100: f8d7 16bd 027d 653d 4ac9 343d 08c5 b93c
00000110: 40f8 5abc 48f3 4e3d 2a31 26bd 70d6 2fbd
00000120: fcf0 30bd 544a 4bbd 288a 9abc 9e5c 393d
00000130: 90e3 7fbd 50c8 bb3c cca3 f5bc 3c6e dfbc
00000140: 1e00 5dbd 0ecd 67bd 2e85 4a3d 8072 8abc
00000150: 42c4 643d e818 6b3c fa57 0d3d 40ac dabb
00000160: 707d 90bb 707e 1dbd a472 60bd aef2 063d
00000170: 145f a73c bc2b c73c 32e3 3ebd a013 ac3c
00000180: 7831 a4bc 38bb 783d 44d5 6e3d c21f 74bd
00000190: c04a adbc 9c33 c63c 702b ffbc 3058 733c
000001a0: 5cf0 e4bc 1295 4b3d 800b e7bc 4c73 71bd
000001b0: 2264 653d dae6 4b3d f4ed 43bd 38f0 123c
000001c0: 78f3 e83c 9000 ebbb 1635 74bd 52d7 78bd
000001d0: 30f8 05bd 2416 3bbd e423 403d 1c7e babc
000001e0: 2cb8 3b3d 98a6 673d 383f 503c 00ba 503c
000001f0: 5438 8a3c 824c 49bd 08d8 493d fae6 633d
00000200: 909a a4bc a0f9 8b3b 3c6c 1ebd ee51 3abd
00000210: f0ee d8bc ace6 1cbd 1a8d 3b3d f421 673d
00000220: 88f5 60bd 20ac ee3b 5a57 3abd 2098 173c
00000230: 081c 19bd 54bc af3c f0cf f83c 6c9b e9bc
00000240: 6250 693d c0e5 34bc 80d4 6fbb 86ee 18bd
00000250: 2835 e8bc e86f 733d 14a2 023d 209b e03c
00000260: 381d fa3c 58da 723c 8632 0b3d 842c 063d
00000270: 8cec 063d d014 c7bc a25a 7ebd 60f9 c3bb
00000280: 4e2d 293d 3afb 493d 4083 2f3b c875 173d
00000290: f0af e53b 30de d73c 188e fc3c 40eb d83a
000002a0: 9035 033d 7803 66bd fc19 33bd a4c7 89bc
000002b0: 6ecb 04bd 0003 1a3d e051 4cbc 8c6c ffbc
000002c0: 6877 0b3d 8033 14bc 50f0 8f3b b8bd a9bc
000002d0: ba0e 793d 741e 82bc dc3d 39bd 2a41 5dbd
000002e0: 7042 d2bc 08e0 2c3d 1448 eabc 249a f13c
000002f0: a414 7a3d 083f 283d 04b2 543d be41 16bd
00000300: 225c 4fbd 24d8 5dbd 30e6 5ebc 50bb d1bc
00000310: 56ab 45bd 0a81 69bd a08c 4bbd d8a8 3ebc
00000320: c813 3fbd 5878 ecbc d6a4 4dbd 101a 6b3c
00000330: 0033 8c3a 7a22 333d 1a03 673d 345b 30bd
00000340: 6254 75bd 2cb2 3e3d f04b 383d a0fe 773b
00000350: 4035 63bb c67e 04bd 947c e23c 20a2 893c
00000360: 4894 c53c c0d5 efbb 6eba 183d 2ae2 2a3d
00000370: c09c d3bb 002c 2e39 b8f3 313c 545f afbc
00000380: a45c 8abc 3c48 593d 80b4 6d3a 1e40 23bd
00000390: 90fd 7d3d b4dc bfbc 5c83 72bd b0ac 72bd
000003a0: 9c69 5c3d 8a19 18bd 80b2 c8bc 4c64 ffbc
000003b0: 5ac3 54bd 48fd a3bc c08d 10bb 00d9 113c
000003c0: 4ce9 443d c0a1 d9bc 985b 52bc 2087 e8bc
000003d0: 54e1 f0bc 089d 2a3d 0029 b43c c6fd 41bd
000003e0: 143c cf3c 90a2 dc3c 5071 05bd 486b 2e3c
000003f0: 8031 aebc 34ca 7d3d 945b 523d b0b1 3c3c
0.0109117925 0.014247358 0.05695404 -0.050424956 -0.037004493 0.043149017 -0.033196554 -0.037221633
-0.02890671 0.0026651323 -0.045503266 0.021352723 0.06238413 0.02015888 -0.013201848 -0.053956814
0.050571375 -0.033794865 0.012614384 0.046410955 -0.0091865435 0.019992441 -0.025268786 -0.03752795
0.04250297 0.027432106 0.033589035 -0.027927376 0.05731187 0.04630623 -0.045162044 -0.024566494
-0.005198054 0.026080847 -0.018648282 -0.05175881 -0.009802468 -0.051946618 0.035930246 0.030902289
-0.013330825 0.03881392 -0.005766906 -0.02516146 -0.058129147 -0.025773637 -0.057166427 0.014013529
-0.057825238 0.00810498 -0.0063503236 -0.006414853 0.040776677 0.008387603 0.0037449822 -0.025121845
-0.010513008 0.00077139586 0.0363553 -0.034717403 0.055392593 0.0051491633 0.024539068 -0.031780496
-0.036827058 0.05602742 0.044137277 0.02267696 -0.0133648515 0.05052498 -0.04057423 -0.042929113
-0.04319857 -0.04963143 -0.018864706 0.045254342 -0.06247288 0.022922665 -0.029985331 -0.027274244
-0.05395519 -0.05659204 0.049443416 -0.016900301 0.05585123 0.0143492 0.03450773 -0.006673366
-0.0044094846 -0.03845066 -0.05479683 0.03294628 0.020431079 0.024312846 -0.04660339 0.021005452
-0.02004312 0.06072542 0.058308855 -0.0596006 -0.021153808 0.024194531 -0.031148642 0.0148525685
-0.027946644 0.04970271 -0.028203726 -0.058947846 0.056003697 0.049780704 -0.04783435 0.008968405
0.028436407 -0.007171698 -0.05962094 -0.06075222 -0.032707393 -0.04567541 0.046909228 -0.022765212
0.045829937 0.05655536 0.012710385 0.012739658 0.016872562 -0.04914523 0.04927829 0.0556402
-0.020093232 0.004271701 -0.03867744 -0.04548829 -0.026481122 -0.038305923 0.04578886 0.056428865
-0.054921657 0.0072837025 -0.04549346 0.009252578 -0.03738025 0.021452107 0.03037259 -0.028516494
0.056961425 -0.011041105 -0.0036595166 -0.03733685 -0.02834566 0.059432894 0.03189285 0.02741772
0.03053151 0.014822565 0.03398373 0.032757297 0.032940432 -0.024301916 -0.062098153 -0.0059806556
0.04130297 0.049311854 0.0026781112 0.03697756 0.007009499 0.026351064 0.030829474 0.0016549602
0.032033503 -0.05615565 -0.043725953 -0.016818829 -0.03242057 0.037600517 -0.012470692 -0.031179689
0.03404942 -0.009045482 0.004392661 -0.020720348 0.06080506 -0.015883662 -0.04522501 -0.054017223
-0.025666445 0.04220584 -0.028598823 0.029492445 0.06105484 0.041075736 0.05192758 -0.03668379
-0.050624974 -0.054161206 -0.013604686 -0.025602013 -0.0482591 -0.057007827 -0.049694657 -0.011636935
-0.046649724 -0.028865978 -0.050206028 0.0143494755 0.0010696352 0.04373405 0.056399442 -0.043055728
-0.059894927 0.046556637 0.044994295 0.0037840977 -0.003466919 -0.032347463 0.027647294 0.01680094
0.024118558 -0.007319182 0.03728717 0.041719593 -0.006457895 0.00016610324 0.01086133 -0.02140776
-0.016889878 0.053047404 0.0009067729 -0.03985607 0.062009394 -0.02342067 -0.059207305 -0.05924672
0.053811654 -0.03713373 -0.024499178 -0.031175755 -0.051944114 -0.020018235 -0.0022057146 0.0089018345
0.04807405 -0.026566386 -0.01283922 -0.028384745 -0.02940432 0.041653663 0.021992207 -0.047361158
0.025297202 0.026932985 -0.032578766 0.010645695 -0.021263838 0.061960414 0.051356867 0.011516973

hidden2.bias f4 [256]
00000000: 008d 1d3b c90f e0bc 5555 153d 9608 6b3d
00000010: 61e5 3e3d f7f1 8b3c dbdb 453d 2228 b23c
00000020: 08f5 2a3d b380 23bd 9976 ac3b 0ff9 4a3d
00000030: 97d6 1a3d f1bc d9bb e3d4 303b 0231 ebbc
00000040: 80f1 e23c a4cd 6cbd 0465 96bc a652 9d3d
00000050: 96c2 153d b7e7 e4bb 150a 6e3b 576a 733d
00000060: 84b4 20bc ffeb 493d c3a3 153a a579 02bc
00000070: 6cd5 ce3d d9de bf3c e3a6 ec3b 299c c13d
00000080: ebd5 debb 30a0 353d 95b2 a8bc 7f9d 893d
00000090: 4cf1 27bc 36d6 dc3c 06f5 403d 7169 a7bc
000000a0: f111 13bd 4d00 2e3d c4f2 1fbc 993f 6abc
000000b0: a49b f73c 0613 10bc 47db 963c 448a 403d
000000c0: 7b3e 17bc e1e4 99bc 00d8 353d d245 843c
000000d0: 20a7 c0bb 0e18 af3d ce17 22bd 70ee 32bc
000000e0: d04d e7bb 9ade 35bd 9328 473d 851e bc3c
000000f0: 4a67 443d 7344 22bc 9a51 68ba 3170 893d
00000100: fca1 e4bc 68ac 743d ddd7 333c 6714 0c3d
00000110: 6caa 6bba 6410 98bc 01b7 e13b dac3 9d3d
00000120: c8b1 a23d 62c6 7dbd 9d26 693c 48a1 fb3d
00000130: 8d06 26bd c5d4 0bba 130e dbbc ab15 423d
00000140: 6993 31ba 61d6 25bc 6ea6 2cbd 8e80 c63c
00000150: 36c7 44bb a0f5 893b fe6d 113c 3b55 803c
00000160: d336 b13c 9dc1 02bd 39c4 21bd c16c 423d
00000170: 8335 123d df60 3cbc c2ae 0e3d 639e b63d
00000180: 97c6 a73d 4dda 363c 7c45 373d eb57 a0bc
00000190: 0c17 623d f452 fb3c aef0 d43c 0153 873c
000001a0: 6099 673d ea4a 873c 0525 033d e31c 813d
000001b0: adb5 6f3d ff98 923d 8bc8 423d 2ced 4ebd
000001c0: dca1 ecba 963f b83b a156 11bb 4dcf 32bd
000001d0: 5765 2cbd 1d60 ba3d 92ef 9d3c 45b2 5f3c
000001e0: 52ba 723b 0aaf 963d 22c9 463c f8b0 f53c
000001f0: 9ede 2aba 2e08 61bd 0f6f 773c 8016 603c
00000200: 89b6 923c 2448 a93c c3e9 8f3c bad4 14bd
00000210: 1ef5 fd3b c484 d5bc 2e62 073d e5f1 97bc
00000220: 0c01 a53c ccc3 a83d 3024 b43d 7e61 03bc
00000230: 2f73 163c 536e 113d 6a31 afbc 0e1a 443c
00000240: 0627 2c3c 075f f73c 2c27 2ebd 0f15 5abc
00000250: e24b bc3c e7d2 c2bc f042 ae3d fbcf fab9
00000260: 44ae 013d 5f8d 9ebc 7139 373d 1247 c73c
00000270: 869a 0dbc 156b 6a3d f90c b93d 3e7c 4c3d
00000280: be67 14bd 5c36 38bb 86bd 7b3d e31b 903c
00000290: 00b8 b8bc 50c8 c4bc f005 6bbd 77d3 0c3d
000002a0: d9e9 4a3d 33a5 81bd 70d6 2f3c 7c31 693d
000002b0: 2a9c 1a3d 02d0 4cbd dc6e 6a3d a8c4 d13c
000002c0: 5092 55bd 00f2 613c a897 df3c 5974 4b3d
000002d0: 30af 063d a068 213d 47fb 483c 744b 2abc
000002e0: f0bd ac3b bdac b13d fe98 17bd 7a00 ce3c
000002f0: 8c12 5fbc e8e4 043d d9c1 bb3d 49b7 b73d
00000300: 4685 e33c 2d11 bc3d 1f4b 953d cc8f 13bd
00000310: edb8 8d3d 311e 813d e024 68bd ec4a 483d
00000320: 48f5 4dbc 45ca a33d a961 583d f304 1ebd
00000330: 48cb 4cbd 824a 8d3d 85b3 02bd 0ccb 68bd
00000340: f085 333b 9980 bd3b e4f1 9cbc 5d5b d9bc
00000350: e561 063d 3e3f 7cbd 199c a93d df7f 03bc
00000360: 115a 303d dabf 623d 28e1 d63c 1272 1dbd
00000370: d0cf 9d3c f4ba 373d 36d5 2ebb eb1d 963b
00000380: ed4f f83c 1425 f23d 01bf e43c 5d60 64bc
00000390: bdbf ba3d 78ad 69bd afe7 e93d 59d0 a13d
000003a0: 875b 49bd d95a a63d 8430 603d c5c4 51bd
000003b0: 18b8 2cbd eb66 293d 5967 003d 1001 e33c
000003c0: 0574 3b3d c32e cf3d c03a bc3c a5b0 733d
000003d0: ee32 243d a2f8 433d 39d4 093d 67b4 963c
000003e0: bdc2 3cbc d3ab 763d 8ab1 923d e9c2 7c3d
000003f0: 2e8b 143c c70b 233d 1818 a53d c791 79bc
0.0024040341 -0.027351277 0.036458332 0.057381235 0.04660547 0.017083151 0.048305374 0.021747652
0.041737586 -0.03991766 0.0052631614 0.049553927 0.037802305 -0.006644838 0.002698236 -0.028709892
0.027703047 -0.0578133 -0.018358715 0.076817796 0.036562525 -0.0069856304 0.0036321927 0.059427585
-0.009808663 0.04929733 0.00057083013 -0.007963573 0.10099301 0.023421692 0.007222043 0.09453613
-0.0068004034 0.04434222 -0.020592967 0.06719493 -0.010250401 0.026957612 0.047108673 -0.02043602
-0.035905782 0.042480756 -0.00976247 -0.014297389 0.030225582 -0.008793598 0.018415106 0.04700686
-0.009231205 -0.018785896 0.044395447 0.016146574 -0.005879298 0.0854951 -0.039573483 -0.010921106
-0.0070588365 -0.044401743 0.04862268 0.022963772 0.047950067 -0.009904015 -0.0008862257 0.06710852
-0.027909271 0.059734732 0.010976759 0.034199145 -0.00089899334 -0.018562503 0.006888271 0.07703371
0.07944065 -0.06195677 0.0142303975 0.12286621 -0.04053359 -0.00053341343 -0.02674011 0.047383945
-0.000677398 -0.010121913 -0.042150907 0.024231222 -0.0030025966 0.004210189 0.008876322 0.015665641
0.021632588 -0.031922925 -0.039493773 0.047466997 0.035695564 -0.011497705 0.03483463 0.089169286
0.08192175 0.011160445 0.044744 -0.019573173 0.05519776 0.030679204 0.025993671 0.016519072
0.056542754 0.016515214 0.032017726 0.06304338 0.05852287 0.07158088 0.047554534 -0.050519153
-0.0018053609 0.0056228144 -0.002217688 -0.04365473 -0.042088833 0.091003634 0.019279275 0.013653343
0.0037037325 0.07357605 0.012132915 0.029991612 -0.0006518158 -0.05493944 0.015102162 0.013677239
0.017909305 0.020664282 0.017567521 -0.036335684 0.0077501675 -0.026064284 0.033052616 -0.018547961
0.0201421 0.0824047 0.08795965 -0.008018849 0.009182735 0.035505604 -0.021385867 0.011969103
0.010507351 0.03019668 -0.042517826 -0.013310685 0.022985402 -0.023782207 0.08508861 -0.00047838673
0.031660333 -0.01935452 0.044732515 0.024325881 -0.008642798 0.057231028 0.090356775 0.049923174
-0.03623175 -0.0028108573 0.06146004 0.017591422 -0.022548676 -0.024021298 -0.05737871 0.034381356
0.04953942 -0.063303374 0.010732278 0.056931958 0.037746586 -0.05000306 0.05723463 0.025606468
-0.052141488 0.013790607 0.027293995 0.049671505 0.032881916 0.03940642 0.01226694 -0.010393966
0.0052716658 0.08675525 -0.03701114 0.025146712 -0.013615262 0.032444865 0.09167833 0.08970506
0.02777351 0.091829635 0.07289719 -0.036025807 0.069200374 0.06304587 -0.05667579 0.048899576
-0.012570687 0.07997564 0.05282751 -0.03857894 -0.04999855 0.06898977 -0.031909484 -0.056834266
0.0027393065 0.0057831523 -0.019158311 -0.026532823 0.032808203 -0.06158375 0.082817264 -0.008026092
0.043054644 0.055358745 0.02623041 -0.038438864 0.019264132 0.044856027 -0.0026677377 0.004581203
0.03031155 0.11823478 0.027923109 -0.01393899 0.091186024 -0.0570502 0.11421143 0.07901067
-0.049159553 0.081227966 0.054733768 -0.051213045 -0.042167753 0.041357916 0.03134856 0.027710468
0.04576494 0.10116341 0.022977233 0.059494633 0.040087633 0.047844537 0.033649657 0.01839657
-0.011521039 0.060222458 0.07162769 0.06170932 0.009066386 0.039806154 0.08061236 -0.01523251

log_std_layer.weight f4 [2, 256]
00000000: 80ff 3538 3eda e43b 97e3 153b 7a24 903b
00000010: 8f36 5e3b 257b 1f3c 04d3 fa3b cce6 ec3b
00000020: b5da 383b 6d69 063b eeef c33b 199c 843b
00000030: 9991 93ba dbcc 09bb b344 0e3c de2a 043b
00000040: fa71 343c cfcf 9bbb a085 8bb8 87e3 143c
00000050: 9a04 453c 5060 cd39 e58a 303b 93e4 543c
00000060: 9c4e b23b 78db 663a e462 0f3c 1fd5 093c
00000070: 8e5c 863c 8e5d d3bb 6802 a73a 4ec7 2d3c
00000080: 9bde a83a cfa4 bb3b 36e7 cf3b f91a c03b
00000090: 77ff f83b 8e5f 86ba 1d18 133c 50b3 1c3c
000000a0: 293f f93a f73c 253c d828 263c 0dcc f63b
000000b0: 231c 2d3c 7423 373c 7402 ec3b 90ec 0b3c
000000c0: f5c2 af3a 521e 943b 710c 3d3a 13a1 763b
000000d0: 767e 003b 8204 593c ce05 96ba 4d41 c7ba
000000e0: 7c5c 183c 0456 33bb bc3b 523c db8b 953b
000000f0: 3836 9d3a 5fe1 823c 28b2 3f3b b6d0 003b
00000100: fa1d 0dbb 5d5b 013c 5b63 0e3c 6022 083c
00000110: 08c6 333b e0af aa39 cbfd c139 6a68 173c
00000120: 1625 2b3c b86f ee3a 5452 323b 50b5 533d
00000130: b374 deba 2cdf 35b8 015e 413c 4374 cc3b
00000140: 9289 3a3b ecc3 9eba e850 8b3a 1de7 ff3b
00000150: 8129 c03a 007e 3fb9 829b 1d3c 66c7 debb
00000160: c16e 3d3b 0fd8 ab3b 8f40 a23b 91f7 933b
00000170: 07e9 7d3a 9fff 163b 68da 2bbb 927f d93b
00000180: f506 f93b d6fe 143b c642 393b dfb6 133c
00000190: 291a 2f3a 3a21 89b9 ac2f c03b 5b29 f73b
000001a0: ea1f 283c a2db 1cb9 811a 213c 0959 333c
000001b0: 1f64 9a3b 9fc1 4d3c e7ae b13b 7088 243a
000001c0: 7e65 953b 1f0d 123c 9c79 883a 1350 893a
000001d0: 84f7 a6bb 1040 a13c 2de6 fa3b 0f35 463b
000001e0: 55c7 0b3c a474 f23b 0b1d f2bb 80f7 273c
000001f0: 5d81 c43a d0d8 0d3b 677a f43b 1b81 493c
00000200: 9c73 8638 f0f0 163a 94c9 a03b 3fc8 e8bb
00000210: 02d8 fd3b 8c38 bb3b 1a78 2e3b 7d3d 46ba
00000220: 34fb 43ba da81 423c a2af 233c 94eb 143b
00000230: 6886 133c eff3 fd3c 3fb0 623b 50d5 153c
00000240: 0c95 ee3b 8252 1b3c ac88 d93b a12b 743b
00000250: f765 1c3c e9df f63b cf72 e03b 4c39 843b
00000260: 807f 0b3b f016 5939 fecf 2a3c fc19 3d3c
00000270: 3304 cd3b 25af 163c 8c6b 303c 5a4c 053c
00000280: 8858 81ba 525d 663a c2dc 9f3b ead3 fd3b
00000290: c8c0 9839 d676 b1ba f2fb 293a 1d32 683b
000002a0: 0998 d7b9 4f85 173b 74d5 433a 264f d53b
000002b0: 1cc9 c63a 865b 163b 0b4c 273c 249f 113b
000002c0: 2fba 033a fd4e 4e3c cf1a d33b e8cd ff3b
000002d0: 00e0 beb9 4bfb e13a 64fb 943b aabd 213c
000002e0: 000a 763a d573 d93c df75 1e3a 3d9f 2f3c
000002f0: 58c4 8d3a e639 16b9 7a22 443c ad40 363c
00000300: 68ab 593c ab82 7b3c 1cbb dc3b f32a 523b
00000310: 886d 1d3c 6052 e03b a0fc 56b9 f0bc 123c
00000320: 44d8 1b3b 9bf6 293c 89f1 1e3c f85a b83b
00000330: 54ad b23a 56bc 0b3c 6b7e c63b 0db0 bfb8
00000340: 6b47 293c 6aa2 2e3c 3863 a83b ed27 523b
00000350: b93b eb3b b9cd 38ba c38b 173c a971 b0b9
00000360: 62dd 883b 3022 903a 2dca ea3b 3257 023c
00000370: c0f5 2c3c 8856 2b3c 5da6 473c 565a a03b
00000380: d378 fc3b 252b bd3c 03c5 e83b e890 a73b
00000390: 7c31 183c cb22 3f3a 06a6 973c 0b9b b53b
000003a0: 8aa5 373a a1a3 283c 7576 fc3b e591 603b
000003b0: 5cd7 dd3a 20dd 1a3c 6523 1f3c a99a a1bb
000003c0: 370f 1d3b e4a3 d93c ccbe 1d3b 4a70 0b3c
000003d0: e6e1 413c d416 283a 9cf3 223c 2d9f 9dbb
000003e0: 13d2 453c 07c5 ea3b aed0 ff3b f208 c13b
000003f0: 9509 2c3c 3f8c de3b dc2f f33b 7d15 a13b
4.3391716e-05 0.0069840243 0.002287125 0.0043988796 0.0033907031 0.00973395 0.0076545496 0.0072296616
0.0028206531 0.0020509616 0.0059795296 0.0040469286 -0.0011258601 -0.0021026644 0.008683371 0.0020167152
0.011013502 -0.0047549973 -6.652926e-05 0.00908745 0.012025023 0.00039172405 0.0026938256 0.012993949
0.0054415 0.0008806507 0.008751605 0.008412628 0.016401555 -0.0064503616 0.0012741806 0.0106066
0.0012883724 0.005726434 0.006344701 0.0058625904 0.007598813 -0.0010251866 0.008977917 0.009564236
0.0019016016 0.010085336 0.010141574 0.007531649 0.01056579 0.011177886 0.007202441 0.008540288
0.0013409542 0.004520216 0.0007211632 0.0037632629 0.0019606627 0.013245704 -0.0011445822 -0.0015201956
0.009299394 -0.0027364502 0.012831625 0.004563791 0.0011994308 0.015976606 0.0029250477 0.0019655651
-0.002153276 0.007895318 0.00869068 0.008308977 0.0027431268 0.00032555964 0.0003700092 0.009241203
0.010445854 0.0018191254 0.0027209716 0.051686585 -0.0016972035 -4.3361608e-05 0.011802197 0.0062394454
0.0028463346 -0.0012112833 0.001062897 0.0078095333 0.0014660807 -0.00018262118 0.0096195955 -0.0067986725
0.0028905126 0.005244262 0.0049515436 0.004515596 0.0009685908 0.0023040546 -0.002622271 0.006637522
0.0075997063 0.0022734902 0.002826856 0.009015768 0.00066796184 -0.00026155432 0.005865058 0.0075427718
0.010261515 -0.00014959139 0.009832979 0.010946521 0.0047116424 0.01255837 0.0054224613 0.0006276434
0.004559218 0.008914261 0.0010412219 0.0010476134 -0.005095424 0.019683868 0.0076568336 0.0030244028
0.008531411 0.0073991586 -0.007388716 0.01025188 0.0014992167 0.0021644123 0.0074608806 0.012298848
6.411152e-05 0.00057579484 0.0049068425 -0.0071039493 0.0077466974 0.005713528 0.002662188 -0.0007562263
-0.0007476092 0.011871779 0.009990605 0.0022723423 0.009004213 0.031000106 0.0034589914 0.009145096
0.0072809514 0.009480121 0.006638607 0.003725745 0.009545795 0.0075340164 0.0068496238 0.0040351506
0.0021285713 0.00020703278 0.010425566 0.01154184 0.006256604 0.009197031 0.010767829 0.008135879
-0.0009868303 0.00087877095 0.0048786113 0.0077462094 0.00029135332 -0.0013539444 0.0006484381 0.003543026
-0.0004112127 0.002312023 0.00074704667 0.0065096794 0.0015166136 0.0022942736 0.010211001 0.00222201
0.0005024997 0.012592074 0.006442405 0.0078065284 -0.00036406517 0.0017241029 0.0045465697 0.00987188
0.00093856454 0.02654449 0.0006044786 0.010719118 0.0010815961 -0.00014326684 0.0119711105 0.011123818
0.013285495 0.015350978 0.0067361724 0.0032069057 0.009608634 0.0068457574 -0.0002050274 0.008956179
0.0023780027 0.010373737 0.009701141 0.0056260787 0.0013631978 0.0085287895 0.0060575507 -9.140382e-05
0.010331969 0.01065884 0.005138781 0.0032067255 0.0071787504 -0.0007049698 0.00924963 -0.0003365402
0.0041767815 0.0010996517 0.0071652145 0.007955359 0.010556638 0.010457642 0.01218566 0.0048935814
0.007704833 0.023091862 0.0071035638 0.0051137097 0.009289142 0.00072912563 0.018511783 0.005542164
0.0007005563 0.010292918 0.007704551 0.0034266647 0.0016925144 0.009452134 0.009713029 -0.004931767
0.0023965368 0.026567407 0.0024070023 0.0085106585 0.011833644 0.0006412093 0.009945776 -0.004810235
0.012074011 0.007164601 0.007806859 0.005890959 0.010500331 0.006791621 0.0074214768 0.0049158917

log_std_layer.bias f4 [2]
00000000: a5a5 9a3c f53a ae3c
0.018877814 0.021268347

mu_layer.weight f4 [2, 256]
00000000: e035 a9ba 18e9 83bc 9886 303b 90a9 5abc
00000010: ae97 a43a 7837 15bc d0e2 433b 6f0a 41bc
00000020: f08d 5fb9 5fca 3dbc 9e99 0cbc 6b8b 40bc
00000030: 2fc6 273a ab68 f23a f41b cbbb 796b 6ab9
00000040: ca01 35bc 3508 ea3b 54af b13a 9ce9 3cbc
00000050: fb70 1fbc 953a 3a3b 4d56 f3bc 5212 f2bb
00000060: 2b01 9bbb db03 a4ba 9212 94bc bf7f c7bb
00000070: e378 733c 045b 98ba de91 e13b a937 843c
00000080: d0bb d9ba f075 403c 026a c13a 3561 79bb
00000090: 2af4 e73b bbdb 9f3a 28a1 51bc 7143 443b
000000a0: cfc7 73bc 3247 d0ba 1567 ccbb b107 2fbd
000000b0: 5b8b 343c 9c1c 9bbc 0443 b5bb 5a0d 023c
000000c0: 1f8f 733b 3e21 04bc 393b 8f3c 343e b5bb
000000d0: a3db 84bc 74b0 1f3b 246d 433b 9cd9 fa3a
000000e0: 44e2 7bbc eb54 89ba 27b0 41bb abcd 7d3c
000000f0: a037 2dbb 3186 bdbc 383a 953b a4bb 1b3d
00000100: 1667 2a3b 0fcd babb 48e2 2dbb 28dd 13bc
00000110: 3f24 cdba 5c17 29bb 4870 c5ba 9ddb a0bb
00000120: a0a2 013c d8a7 12bb e094 b6ba e395 a93b
00000130: 5728 e73c 47a3 97ba 09ea 1c3c fead d8bb
00000140: d3d7 b3ba ad3f a93b a814 263a 7ce5 f8ba
00000150: 0853 61bb 2856 09bb 68c0 b83b 1840 b6bc
00000160: e030 653b a939 16bc 88b5 59bc 13e4 15bc
00000170: 64ef 8a3c 740b 50bb 06ac 41bb 3912 c63c
00000180: b28e 06bb 56de 12bc f03e 4dba 6916 093c
00000190: 7b18 fc3a eb15 88bb 38e0 be3b ae18 8ebc
000001a0: a52e 80bc 6f8c 903a 593c 29bc 4c6c 40b9
000001b0: 2246 57bc e6ce a2bc 4e2b fe3b cd02 3dbb
000001c0: 8a85 e53c 6662 ebbb 0508 72bc df0e 4638
000001d0: 3556 1e3d 1d3c c23c 1e9e bc3b 6260 0c3c
000001e0: 980a 9fbb acc8 01bb ea66 6c3c da30 7d3c
000001f0: 73de 35bc 243a 62ba 2a1b 32bc 80da 74bc
00000200: cf60 a639 b7f9 16bb 4859 1abc 0266 023d
00000210: eb2b 283c ed73 58bc 0089 fa37 07f9 7c3a
00000220: 689c 933a cfc4 f63b 6ce4 033b 17d0 943c
00000230: eb35 18bc 7663 4a3d 6b62 69bc db4d afbb
00000240: 68f8 c1bb 3c93 993b 3bcf 8aba bdcb 6abc
00000250: d82d 94bb 39e6 cfbb 27ef 7e3c 18a1 63bc
00000260: 11cc 60ba 9a8c 423c ee72 7538 729f fd3b
00000270: 307b 67bb 57c9 89bc d848 35bb 3071 8fbb
00000280: 929d f73b fb87 be3a e751 02bb eba9 03bc
00000290: e0c8 8ab9 f8ad 413b 3d92 8eba c895 cebb
000002a0: 0542 f7ba c3bd 49ba 2cb1 f13a af47 7cbc
000002b0: fc35 9f3a e86d 02bb f64f 91bc eb5f 47bb
000002c0: 0779 4f3b bcb8 cf3b 2c2e 40bc a860 1d3c
000002d0: d98b d8ba 30b2 663b 9511 b7bc 0b73 883b
000002e0: c46d 4b3a 8509 943c ddd2 df3a 1b99 58bb
000002f0: eeb8 6f3a 7a70 fe3c 7df5 05bc 2e7b 69bb
00000300: a6ca 2bbc 6364 70bc 7168 6cbb 6ff1 123b
00000310: c14a b0bb 74f8 2fbc e82e 053b aa7e b9ba
00000320: c8ff 44ba 4b15 b1bc 198f 0fbb 38ee 5dbc
00000330: e87e 5d3a 1497 f1bb a2d2 d4bb 1ae6 c0bb
00000340: a8c2 2fbb dc4e e1bb 2c41 073c c31e 93bc
00000350: e2d3 4fbc 5423 acbc b955 fc3b 022d bc3b
00000360: 7f53 1bbb 68fa 3a3d ac8c 57bc 00eb 903a
00000370: 2e20 6a3c 6053 4bba 52d0 a8bc cbbd 5fbc
00000380: 8f7f b2ba bb74 1cbc 2932 d3bb a5fe 313a
00000390: ac6d 71ba d584 853a 21d4 833d 98e4 553c
000003a0: e255 193b 2423 37bb 9f5a a53b 953a 97ba
000003b0: 6edd 3abb 23ca c0bb a01b cebb 8e90 573b
000003c0: 037b 86ba 4d0a e43a 3efb 203b 5fb9 ddbb
000003d0: 2976 90ba 40db b2b9 85fc 12bb a846 f73d
000003e0: 4707 4a3c eb9f 35bc 7399 f53b c8b4 5dbc
000003f0: fd65 99bc cd11 37bc d02c 8a3a 3a5a 8f3a
-0.0012909733 -0.016102359 0.0026935693 -0.013346091 0.0012557411 -0.009107463 0.002988983 -0.011782273
-0.00021319813 -0.011583894 -0.008581547 -0.01175199 0.0006400076 0.0018494328 -0.0061984006 -0.00022356016
-0.01104779 0.0071420916 0.001355628 -0.011530306 -0.0097315265 0.0028416265 -0.029704237 -0.007387438
-0.004730364 -0.0012513356 -0.018075261 -0.0060882266 0.014860365 -0.0011623804 0.006883844 0.016139822
-0.0016611759 0.0117468685 0.0014756324 -0.0038052325 0.007078667 0.0012196222 -0.01279477 0.0029947425
-0.014879181 -0.0015890358 -0.0062378743 -0.042731944 0.011019553 -0.01893454 -0.0055316705 0.007937754
0.0037164164 -0.008064566 0.017484294 -0.005531097 -0.016218012 0.002436665 0.0029819692 0.0019138339
-0.01537377 -0.0010477578 -0.0029554458 0.01549093 -0.002643086 -0.023135277 0.0045540594 0.038020745
0.0026001385 -0.0057007144 -0.002653258 -0.009024896 -0.0015651061 -0.0025801277 -0.001506337 -0.0049089924
0.007912308 -0.0022377875 -0.0013929866 0.0051753386 0.028217478 -0.0011569046 0.009577283 -0.0066125384
-0.0013720937 0.0051650614 0.00063354755 -0.001898929 -0.0034381766 -0.0020955894 0.005638171 -0.02224736
0.0034971759 -0.009169021 -0.013287909 -0.009148615 0.016959853 -0.0031745108 -0.0029551997 0.024178611
-0.002053183 -0.008964142 -0.0007829508 0.008367159 0.001923337 -0.0041530035 0.005825069 -0.017345753
-0.015647242 0.0011028181 -0.010329329 -0.0001835089 -0.01313928 -0.019874047 0.007756627 -0.002884078
0.028017778 -0.007183361 -0.01477242 4.722073e-05 0.038656432 0.023710305 0.0057561537 0.008567901
-0.004853558 -0.0019803448 0.0144288335 0.015453542 -0.011100399 -0.00086298794 -0.010870734 -0.014944673
0.00031734115 -0.0023037025 -0.0094207 0.031835563 0.010264377 -0.013211233 2.9866118e-05 0.0009650145
0.0011261823 0.0075307856 0.0020125164 0.018165631 -0.009290199 0.04941126 -0.014244656 -0.0053498573
-0.005919505 0.004686741 -0.0010590324 -0.014330802 -0.0045220666 -0.0063445834 0.015559948 -0.013893388
-0.000857533 0.011874342 5.851959e-05 0.0077399546 -0.0035321228 -0.01681964 -0.0027661826 -0.0043775067
0.0075566256 0.0014536375 -0.0019885243 -0.008036117 -0.00026471075 0.0029553156 -0.0010877323 -0.0063044764
-0.001886428 -0.0007695818 0.0018439642 -0.01539795 0.0012146826 -0.0019901935 -0.017738324 -0.0030422162
0.0031657831 0.0063391607 -0.011729758 0.009605564 -0.001652117 0.0035201423 -0.022347251 0.004164105
0.0007760192 0.018070946 0.0017076392 -0.0033050242 0.0009144683 0.031059492 -0.008176205 -0.00356264
-0.010485327 -0.014672372 -0.0036072994 0.0022421738 -0.005380005 -0.010740388 0.0020322148 -0.0014152129
-0.0007514921 -0.021616599 -0.0021905361 -0.013545565 0.00084493915 -0.0073727462 -0.006494836 -0.0058868052
-0.0026818905 -0.006875856 0.008255284 -0.017959004 -0.012684794 -0.02101294 0.0077006486 0.00574267
-0.002370089 0.045648962 -0.013156097 0.0011056364 0.014289899 -0.00077562593 -0.020607147 -0.01365609
-0.0013618338 -0.009549315 -0.0064451885 0.0006789959 -0.0009209763 0.0010186682 0.06436945 0.013054989
0.0023397137 -0.002794453 0.0050462033 -0.0011537845 -0.002851333 -0.0058834716 -0.0062899143 0.0032892558
-0.0010260049 0.0017398089 0.0024563815 -0.0067664827 -0.0011021543 -0.0003411416 -0.0022428345 0.120740235
0.012330837 -0.011085491 0.007495099 -0.013531871 -0.01872539 -0.011173678 0.001054192 0.0010936924

mu_layer.bias f4 [2]
00000000: 59f3 52bb 0c10 0abc
-0.0032188504 -0.008426677
