model_weight/mactor.pt (torch_old, 294205 bytes, 8 tensors)

hidden1.weight f4 [256, 24]
0	0x3e11f4ac	0.14253491
1	0x3e717576	0.23579964
2	0xbd462f5e	-0.048385017
3	0xbdc387c1	-0.095473774
4	0xbeeba746	-0.46026057
5	0xbdcbfbe3	-0.09960153
6	0x3e05b958	0.13058984
7	0xbdc10813	-0.09425368
8	0x3e735fe8	0.23767054
9	0x3e6652ef	0.22492574
10	0x3dbe910e	0.09305011
11	0xbe7a16b8	-0.24422729
12	0xbf27a357	-0.6548361
13	0xbe0d5ef4	-0.13805753
14	0xbdc256ae	-0.09489189
15	0x3c7b3763	0.015333029
16	0x3eca2803	0.39483652
17	0xbd6e6e25	-0.05821051
18	0x3dcb5899	0.09929008
19	0x3d7e3059	0.062057827
20	0xbe989470	-0.2980075
21	0x3d849f33	0.06475677
22	0xbd466723	-0.048438203
23	0x3dd0d09c	0.10196039
24	0xbd950f19	-0.0727827
25	0xbe8ea8df	-0.27863213
26	0xbdc347c7	-0.09535175
27	0xbdf3a120	-0.118959665
28	0xbd3b7ea2	-0.045775063
29	0x3d15c522	0.036564954
30	0xbb04fd51	-0.002029259
31	0x3d9eec66	0.07759933
32	0x3d18ee1b	0.03733645
33	0xbe376e91	-0.17913271
34	0xbe3301b6	-0.17481121
35	0xbe8b00e5	-0.2714912
36	0x3e02d8c5	0.12778004
37	0x3dfc5cf6	0.123224184
38	0x3ddc5a9a	0.107594684
39	0xbe13b222	-0.14423421
40	0x3e13f58e	0.1444914
41	0xbd4d1a18	-0.050073713
42	0xbe343102	-0.1759682
43	0xbe10299c	-0.14078373
44	0xbe44e780	-0.19228935
45	0xbe4ad391	-0.19807269
46	0x3d4b9b0a	0.049708404
47	0x3daa44a6	0.08313875
48	0xbcb1552b	-0.021647057
49	0xbe46c035	-0.19409259
50	0xbe435765	-0.19076307
51	0x3e3f4863	0.18679957
52	0x3d56dded	0.05245774
53	0xbec4c785	-0.3843347
54	0x3e2515b3	0.16121559
55	0x3c1eb888	0.00968755
56	0x3de315ad	0.11088119
57	0x3d1efefe	0.0388174
58	0xbd356801	-0.04428864
59	0xbd8be292	-0.06830324
60	0x3d0421e3	0.03225888
61	0xbe93f392	-0.28896767
62	0xbd1055dd	-0.035238136
63	0x3dbbfd04	0.09179118
64	0x3e683ea7	0.2268015
65	0xbe7e6f0b	-0.24847047
66	0xbe5716e4	-0.21004826
67	0xbc4212a4	-0.011845265
68	0x3e2d52a3	0.16926055
69	0xbe7adad1	-0.24497534
70	0x3e375904	0.1790505
71	0x3db26175	0.08709995
72	0xbe005ff5	-0.12536605
73	0x3e8b3613	0.27189693
74	0x3cb62e97	0.022239013
75	0x3d3b7beb	0.045772474
76	0xbdfcbd08	-0.12340742
77	0xbeb8c434	-0.3608719
78	0x3e1ed7aa	0.15511957
79	0xbe52c3ab	-0.20582454
80	0xbdc3b9fb	-0.09556957
81	0x3d40a7ea	0.047035135
82	0x3e19fe66	0.15038452
83	0x3d7ea291	0.062166754
84	0xbe69fa08	-0.22849286
85	0xbe609de0	-0.21935225
86	0xbe161830	-0.14657664
87	0xbe506bea	-0.20353666
88	0x3e30fc31	0.17283703
89	0x3e5a1ccd	0.21300049
90	0x3c757890	0.014982358
91	0xbda8a0f8	-0.08233827
92	0x3e5ab595	0.2135833
93	0x3d6f2e48	0.058393747
94	0xbb8e6515	-0.004345546
95	0xbd8e3704	-0.06944087
96	0xbce85e9e	-0.02836543
97	0x3d396b5f	0.045268413
98	0xbc33148c	-0.010930192
99	0x3d3085fd	0.04309653
100	0xbe58b809	-0.21163954
101	0xbe36af33	-0.1784027
102	0xbc8f51a7	-0.01749499
103	0xbe9009a9	-0.2813237
104	0xbdd3d373	-0.10343065
105	0xbd355200	-0.044267654
106	0x3c49550b	0.012288342
107	0xbdf8578e	-0.12126075
108	0x3d1d3707	0.038382556
109	0xbe740068	-0.2382828
110	0x3d01fbf7	0.031734433
111	0xbe631213	-0.22174864
112	0x3e821477	0.25406238
113	0x3c767917	0.0150435185
114	0x3db553a4	0.08853844
115	0xbdcdd959	-0.100512214
116	0x3e84ec65	0.25961605
117	0x3d90e1ed	0.07074342
118	0xbc072231	-0.008247898
119	0x3cd79f58	0.026321098
120	0xbb17e395	-0.002317642
121	0x3ed499ae	0.41523498
122	0xbd3a7007	-0.045516994
123	0xbd53e775	-0.051734407
124	0x3db7c3ac	0.08972868
125	0x3da1db0d	0.07903109
126	0x3d3ce317	0.046115007
127	0x3cefc939	0.029270755
128	0xbd016828	-0.03159347
129	0x3ecf1419	0.4044502
130	0xbd7b45fa	-0.06134603
131	0x3df462bd	0.11932895
132	0x3d4b7049	0.04966763
133	0xbe42428b	-0.18970697
134	0x3c0edf72	0.008720266
135	0x3d8d2ccf	0.06893312
136	0x3d97bb82	0.07408811
137	0x3e5eb552	0.21748856
138	0xbd87f583	-0.066386245
139	0xbe002ac4	-0.12516314
140	0xbdedc6eb	-0.11610206
141	0xbebdd29e	-0.3707475
142	0x3c14d9fc	0.009085175
143	0xbd00bc35	-0.03142949
144	0xbdb22866	-0.08699112
145	0xbe1919ec	-0.14951295
146	0x3d5f10ee	0.054459505
147	0xbe054235	-0.13013537
148	0xbe1fe2e8	-0.15613902
149	0x3e090c47	0.1338359
150	0xbdcb3395	-0.09921948
151	0x3e3c3dc9	0.18382944
152	0x3dd3671d	0.10322402
153	0x3dafe855	0.08589236
154	0x3dbf56b7	0.093427114
155	0x3e870bd1	0.26376203
156	0x3d93c3a6	0.07215051
157	0xbd82af66	-0.06381111
158	0xbd568d9e	-0.05238115
159	0x3e84b487	0.2591898
160	0x3de7f01d	0.11325095
161	0x3ea7bce7	0.3276131
162	0xbcda61fe	-0.026658054
163	0x3ec2b4bc	0.38028514
164	0xbe57f497	-0.21089397
165	0xbec0c1dd	-0.37647906
166	0x3dbd2ded	0.09237275
167	0x3e30a583	0.17250638
168	0xbe1dfa34	-0.15427476
169	0x3e74229c	0.23841327
170	0xbd8199ad	-0.063281395
171	0xbe51aec6	-0.20476827
172	0xbe2c3eb6	-0.16820797
173	0xbe8ece62	-0.27891833
174	0xbbcad31a	-0.006189716
175	0xbcaba510	-0.020952731
176	0xbd919c84	-0.07109931
177	0x3e0fa67e	0.14028355
178	0xbc9a3d8a	-0.018828172
179	0xbd1a5e79	-0.037687752
180	0xbcd16abc	-0.02556359
181	0xbe85c230	-0.26124716
182	0xbdeed408	-0.116615355
183	0xbe4bc580	-0.19899559
184	0x3e143b57	0.14475761
185	0x3ccbf11e	0.024895247
186	0x3cca25d4	0.024676241
187	0xbe0de28c	-0.13855952
188	0x3e144cb4	0.14482385
189	0xbe89d816	-0.26922673
190	0x3d9b4bd4	0.075828224
191	0xbd10e129	-0.03537098
192	0xbddcb371	-0.10776413
193	0x3d7c2b75	0.06156488
194	0xbd8620dd	-0.06549237
195	0xbe6c5248	-0.23078263
196	0xbd713ee1	-0.058897857
197	0xbe2b9c6c	-0.16758889
198	0xbe168ed1	-0.14702918
199	0xbddf95e9	-0.10917265
200	0x3d1eb522	0.03874696
201	0xbd4196ef	-0.047263082
202	0x3d8414ca	0.06449278
203	0xbdc3e6be	-0.09565495
204	0xbd30b7a2	-0.043143876
205	0xbe21c1df	-0.15796612
206	0xbe221469	-0.15828098
207	0x3d19ba32	0.037531085
208	0x3e5815d9	0.21102084
209	0xbe177920	-0.147923
210	0x3c444170	0.011978492
211	0xbe1f04b1	-0.15529133
212	0xbe32fec3	-0.17479996
213	0xbdeb98b3	-0.115037344
214	0xbde109f9	-0.1098823
215	0xbce2ad56	-0.027670544
216	0x3e42d489	0.19026388
217	0x3e6c6020	0.23083544
218	0xbe40a2a2	-0.1881204
219	0xbe215723	-0.15755896
220	0x3e53fc8e	0.2070181
221	0x3c6dce40	0.014514506
222	0x3ca8d068	0.020607188
223	0x3df1aca2	0.11800505
224	0x3df12072	0.117737666
225	0x3dd644cb	0.1046234
226	0xbd8859e7	-0.066577725
227	0xbe13894e	-0.14407846
228	0x3dd56b94	0.104209095
229	0xbe86dd54	-0.26340735
230	0x3db93ad1	0.090444215
231	0xbe68be8c	-0.22728938
232	0xbd910ce0	-0.07082534
233	0xbdb885c1	-0.090098865
234	0xbdc34f95	-0.095366634
235	0xbd067665	-0.032827754
236	0xbdd1e316	-0.10248391
237	0xbe5f68f3	-0.21817379
238	0xbcc04598	-0.023470685
239	0xbe6c646d	-0.23085184
240	0x3dcf756c	0.10129818
241	0x3eeefa0f	0.46675155
242	0xbe207285	-0.15668686
243	0x3e174a2a	0.14774385
244	0x3e8bee11	0.27330068
245	0x3e6bc003	0.23022465
246	0x3d84988b	0.06474408
247	0x3dce319e	0.100680575
248	0xbe283d98	-0.16429746
249	0x3edcb829	0.43109253
250	0xbd2525d8	-0.040319294
251	0x3e3f43de	0.18678233
252	0x3a17a753	0.0005785126
253	0x3e375399	0.17902984
254	0x3d6004de	0.05469214
255	0xbd091380	-0.033465862

hidden1.bias f4 [256]
0	0xbc05e51a	-0.008172298
1	0x3eeb22eb	0.45925078
2	0x3e9974ea	0.2997201
3	0x3d82a038	0.063782156
4	0xbea72cf7	-0.32651493
5	0x3f0abac8	0.54191256
6	0x3ebecf4a	0.37267524
7	0xbebb12d6	-0.36537808
8	0x3df81bd2	0.12114681
9	0xbea2908a	-0.317509
10	0x3eb94819	0.3618782
11	0xbe2e9677	-0.17049585
12	0xbe83add8	-0.2571857
13	0x3e5760a7	0.21032964
14	0x3e0f6537	0.14003454
15	0x3d141ba8	0.036159188
16	0x3e6f1fd8	0.23351991
17	0x3e4d4a53	0.20047884
18	0x3eb2c116	0.34912938
19	0x3d632c29	0.055462036
20	0xbe9dc94f	-0.3081765
21	0x3e0a7952	0.13522843
22	0xbd42b8e9	-0.047539625
23	0xbd5458c6	-0.051842473
24	0x3e186ddd	0.1488566
25	0xbda47e42	-0.08031894
26	0x3bf300fc	0.007415889
27	0x3c89ff91	0.016845496
28	0x3c8dfb0f	0.017331628
29	0xbe08fe3c	-0.13378233
30	0x3eb7aa6f	0.35872218
31	0x3d77161b	0.060323816
32	0x3eb796b5	0.35857168
33	0xbec68b3f	-0.3877811
34	0xbe53de31	-0.20690228
35	0x3e29d9f9	0.16587056
36	0xbdd4d696	-0.103924915
37	0xbdf8d0b0	-0.12149179
38	0x3dc03f07	0.093870215
39	0x3ec65aac	0.38741052
40	0xbe57c1aa	-0.2106997
41	0x3ec45be5	0.3835136
42	0x3e9aa962	0.30207354
43	0x3ed557b4	0.41668475
44	0xbe95fb8d	-0.2929348
45	0x3e2e1737	0.17001043
46	0x3e21757f	0.15767477
47	0xbe935e1c	-0.28782737
48	0xbbaff3f1	-0.0053696563
49	0x3e849036	0.25891274
50	0xbe5bf4aa	-0.2148005
51	0xbe56b875	-0.20968802
52	0xbdf1634a	-0.11786516
53	0xbe362d19	-0.17790641
54	0xbb6d3042	-0.0036192094
55	0xbef22eb7	-0.47301266
56	0xbccc87ba	-0.024967063
57	0xbe9f1fa0	-0.31078815
58	0xbc871783	-0.016490703
59	0xbe308b68	-0.1724068
60	0xbe380de5	-0.1797405
61	0x3e191d3b	0.14952557
62	0x3e91e85d	0.28497592
63	0xbe7b5f91	-0.24548174
64	0x3d2ac008	0.04168704
65	0x3e58478f	0.21121047
66	0xbe2cd58f	-0.16878341
67	0xbe472b39	-0.19450082
68	0x3e1b22d0	0.15149999
69	0x3df0ad3f	0.11751794
70	0x3e6b0d90	0.22954392
71	0x3dd007f0	0.10157764
72	0x3e5776b3	0.21041374
73	0xbdb83354	-0.08994165
74	0x3e0a6f2f	0.13518976
75	0xbee4e8ae	-0.4470877
76	0xbec2a4b3	-0.3801628
77	0x3cae10e6	0.021248292
78	0xbd2f7a27	-0.042841103
79	0xbe25ed8e	-0.16203901
80	0x3e3f6b26	0.18693218
81	0xbd8fa806	-0.0701447
82	0xbebeedaf	-0.37290713
83	0xbd62d48f	-0.055378493
84	0x3e1ca538	0.15297401
85	0x3eb2dd59	0.349345
86	0x3eb331bf	0.3499889
87	0xbda04ebe	-0.07827519
88	0xbd8f8702	-0.070081726
89	0x3e76a133	0.2408493
90	0xbe137722	-0.14400914
91	0xbe9abf79	-0.30224207
92	0x3b9c749c	0.004774643
93	0x3e441be6	0.19151267
94	0xbec0e025	-0.3767101
95	0xbe7c6f87	-0.2465192
96	0x3cd8cec8	0.026465788
97	0xbea5cf88	-0.32384896
98	0xbe41e7b8	-0.1893605
99	0x3e722264	0.23645931
100	0x3e2633e6	0.16230735
101	0x3ee102ff	0.43947598
102	0x3e6ff712	0.23434094
103	0xbdb4592a	-0.08806069
104	0x3dee3dc7	0.11632877
105	0xbd2c0d9b	-0.042005163
106	0xbd4a341b	-0.049366098
107	0xbefd7abd	-0.49507704
108	0x3e894471	0.2681003
109	0xbdb42543	-0.087961696
110	0x3e8562fa	0.26052076
111	0xbe9621ec	-0.29322755
112	0xbe8d8820	-0.27642918
113	0xbe49e159	-0.1971487
114	0xbe7afd86	-0.24510774
115	0xbe3a1b5e	-0.18174502
116	0x3dddc96e	0.10829435
117	0x3db5a23d	0.08868835
118	0xbd1c4e64	-0.038160697
119	0xbd968b01	-0.07350732
120	0xbe1cf963	-0.15329508
121	0x3eda140d	0.42593423
122	0xbe9f914a	-0.31165534
123	0x3e9923cb	0.2991012
124	0x3e726192	0.23670033
125	0x3e9124e2	0.28348452
126	0x3e75a143	0.23987298
127	0x3e5715b7	0.21004377
128	0x3e4bf9c9	0.19919504
129	0xbe11e869	-0.14248814
130	0x3e387a62	0.18015435
131	0x3e01a37e	0.12660024
132	0x3ea0b6a1	0.31389335
133	0xbe068d4e	-0.13139841
134	0x3d0d0248	0.034426004
135	0xbd89b3d2	-0.06723751
136	0x3eccb14b	0.39979014
137	0x3e731892	0.23739842
138	0xbe8cefa6	-0.27526587
139	0x3d93594d	0.07194767
140	0xbe824107	-0.25440237
141	0x3e33cd93	0.17558889
142	0xbdb3f596	-0.08787076
143	0xbe1c1b03	-0.15244679
144	0xbe57a17d	-0.21057697
145	0xbe436f61	-0.19085456
146	0x3dc43adb	0.09581538
147	0xbea70256	-0.3261897
148	0x3c1b39c4	0.009474222
149	0xbcc3782f	-0.023861019
150	0xbd8f2275	-0.06988994
151	0xbee4d43c	-0.44693172
152	0xbdc6b5f7	-0.09702676
153	0x3e62a489	0.22133078
154	0xbe6b79e8	-0.22995722
155	0x3e4e424c	0.20142478
156	0x3c8526cb	0.01625385
157	0x3df7d116	0.12100427
158	0xbed26227	-0.4109051
159	0xbcfa74cc	-0.030573271
160	0xbcbeda10	-0.02329734
161	0xbe07c726	-0.13259563
162	0x3daae318	0.08344096
163	0xbed9bee1	-0.42528442
164	0xbeaaf74b	-0.33391795
165	0x3eb62aab	0.35579428
166	0x3e667590	0.22505784
167	0x3e681b98	0.22666776
168	0xbe80e08e	-0.25171322
169	0xbec5cbac	-0.38631952
170	0x3eb020c7	0.34400007
171	0xbcca91ed	-0.024727786
172	0xbdc4066d	-0.09571538
173	0xbe921838	-0.28534102
174	0xbe776e83	-0.2416325
175	0x3ec60e95	0.38683
176	0x3ebbd94d	0.36689225
177	0xbe049485	-0.1294728
178	0x3e90b2f4	0.2826153
179	0x3ca8f281	0.020623447
180	0xbea7c075	-0.3276402
181	0xbd62f073	-0.05540509
182	0x3bf50bb5	0.007478202
183	0x3e8db044	0.27673542
184	0x3e11fb59	0.14256038
185	0x3e04fd40	0.12987232
186	0xbd833519	-0.06406612
187	0x3ea20724	0.31646073
188	0x3db8c6bf	0.09022283
189	0xbca1b92a	-0.019741613
190	0x3e48b2c8	0.1959945
191	0xbda82743	-0.082106136
192	0x3e428cf1	0.18999077
193	0xbcf89473	-0.030344224
194	0xbeb1c23e	-0.34718508
195	0x3e6095fc	0.21932214
196	0x3e802e13	0.25035152
197	0x3e585ab8	0.21128356
198	0x3e2e1f96	0.17004237
199	0x3dc7fa64	0.09764555
200	0x3e1c5cda	0.15269795
201	0xbe97a05d	-0.29614535
202	0x3cbad923	0.022808617
203	0x3e0aa587	0.13539706
204	0xbda0e3cc	-0.07855949
205	0xbc839cc1	-0.016065957
206	0xbe37e1c4	-0.17957217
207	0xbd8a0862	-0.0673988
208	0xbd02ee1e	-0.031965367
209	0xbdc1a6ce	-0.094556436
210	0x3e3c4819	0.18386878
211	0x3ec2e23d	0.3806323
212	0x3e548d3b	0.20757
213	0x3e22afb0	0.15887332
214	0xbe5e2868	-0.21695101
215	0xbeb51dcf	-0.35374305
216	0xbef7345f	-0.48282143
217	0x3beb545a	0.0071816863
218	0xbe828918	-0.2549522
219	0xbea8f3da	-0.32998544
220	0xbe416545	-0.18886288
221	0xbe2686b1	-0.16262318
222	0xbe04b732	-0.12960508
223	0x3e5ae325	0.21375711
224	0x3ece3517	0.4027488
225	0xbd67ba93	-0.056574415
226	0xbba3736c	-0.0049881246
227	0xbea5c675	-0.32377973
228	0xbea6a008	-0.3254397
229	0xbe0b2f49	-0.13592257
230	0x3cd4dbbd	0.025983686
231	0x3ece078f	0.40240142
232	0xbeb6ab81	-0.35677722
233	0x3df263f4	0.11835471
234	0x3d972419	0.07379932
235	0xbd713d1b	-0.058896165
236	0xbf026916	-0.509416
237	0x3ec08773	0.3760334
238	0xbed5a843	-0.41729936
239	0x3ea99a98	0.33125758
240	0xbeb151a9	-0.34632614
241	0xbe83f2d8	-0.25771213
242	0x3dc2dbf5	0.0951461
243	0xbe49cc53	-0.1970685
244	0x3e701dcc	0.23448867
245	0xbd599b8d	-0.05312686
246	0xbeef4692	-0.46733528
247	0x3e7fcf0f	0.2498133
248	0xbed93628	-0.4242413
249	0xbe92c851	-0.28668454
250	0xbc2dec5d	-0.010615435
251	0x3d16940d	0.036762286
252	0x3d01473a	0.031562068
253	0x3eb6a02a	0.3566907
254	0xbe4e2127	-0.20129834
255	0xbb8273cf	-0.0039810906

hidden2.weight f4 [256, 256]
0	0x3d440f78	0.047866315
1	0x3d4b738a	0.049670734
2	0x3c46aa03	0.012125495
3	0x3d8ade0a	0.06780632
4	0x3cabca3c	0.020970456
5	0x3e0df10e	0.13861486
6	0x3d81ae02	0.063320175
7	0xbde2503c	-0.1105046
8	0xbb3ab1ae	-0.0028487253
9	0x3d856951	0.06514228
10	0x3cc98b82	0.024602655
11	0x3ab10002	0.0013504031
12	0x3da6f762	0.08152653
13	0xbcafd944	-0.021465905
14	0xbd04e00e	-0.032440238
15	0xbd8d5ac6	-0.06902079
16	0x3c36ec7b	0.01116478
17	0x3c212311	0.009835021
18	0xbd62339c	-0.055225
19	0xbd961359	-0.07327909
20	0xbba0f36e	-0.0049118316
21	0x3d88f7be	0.06687878
22	0x3d070fe2	0.03297413
23	0x3c898981	0.0167892
24	0x3be6814b	0.007034456
25	0xbd7e222f	-0.06204432
26	0xbd8d5c9c	-0.069024295
27	0xbd06361c	-0.032766446
28	0xbd11436f	-0.0354647
29	0xbccf2e9e	-0.025290783
30	0x3da117bb	0.07865854
31	0xbbbe7f98	-0.00581355
32	0xbd4996bc	-0.049216017
33	0xbafbb617	-0.0019204047
34	0xbd0a6d89	-0.033795867
35	0xbd1b0dbc	-0.037854895
36	0x3d52a17c	0.051423535
37	0xbd6c2f9a	-0.057662584
38	0x3cf1004c	0.029419087
39	0xbd75bfb6	-0.059997283
40	0xbd90bea6	-0.07067613
41	0xbd372cc7	-0.044720437
42	0xbcf89585	-0.030344734
43	0xbd0278af	-0.031853374
44	0xbd9323da	-0.071845725
45	0xbd67c95c	-0.056588516
46	0xbd1ce33f	-0.038302656
47	0xbd4765eb	-0.04868118
48	0x3c8b5e81	0.017012836
49	0x3d500a52	0.050791092
50	0xbd1e80ae	-0.038696937
51	0x3da1afa9	0.07894833
52	0x3baf8b72	0.0053571993
53	0xbd831e79	-0.064022966
54	0xbc8693cb	-0.016427895
55	0xbd46b3ec	-0.04851143
56	0xbbc2e0b1	-0.0059471955
57	0x3bb6b4f5	0.005575771
58	0x3d8f8201	0.07007218
59	0xbcbceacf	-0.023061184
60	0x3d357fa2	0.044311173
61	0xbd4a04ed	-0.049321104
62	0x3bb4b3d3	0.005514601
63	0xbc09d0cc	-0.008411597
64	0x3d325233	0.043535423
65	0xbd9db33d	-0.077002026
66	0xbd088d74	-0.033338025
67	0xbbdecbdd	-0.0067992047
68	0x3b4ebd33	0.0031545877
69	0xbcf1fb8f	-0.029538898
70	0xbaddb2bc	-0.0016914229
71	0xbca47926	-0.0200773
72	0x3d888c5d	0.06667397
73	0xbd1a8cb7	-0.037731852
74	0xbcfe056a	-0.031008441
75	0xbc86242a	-0.016374666
76	0xbcc09cbf	-0.023512242
77	0x3d208c4c	0.039196298
78	0xbd231764	-0.03981723
79	0xbbd8a437	-0.006611373
80	0x3bd1507d	0.006387769
81	0xb9db944d	-0.00041881428
82	0x3cb62a85	0.022237072
83	0xbd00b10e	-0.031418853
84	0xbd425d69	-0.047452364
85	0x3c4c5df3	0.012473571
86	0xbc871ef1	-0.016494246
87	0xbd36ad26	-0.04459872
88	0x3d075f10	0.033049643
89	0x3c6ce46b	0.014458756
90	0xbc3fff02	-0.011718513
91	0xbd5a2e80	-0.053267002
92	0x3c2f48ff	0.010698556
93	0xbd225013	-0.039627146
94	0x3cc47406	0.023981106
95	0xbd465d70	-0.048428953
96	0x3a1d6dfa	0.00060054625
97	0x3cc198c1	0.023632409
98	0xbde5f6e1	-0.11228729
99	0xbcebb9c1	-0.028775098
100	0xbd1bf6fc	-0.03807734
101	0x3d19bb5b	0.03753219
102	0x3df6cc74	0.12050715
103	0xbd3db500	-0.046315193
104	0xbcbc7673	-0.0230057
105	0x3d7544aa	0.059879936
106	0xbcec2118	-0.028824374
107	0xbd703eba	-0.05865357
108	0x3c96985a	0.018383194
109	0x3cb6667b	0.022265663
110	0x3c4af2e0	0.0123870075
111	0xbd4150aa	-0.047196068
112	0x3dbacb1a	0.0912077
113	0xbd9550cb	-0.07290801
114	0x3c50968a	0.012731204
115	0x3b20d351	0.0024540017
116	0xbcdeee38	-0.0272132
117	0xbc85fa29	-0.016354637
118	0x3c2b23d8	0.010445558
119	0xbc565780	-0.013082385
120	0x3cf44ae9	0.029820876
121	0xbce9c300	-0.028535366
122	0xbe053f85	-0.13012512
123	0xbcd802e8	-0.026368573
124	0xbd8eb120	-0.06967378
125	0xbd1c79c1	-0.03820205
126	0xba6e59d2	-0.0009092364
127	0x3bd4f6d7	0.006499152
128	0xbdd320f3	-0.10309019
129	0xbcf26ded	-0.029593432
130	0x3cbf2168	0.023331359
131	0xbce1cd06	-0.027563583
132	0x3d8cdd50	0.068781495
133	0x3d9e3628	0.07725173
134	0x3b417f7b	0.0029525447
135	0xbb0c8bca	-0.0021445625
136	0xbd31fb22	-0.04345239
137	0xbbd4f74e	-0.0064992076
138	0xbd088890	-0.03333336
139	0x3c9a71ad	0.018853033
140	0xbd4b0a8c	-0.049570605
141	0xbdc83d4b	-0.09777316
142	0xbd965f94	-0.07342449
143	0xbd00f9e7	-0.031488325
144	0x3a2dd903	0.00066317635
145	0xbc4e5d51	-0.012595491
146	0xbd7f827f	-0.06238031
147	0x3d0f06fd	0.034918774
148	0x3b9e59c1	0.004832477
149	0xbd81acc8	-0.063317835
150	0xbd0e849e	-0.034794442
151	0x3c41be65	0.011825179
152	0xbcad5656	-0.021159332
153	0xbda8c8e4	-0.08241442
154	0xbdae5356	-0.08511989
155	0x3a8864e7	0.0010406048
156	0xbc86383c	-0.016384237
157	0xbd0728fc	-0.03299807
158	0xbd8eb372	-0.0696782
159	0xbca494dc	-0.020090513
160	0x3d03e21a	0.03219805
161	0x3d8bbc2e	0.06823002
162	0xbd8228d9	-0.06355447
163	0xbdce86d0	-0.10084307
164	0x3d405782	0.046958454
165	0xbdb8b92b	-0.09019693
166	0x3bddbe4f	0.0067670713
167	0xbd692b4e	-0.056926064
168	0xbd13f6bc	-0.036123976
169	0xbc6a3d33	-0.014296818
170	0xbd0b1755	-0.033957798
171	0xbdf0c7e2	-0.117568746
172	0xbca87e2f	-0.020567982
173	0xbd36fcf0	-0.044674814
174	0xba904752	-0.0011007583
175	0xbd4e6f27	-0.050398972
176	0x3dee5f87	0.11639314
177	0xbdbde3e5	-0.09271983
178	0xbdd88185	-0.10571579
179	0xbc87f084	-0.016594179
180	0xbcd36eff	-0.025809763
181	0x3d6cb920	0.057793736
182	0xbd4dda2d	-0.050256897
183	0xbc289cba	-0.010291273
184	0xbce0ecdb	-0.027456691
185	0xbd255746	-0.040366434
186	0x3b0c8e5d	0.002144716
187	0x3d947927	0.072496705
188	0xbd624eef	-0.05525106
189	0xbd3c1db5	-0.04592677
190	0x3d2c79a7	0.042108204
191	0x3ce2222d	0.027604187
192	0xbda18d1c	-0.078882426
193	0xbdcbebda	-0.099570945
194	0xbd677d3f	-0.05651593
195	0xbbaafb58	-0.005217951
196	0xbc265d4c	-0.01015408
197	0x3d0b4d57	0.034009304
198	0x3d8f9b45	0.07012037
199	0xbdcf758f	-0.101298444
200	0xbcb04f46	-0.021522176
201	0xbc807598	-0.015681073
202	0xbdb3a8bd	-0.08772419
203	0xbbc141e2	-0.0058977464
204	0xbbe4c9d0	-0.0069820657
205	0x3d2de3ee	0.0424537
206	0xbe0ad35e	-0.13557193
207	0xbd07b39c	-0.033130273
208	0xbd595555	-0.053059895
209	0xbdc6d751	-0.09709037
210	0x3bc4994f	0.005999721
211	0xbca22c92	-0.019796643
212	0xbc9b5b45	-0.01896442
213	0x3d17fa30	0.03710383
214	0x3c74aed1	0.014934258
215	0xbcd741ed	-0.026276553
216	0xbcaaaa78	-0.020833239
217	0xbd3683c7	-0.044559266
218	0x3bcefef5	0.0063170143
219	0xbdd67f02	-0.104734436
220	0x3bd83641	0.0065982644
221	0x3b77592b	0.0037742357
222	0xbd4e75f7	-0.05040547
223	0xbcac34c3	-0.021021252
224	0xba2ec4e7	-0.0006666914
225	0x3b8b0a7e	0.004243194
226	0xbcc5a829	-0.024128037
227	0xbdda60fa	-0.10663028
228	0xbd857e26	-0.065182015
229	0x3db2b073	0.08725061
230	0x3cc5dd99	0.024153518
231	0x3d03c494	0.032169893
232	0xbcb44ac5	-0.02200831
233	0xbdcc0fac	-0.09963927
234	0x3d9b9a81	0.07597829
235	0x3d45c278	0.048281163
236	0xbd88a300	-0.06671715
237	0x3cd1480b	0.025547048
238	0xbdfad16b	-0.122469746
239	0xbadaccff	-0.0016693174
240	0x3ca09572	0.019602511
241	0x3d13dafb	0.036097508
242	0x3b9e0c38	0.004823234
243	0xbdb427a3	-0.087966226
244	0xbc31abbc	-0.010844167
245	0xbcfb7c05	-0.030698786
246	0xbdae607b	-0.08514496
247	0xbc9a2800	-0.018817902
248	0xbc83846f	-0.01605436
249	0xbd1ae9fe	-0.03782081
250	0xbd6e37b6	-0.0581586
251	0x3bbb6ecd	0.0057199956
252	0x3ccf1d84	0.025282629
253	0xbaa87497	-0.0012852129
254	0x3c9879a9	0.0186127
255	0xbd0e4a08	-0.03473857

hidden2.bias f4 [256]
0	0x3e28a83a	0.16470423
1	0x3cb30a81	0.021855595
2	0xbcead6ac	-0.028666817
3	0xbd79a68a	-0.06094984
4	0x3e42f5fe	0.19039151
5	0x3ddfd252	0.10928787
6	0x3e6b6559	0.2298788
7	0x3e698cc5	0.22807606
8	0xbd8d2435	-0.068916716
9	0x3d0aa3f2	0.033847757
10	0x3e859eec	0.2609781
11	0xbe019f3f	-0.12658404
12	0x3de91379	0.11380667
13	0xbd1b14f5	-0.037861783
14	0xbcfa2c3b	-0.030538669
15	0x3dd0f5a8	0.10203105
16	0x3dd57e2d	0.10424457
17	0xbd02e5ea	-0.031957544
18	0xbda58c2d	-0.08083377
19	0xbcc56ccf	-0.024099736
20	0x3d2fda29	0.042932663
21	0x3dc6f829	0.097153015
22	0x3ed38fcd	0.4132065
23	0x3d8efdc6	0.06981997
24	0xbc47903f	-0.012180387
25	0xbd06dc2c	-0.032924816
26	0xbcb044f0	-0.021517247
27	0xbd7e25ab	-0.06204764
28	0x3d865fd4	0.065612465
29	0x3e321e86	0.17394456
30	0x3d0ffdc3	0.035154115
31	0x3e954507	0.29154226
32	0xbd02e70d	-0.03195863
33	0x3e5320fc	0.20618051
34	0x3e383966	0.17990646
35	0xbcaf58cc	-0.021404646
36	0x3e245af1	0.16050316
37	0x3cc739fa	0.024319638
38	0x3e6f107b	0.2334613
39	0x3e246ee3	0.16057925
40	0x3df22900	0.118242264
41	0x3d7eb9ee	0.062189035
42	0x3dfcbe88	0.123410285
43	0x3e91cd35	0.28476873
44	0x3e26e5dd	0.16298623
45	0xbd49f688	-0.049307376
46	0x3d7ae6f5	0.061255414
47	0x3e4200f4	0.18945676
48	0xbcc5cdac	-0.024145924
49	0x3e467f22	0.19384435
50	0x3dc23ff7	0.094848566
51	0xbd253f85	-0.04034378
52	0x3df0cf9b	0.117583476
53	0x3e2447f4	0.16043073
54	0x3e3cdb42	0.18443015
55	0x3e012730	0.12612605
56	0x3da6b1c1	0.081393726
57	0x3dfa3701	0.122175224
58	0x3dc16ba2	0.094443575
59	0x3e5ce190	0.2157042
60	0xbc563ee6	-0.01307652
61	0x3bb0ddff	0.0053975577
62	0x3e749f1f	0.23888825
63	0xbd88e147	-0.06683593
64	0xbaa1eee3	-0.0012354519
65	0x3db2b2aa	0.08725484
66	0x3dccdc14	0.10002914
67	0x3d39785c	0.0452808
68	0x3e3cf62a	0.18453279
69	0x3eb81557	0.3595378
70	0x3e4d2a06	0.20035562
71	0xbc1f79df	-0.009733646
72	0x3d326ddd	0.043561805
73	0x3d99a165	0.07501487
74	0xbd9aa065	-0.07550124
75	0xbdb4d30f	-0.08829319
76	0x3e115f93	0.14196615
77	0x3d28cedf	0.041212913
78	0x3e2b100d	0.16705342
79	0x3d9f4579	0.07776923
80	0xbda4b957	-0.08043163
81	0x3bbfffc7	0.0058593485
82	0x3e1773af	0.14790224
83	0x3d272521	0.040806893
84	0x3e40f070	0.1884172
85	0x3d0fc77a	0.035102345
86	0xbccf007c	-0.025268786
87	0x3b136438	0.0022490155
88	0x3dfd31cc	0.123630136
89	0x3def5339	0.11685795
90	0x3e0d88cc	0.13821715
91	0x3d2b8380	0.041873455
92	0x3e821973	0.2541004
93	0x3cb47ef1	0.022033187
94	0x3e38fcbb	0.18065159
95	0x3e53db76	0.20689186
96	0x3e4a691e	0.19766662
97	0x3e50f93a	0.20407572
98	0x3d95d1b4	0.07315388
99	0x3dba1077	0.09085172
100	0x3e961a63	0.29317006
101	0x3e38d479	0.18049802
102	0xbd1b98b6	-0.037987433
103	0x3de91711	0.11381353
104	0x3d67268b	0.05643324
105	0x3ef8e6b0	0.486135
106	0x3cf8dc28	0.030378416
107	0x3d655736	0.055991374
108	0x3d1de4bf	0.038548227
109	0x3d1bc657	0.03803095
110	0x3e27a75c	0.16372436
111	0x3e20870a	0.15676513
112	0x3e72c338	0.23707283
113	0x3e1833b3	0.14863472
114	0x3df8fb24	0.12157276
115	0xbd4e10e0	-0.050309062
116	0x3d709db6	0.058744155
117	0x3e8aaf3c	0.27086818
118	0x3e13475e	0.14382693
119	0xbd68d4c2	-0.056843527
120	0x3e2612e6	0.16218147
121	0xbdb202da	-0.0869195
122	0x3da574c2	0.080789104
123	0x3cbda69f	0.02315074
124	0x3b4b62a9	0.0031034148
125	0xbd917de2	-0.07104088
126	0x3e05deef	0.13073324
127	0x3e69ebde	0.22843882
128	0xbd78562e	-0.060629062
129	0xbd4c1f0d	-0.0498343
130	0x3e44593e	0.19174668
131	0x3dc795d9	0.09745378
132	0x3d959b2c	0.07304987
133	0x3e0e2ccb	0.13884275
134	0x3e7a3df9	0.24437703
135	0x3e15400f	0.14575218
136	0xbd1c5992	-0.03817136
137	0x3e2e8cab	0.17045848
138	0xbcf67fb0	-0.030090183
139	0x3c9b69e1	0.018971385
140	0x3e4066e3	0.18789248
141	0x3e81a8e6	0.25324172
142	0x3d1f2878	0.038856953
143	0x3bb59ad0	0.0055421367
144	0x3d93a07e	0.07208346
145	0x3e31cb72	0.17362764
146	0x3d3939df	0.045221206
147	0x3e1f6b0c	0.15568179
148	0x3e0031d3	0.12519006
149	0x3db2f386	0.08737855
150	0x3d0ac692	0.033880778
151	0x3d880bb7	0.066428594
152	0x3e02a9d2	0.12760094
153	0x3e1c8596	0.15285334
154	0x3dffc2c5	0.12488321
155	0x3babac22	0.0052390257
156	0x3e224c06	0.15849313
157	0x3e508dd4	0.20366603
158	0xbb00e079	-0.0019665046
159	0xbc97577a	-0.01847433
160	0x3ea226f1	0.31670335
161	0x3ecdcfec	0.40197694
162	0x3e57a2f6	0.21058258
163	0x3e403db0	0.18773532
164	0x3d187325	0.037219185
165	0x3e0ff130	0.1405685
166	0x3dbc48be	0.09193562
167	0x3e008aae	0.12552902
168	0x3df6377d	0.12022302
169	0x3e74172b	0.23836963
170	0xb907f4a5	-0.0001296574
171	0x3e4bb391	0.19892718
172	0x3ec0eede	0.3768224
173	0x3e0162c3	0.12635331
174	0x3e7d86d6	0.24758467
175	0x3e6a982e	0.22909614
176	0x3ea04a32	0.31306607
177	0x3d5d3812	0.05400855
178	0xbcd3c4e2	-0.025850717
179	0xbd31c28a	-0.043398418
180	0x3e3c4d7a	0.1838893
181	0x3d87774e	0.066145524
182	0x3e47edaa	0.19524255
183	0x3e6f94ca	0.23396602
184	0x3e025131	0.12726285
185	0x3e53347c	0.2062549
186	0x3e4eb5b1	0.20186497
187	0x3e14cac6	0.14530477
188	0x3bff0981	0.0077831154
189	0xbc78c95e	-0.015184728
190	0x3e321cb2	0.17393759
191	0x3e95e69d	0.29277506
192	0x3e0a706f	0.13519453
193	0xbd80c8cf	-0.06288301
194	0x3e273bd4	0.16331416
195	0xbb833f8d	-0.0040053786
196	0x3cb382f1	0.021913024
197	0x3e54d820	0.2078557
198	0x3d38898a	0.045053042
199	0x3d3c4085	0.045959968
200	0x3d936f9c	0.07199022
201	0x3dba08be	0.09083699
202	0x3e0a89c9	0.13529123
203	0xbd8d4db2	-0.06899585
204	0x3a6cd0ea	0.0009033816
205	0xbd3e0553	-0.046391796
206	0x3dc21858	0.094772995
207	0xbd4a0400	-0.04932022
208	0xbc78a1aa	-0.0151752625
209	0x3e345a64	0.17612606
210	0x3e253d64	0.161367
211	0x3e0c59b4	0.13706094
212	0x3e8eee82	0.27916342
213	0x3e6d270e	0.2315943
214	0x3e1983bb	0.14991657
215	0x3e1b74dd	0.15181299
216	0x3da97647	0.08274513
217	0x3d8e16f3	0.06937971
218	0x3db11ffb	0.08648678
219	0x3e2ee1c1	0.17078306
220	0x3e3ae91b	0.18252985
221	0x3d89f0e7	0.067354016
222	0xbd9637ed	-0.07334886
223	0x3da28f11	0.07937444
224	0x3e5a119b	0.21295778
225	0x3e3b25b2	0.18276098
226	0x3e401657	0.18758522
227	0x3d78979e	0.06069147
228	0x3e281d7c	0.16417497
229	0x3b263810	0.0025363006
230	0x3e207563	0.1566978
231	0x3d2a16c3	0.041525614
232	0xbceecd2f	-0.029150574
233	0x3e48ac98	0.1959709
234	0x3c755b6d	0.014975411
235	0x3e9729b8	0.29524016
236	0x3e3326b1	0.17495228
237	0x3d8033cf	0.06259882
238	0x3db58614	0.08863464
239	0xbdaea37e	-0.085272774
240	0x3dab2739	0.083570905
241	0x3d3fcec9	0.046828065
242	0x3dcbb323	0.09946277
243	0x3d83b9d1	0.06431926
244	0xbbb7b750	-0.0056065693
245	0xbc07bb2b	-0.00828437
246	0x3e59d956	0.21274313
247	0x3eb8c947	0.36091062
248	0xbd01e3a4	-0.031711236
249	0x3d206df4	0.03916736
250	0x3d59504c	0.053055093
251	0x3e10afeb	0.14129607
252	0x3e989cd0	0.29807138
253	0x3ce92115	0.028458158
254	0x3d3329bf	0.043740984
255	0x3e7af32a	0.24506822

log_std_layer.weight f4 [2, 256]
0	0x3b82dc02	0.003993512
1	0x3c0e99ab	0.0087036295
2	0xba94e684	-0.0011360203
3	0x3b936610	0.004498251
4	0x3b5aa466	0.003336215
5	0x3b227350	0.002478797
6	0x3adbea7e	0.0016778258
7	0x3c2dfd05	0.010619407
8	0xbc0ba09e	-0.008522181
9	0x3c2834b8	0.010266475
10	0x3b6c3d4c	0.0036047278
11	0xbc1b6739	-0.009485059
12	0x39564801	0.00020435454
13	0x3bc03eb3	0.0058668493
14	0x3b366cb1	0.0027835781
15	0x3a8f12d1	0.0010915642
16	0x3c54d5f0	0.01299046
17	0x3bc4d5c0	0.0060069263
18	0xbc21baf3	-0.009871232
19	0x3b0bf532	0.0021355865
20	0xbb9a01ee	-0.004699937
21	0x3b8f0736	0.0043648733
22	0x3c7ede07	0.015555865
23	0xbb6c703f	-0.0036077646
24	0xbbd31b2c	-0.006442448
25	0x3be2eb9a	0.0069250586
26	0x3d652b2b	0.05594937
27	0x3bd94611	0.006630667
28	0x3b3719f8	0.0027939063
29	0x3b1fae14	0.0024365233
30	0x3c328557	0.0108960485
31	0x3920bfe5	0.00015330275
32	0x3b2d69b9	0.002646072
33	0x3bd62d5e	0.00653617
34	0xbb1c876e	-0.0023884433
35	0x3cc7f00d	0.024406457
36	0x3a8f6def	0.0010942797
37	0xbbbfdc5c	-0.0058551263
38	0x3bdb6023	0.00669481
39	0xbaf7b6b1	-0.0018899051
40	0xbbca3c81	-0.0061717634
41	0x3b56d0aa	0.0032778182
42	0xbd08f347	-0.033435132
43	0x3c3fe767	0.011712885
44	0xbcc0eff2	-0.023551915
45	0xbb7c8d54	-0.0038536387
46	0x3a5e48b8	0.0008479464
47	0xbb7a8c07	-0.0038230435
48	0x3cdb0d7e	0.026739832
49	0x3bfe7a83	0.0077660694
50	0xbbc17465	-0.005903768
51	0x3d0d3150	0.034470856
52	0xbc18c6b9	-0.009324723
53	0x3c076f22	0.008266242
54	0x3d2503b8	0.04028675
55	0xbe031557	-0.12801109
56	0x3c33f947	0.010984725
57	0xbbc3a55b	-0.0059706396
58	0xbb3e442b	-0.002903233
59	0xbbe7d7af	-0.007075272
60	0x3cbc8961	0.023014726
61	0xbbb87844	-0.005629571
62	0x3b3a87ae	0.002846222
63	0x3bec1296	0.007204364
64	0x3b213dd0	0.0024603494
65	0x3c1e23f9	0.009652131
66	0x3d15d0c2	0.03657604
67	0x3cc0dc12	0.023542438
68	0x3c22b07c	0.0099297725
69	0xbbb267ae	-0.0054444885
70	0xbc1935b4	-0.009351183
71	0xbc96a57a	-0.018389452
72	0xbbf68819	-0.0075235483
73	0xbbc6a9d4	-0.0060627256
74	0x3bb553cb	0.0055336705
75	0x3b73cfcb	0.0037202712
76	0x3c111b91	0.00885667
77	0x3c4fa9a2	0.012674721
78	0xbc916168	-0.017746642
79	0x3c49bdf0	0.012313351
80	0xbabfa128	-0.0014620172
81	0x3c80954f	0.015696196
82	0xbbaa5f50	-0.0051993504
83	0x3d506f7e	0.050887577
84	0x3ba6740a	0.005079751
85	0xbaa48809	-0.0012552749
86	0x3dc89870	0.097947
87	0x3cf758e1	0.030193748
88	0x3aa3de91	0.0012502243
89	0x3b4b0db4	0.003098351
90	0xbbd55e9e	-0.0065115234
91	0xba84a18f	-0.0010118949
92	0x3b87f905	0.0041495585
93	0x3b8bdf47	0.00426856
94	0x3ce0cc3a	0.027441133
95	0xbb68508b	-0.0035448398
96	0xbd20e310	-0.039279044
97	0xbb2fbc1e	-0.0026815007
98	0x3c19fb07	0.0093982285
99	0x3ca46456	0.020067375
100	0xbaf67cb3	-0.0018805474
101	0x3b8adae7	0.004237521
102	0x3b6f2606	0.003649117
103	0x3b867933	0.0041038035
104	0x3c863b19	0.016385602
105	0x3d1c9224	0.038225308
106	0x3b3813ec	0.0028088046
107	0xbb90d63c	-0.00442007
108	0xbc73b5db	-0.014874901
109	0x3c1f4255	0.009720405
110	0xbabd8717	-0.0014459816
111	0x3c7cd048	0.0154305175
112	0xb9d4e007	-0.00040602704
113	0xbb3dda98	-0.0028969403
114	0x3bdbc64a	0.0067069875
115	0xbba34244	-0.0049822647
116	0xbcd5c3af	-0.026094286
117	0x3b50ba53	0.003184934
118	0xba519889	-0.0007995447
119	0xbadba44f	-0.0016757342
120	0x3914ac72	0.00014178621
121	0x3b95cda9	0.0045716357
122	0x3bcdccb9	0.0062805084
123	0xbb076a0a	-0.002066257
124	0xbba82391	-0.005131193
125	0xbc59b911	-0.013288752
126	0x3b435a20	0.0029808357
127	0xbc490f56	-0.012271723
128	0xbc0f6d27	-0.008754051
129	0x3bd0fdbe	0.0063779047
130	0x3c8574c0	0.016291022
131	0xbc94a1c4	-0.018143542
132	0x3b7c97db	0.0038542661
133	0x3be06b21	0.0068487083
134	0x3ba3ba0b	0.0049965433
135	0xbd2cacdc	-0.04215704
136	0xb9d9f61e	-0.00041572837
137	0x3b37b365	0.0028030511
138	0xbaea0718	-0.0017854897
139	0x3c3a7752	0.011380987
140	0xbd49e457	-0.049290027
141	0x3a713e4a	0.0009202702
142	0xbb77d44c	-0.0037815748
143	0xbc69c6a5	-0.014268552
144	0x3c5ff686	0.013669616
145	0xbc1fe1d5	-0.009758432
146	0xba773332	-0.0009429931
147	0x3ceb3eb3	0.02871642
148	0x3c00e0bb	0.00786608
149	0xbc85175c	-0.01624649
150	0x39cdd508	0.00039259368
151	0x3b2c124b	0.002625602
152	0xba4adca7	-0.0007738568
153	0x3c1a0b4a	0.009402106
154	0x3c44118f	0.011967077
155	0x3c48a58c	0.012246501
156	0xbb70100f	-0.0036630665
157	0xbb1b2b1b	-0.0023676816
158	0x3b9e42f2	0.004829758
159	0x3c3e84e3	0.011628362
160	0x38a51a17	7.872673e-05
161	0xbace24a7	-0.0015727476
162	0x3c807543	0.015680915
163	0x3d0bd039	0.034134123
164	0xbb4bf971	-0.003112402
165	0xbbcd6258	-0.006267827
166	0xba01262c	-0.00049266475
167	0x3c347804	0.011014942
168	0x3c29960b	0.010350714
169	0x3c0c6980	0.008570075
170	0xbc97a9a4	-0.018513508
171	0x3a8a1fd9	0.0010538056
172	0x3b3008cd	0.0026860714
173	0x3c31219a	0.010811234
174	0xbbbe02b7	-0.0057986635
175	0xba857121	-0.001018081
176	0x3b937a7d	0.0045006857
177	0x3aa08aa7	0.0012248353
178	0x3d0d968f	0.034567412
179	0x3c94ac95	0.0181487
180	0x3c29c964	0.010362957
181	0xbb891979	-0.004183945
182	0xbb61bbaf	-0.0034444144
183	0xbb8acda4	-0.00423594
184	0x3cdbae97	0.02681665
185	0xbd4dc7c7	-0.05023935
186	0x3c2e8e87	0.010654098
187	0xbc4bf14f	-0.012447669
188	0xbd4a0259	-0.049318645
189	0x393c933e	0.00017983929
190	0xbbc8ecc8	-0.006131742
191	0x3ac0430f	0.0014668423
192	0xbd0451d0	-0.032304585
193	0x3b99d4a7	0.0046945396
194	0xbc214028	-0.009841956
195	0x3bf3852f	0.007431648
196	0x3bb98327	0.0056613865
197	0x3ca190ea	0.01972242
198	0xbc1da9d2	-0.009623008
199	0xbbd75aca	-0.006572102
200	0x3c65656f	0.014001234
201	0x3d57011c	0.052491292
202	0xbb36bb4f	-0.002788264
203	0x3bc0a1ae	0.0058786487
204	0xbc969df7	-0.01838587
205	0x3bcc0c28	0.006227035
206	0x395ce0fc	0.00021064648
207	0x3c08423a	0.008316571
208	0xbbd73327	-0.006567377
209	0xbc8aeb19	-0.016957806
210	0xbb36cb83	-0.0027892299
211	0x3bbca322	0.0057567516
212	0x3c164d65	0.009173726
213	0x3b49f290	0.0030814745
214	0x3bc3aaff	0.005971312
215	0xbb0765c8	-0.0020660032
216	0xba656009	-0.0008749967
217	0x3d9e4ff3	0.07730093
218	0x3ca69305	0.020333776
219	0x3b8abf27	0.004234213
220	0xbc2fcc52	-0.010729866
221	0x3c1a4fb9	0.009418421
222	0x3a948239	0.0011330313
223	0x3c07c380	0.008286357
224	0x3806a71d	3.2103726e-05
225	0xbc24176a	-0.010015348
226	0x3c3852d4	0.0112502165
227	0x3bd65e4e	0.0065420037
228	0x3c379ae8	0.011206366
229	0x3c622062	0.013801666
230	0x3c5ac703	0.013353112
231	0x3c332df0	0.010936245
232	0x3ae94932	0.0017798303
233	0x3c509e23	0.012733015
234	0x3cfa709b	0.030571273
235	0x3d86bb7a	0.06578727
236	0xbb49c4ee	-0.0030787545
237	0x3bd08c55	0.006364385
238	0xbc4b66c2	-0.012414636
239	0x3c866e43	0.016409999
240	0x3d1b2d77	0.037885156
241	0x3c9034ee	0.017603364
242	0x3c9c68d9	0.019092964
243	0x3c98130d	0.018563772
244	0x3c0f2e49	0.008739063
245	0x3cdf06eb	0.027224978
246	0xbcd69754	-0.026195206
247	0xbc3ef746	-0.011655634
248	0x39687322	0.00022168134
249	0x3cec8177	0.028870327
250	0x3ba306ef	0.004975192
251	0xb9e96003	-0.00044512757
252	0x3cb365a9	0.021899061
253	0x3be79d82	0.007068337
254	0xbd27971f	-0.040915605
255	0x3aa0daee	0.0012272277

log_std_layer.bias f4 [2]
0	0x3eb31065	0.34973446
1	0x3eb9bacc	0.36275327

mu_layer.weight f4 [2, 256]
0	0xbb9ea0cd	-0.0048409463
1	0x3caa6e74	0.020804621
2	0xbb1c5701	-0.002385557
3	0xbe2ee511	-0.1707957
4	0xbd1e22cb	-0.0386074
5	0xbd94da2b	-0.07268175
6	0x3d0d25fa	0.034460045
7	0xbae6ba1a	-0.001760307
8	0x3e70f568	0.23531115
9	0xbe6c9d90	-0.2310698
10	0x3b99fb96	0.004699181
11	0xbeab9760	-0.33513927
12	0x3ecde723	0.40215406
13	0xbc85c3ec	-0.016328774
14	0x3e564bf2	0.20927408
15	0x3e9d6aa8	0.30745435
16	0x3d6f3ffe	0.058410637
17	0x3b51be82	0.003200442
18	0xbcd46b2b	-0.025930008
19	0xbd546ec8	-0.05186346
20	0x3ccd638b	0.02507188
21	0x3e69e220	0.22840166
22	0x3ca4eae3	0.020131534
23	0x3c6aec93	0.01433863
24	0x3d3a79aa	0.045526184
25	0x3cea5d8a	0.028609056
26	0x3dd1ed37	0.10250323
27	0xbbb86684	-0.005627455
28	0xbc4e3b0e	-0.012587322
29	0x3da968c0	0.082719326
30	0x3dca0742	0.098646656
31	0x3cd1a416	0.025590938
32	0xbd3bcaf2	-0.04584784
33	0x3c8ca98e	0.017170694
34	0xbd59fd5c	-0.053220138
35	0xbe3d041b	-0.18458597
36	0x3d2270d1	0.03965837
37	0xbe34300d	-0.17596455
38	0x3e2c87e6	0.16848716
39	0xbba51591	-0.0050379713
40	0xbdc0275a	-0.09382506
41	0xbb697be0	-0.0035626814
42	0xbe7caeab	-0.24676006
43	0x3acaea4d	0.0015481204
44	0xbe66db94	-0.225447
45	0xbd537569	-0.051625643
46	0x3ed07894	0.40716994
47	0x3e5024d3	0.20326547
48	0xbdd4d285	-0.10391716
49	0x3d91d9b7	0.07121604
50	0x3e45098b	0.19241922
51	0xbda7cc54	-0.08193269
52	0xbe433b65	-0.19065626
53	0xbc9a8215	-0.018860856
54	0x3e21cd48	0.15800965
55	0xbe786a30	-0.24259257
56	0x3ce73400	0.028223038
57	0xbc85d79f	-0.016338168
58	0xbd80cca5	-0.06289033
59	0x3c7cfa87	0.01544059
60	0xbc522c64	-0.012827966
61	0xbcaadadb	-0.020856312
62	0x3def86c0	0.116956234
63	0xbe2e42d7	-0.17017685
64	0xbdaf4812	-0.08558668
65	0xbeb83a01	-0.35981753
66	0xbe4cf4a1	-0.20015194
67	0xbe9f3c3d	-0.31100646
68	0xbc89cc21	-0.016820969
69	0x3d8960e5	0.06707934
70	0x3c38ec36	0.011286786
71	0x3ea6753f	0.32511327
72	0xbe161fe3	-0.14660601
73	0xbe6375b4	-0.22212869
74	0x3b63b2fb	0.0034744132
75	0xbdbafaa5	-0.09129838
76	0xba9ab78c	-0.0011803969
77	0x3c54eca8	0.012995876
78	0xbe50768b	-0.2035772
79	0xbd0c0d6d	-0.03419249
80	0xbea522eb	-0.32253203
81	0x3d83e6bd	0.06440494
82	0x3d490082	0.04907275
83	0x3e2ff5df	0.17183636
84	0x3e312f41	0.17303182
85	0x3e515e99	0.20446242
86	0x3cd46530	0.025927156
87	0xbe941a8e	-0.2892651
88	0x3ce11fae	0.027480926
89	0xbee652ce	-0.4498505
90	0xbcc83f13	-0.024444139
91	0x3d10d03a	0.03535483
92	0xbd081e95	-0.03323229
93	0xbcd41aab	-0.025891623
94	0xbe392c93	-0.1808341
95	0xbcfea835	-0.031086067
96	0xbdf1109b	-0.11770745
97	0x3da7a5c8	0.08185917
98	0x3b9e27e4	0.0048265327
99	0x3d346c09	0.044048343
100	0x3d2f24b7	0.042759623
101	0x3c4d08a2	0.012514265
102	0x3e13876d	0.1440713
103	0x3d71ec1e	0.05906307
104	0xbdce73e7	-0.100807
105	0x3c36139e	0.011113076
106	0x3e9e9699	0.30974272
107	0x3dcc2262	0.099674955
108	0xbd42ff58	-0.047606796
109	0x3bc40364	0.0059818495
110	0x3ba7d793	0.005122134
111	0x3d752e5f	0.059858676
112	0xbe472d3b	-0.19450848
113	0x3d3ffb7f	0.046870705
114	0xbe170b6d	-0.14750452
115	0xbe8aa7c9	-0.27081135
116	0x3e1d9f06	0.15392694
117	0x3e9d9e75	0.30784956
118	0xbd7cb4ce	-0.061695866
119	0x3bedd014	0.007257471
120	0x3ea032af	0.3128867
121	0xbc9f8c6b	-0.019476136
122	0xbe5b4575	-0.21413215
123	0x3d2e79a9	0.042596493
124	0x3ba15812	0.004923829
125	0x3ebd435a	0.36965448
126	0xbb5bb068	-0.0033521894
127	0x3e1f5a07	0.15561686
128	0x3cf5be23	0.02999789
129	0xbc1a9572	-0.009435045
130	0x3e57f57a	0.21089736
131	0x3d0d0ff5	0.034439046
132	0xbe370b0f	-0.17875312
133	0xbc42aaa0	-0.0118815005
134	0x3e8cda60	0.27510357
135	0xbeccb984	-0.39985287
136	0xbc0d3d01	-0.0086205015
137	0xbe40836b	-0.18800132
138	0xbf00a288	-0.50248003
139	0xbbaf40c0	-0.005348295
140	0xbe5eb826	-0.21749935
141	0xbba026e2	-0.0048874477
142	0x3a932223	0.0011225383
143	0x3eaf4592	0.34232765
144	0x3e294d97	0.16533504
145	0x3e16b1c2	0.14716247
146	0x3cf8b05c	0.030357532
147	0xbe808a1d	-0.25105372
148	0x3e55581c	0.20834392
149	0x3db3b88e	0.087754354
150	0x3e37cc09	0.17948927
151	0xbe31da11	-0.17368342
152	0xbde1965e	-0.110150084
153	0xbd1aebb9	-0.03782246
154	0xbd32b89b	-0.043633085
155	0x3c3e81b9	0.011627608
156	0x3ebab84c	0.36468732
157	0xba18f0b1	-0.00058342057
158	0xbb3c0a77	-0.002869276
159	0xbc381345	-0.011235063
160	0x3d2bab14	0.0419112
161	0x3cce1d28	0.025160387
162	0xbd27173e	-0.04079365
163	0x3d924130	0.0714134
164	0xbbbd315c	-0.0057737064
165	0xbc955ac8	-0.018231764
166	0x3e5b08cd	0.21390076
167	0xbc8f46bb	-0.017489782
168	0x3d82fa0d	0.0639535
169	0xbca990c6	-0.020698916
170	0xbef63ef0	-0.48094893
171	0xbea1d4b8	-0.31607604
172	0x3d5abd09	0.053402934
173	0x3e0aa72e	0.13540336
174	0x3c696447	0.014245099
175	0x3d5c7242	0.053819902
176	0xbe66e092	-0.22546604
177	0xbd13ebd7	-0.036113586
178	0x3c0b405f	0.008499234
179	0xbef678eb	-0.48139128
180	0x3b3d060a	0.002884271
181	0x3b475340	0.003041461
182	0x3c47136d	0.012150628
183	0x3d8acd92	0.06777491
184	0xbe038a0f	-0.12845634
185	0x3e891380	0.2677269
186	0x3b991eea	0.0046728747
187	0xbe956995	-0.29182115
188	0xbe08cc66	-0.13359222
189	0xbb8ad686	-0.004236999
190	0xbcd38041	-0.025817992
191	0xba394625	-0.00070676423
192	0xbe03dad7	-0.1287645
193	0xbaa2488c	-0.001238124
194	0xba28e130	-0.0006442247
195	0x3db0e031	0.08636511
196	0xbd6ba144	-0.05752684
197	0xbe727a38	-0.23679435
198	0x3d8a3990	0.067492604
199	0xbda01fa5	-0.07818536
200	0xbb6b2d4f	-0.003588516
201	0x3eaa6f87	0.33288214
202	0xbd51bcc1	-0.0512054
203	0x3bfb08ed	0.007660976
204	0x3e4ac24d	0.19800682
205	0x3c1b0098	0.009460591
206	0x3e88788d	0.26654473
207	0xbdc28d1b	-0.0949957
208	0x3d1914e3	0.037373435
209	0x3cf98d29	0.030462818
210	0x3baa2637	0.005192544
211	0x3bb4971d	0.005511178
212	0x3db7ecee	0.089807376
213	0x3d0e1482	0.034687527
214	0x3d87b0f3	0.06625547
215	0xbd91c47f	-0.07117557
216	0x3d7a8692	0.061163493
217	0xbec12f41	-0.37731364
218	0x3cc8c523	0.024508065
219	0x3da85464	0.08219221
220	0x3db86856	0.090042755
221	0x3da05ebf	0.078305714
222	0xbc081d6d	-0.008307797
223	0x3cc9c08f	0.024627952
224	0x3eaca0f0	0.33716536
225	0xbce493af	-0.027902452
226	0x3bdd4f1a	0.0067538144
227	0x3d7c8b28	0.061656147
228	0x3d2c8512	0.042119093
229	0x3e4e6368	0.20155108
230	0x3e84d8ef	0.25946757
231	0x3d8115b4	0.06302968
232	0x3c028bd2	0.007967906
233	0x3dc9329c	0.09824106
234	0xbddc0d64	-0.107447416
235	0xbdb36307	-0.08759122
236	0x3cabc2df	0.020966945
237	0xbe879a20	-0.26484776
238	0x3ea71cd3	0.3263918
239	0x3bbf84a9	0.0058446717
240	0xbd742dcc	-0.059613988
241	0xbeb50d08	-0.35361505
242	0xbbc3d336	-0.005976106
243	0xbe149aec	-0.14512223
244	0x3d35063a	0.04419539
245	0xbd2e7dc7	-0.04260042
246	0xbd241906	-0.040062927
247	0x3e23c96f	0.1599481
248	0xbdf54ac4	-0.11977151
249	0x3db0a01b	0.08624288
250	0x3ea80b65	0.32821193
251	0x3e9f46a0	0.3110857
252	0xbd245eb6	-0.040129386
253	0xbe3a5e97	-0.18200146
254	0xba29c800	-0.00064766407
255	0x3aa7929e	0.0012784784

mu_layer.bias f4 [2]
0	0x3d2b335c	0.041797027
1	0x3c8ded21	0.017324986
