model_weight/mqf1.pt (torch_old, 292889 bytes, 5 tensors)

hidden1.weight f4 [256, 26]
00000000: 4623 22bd 0fc8 923e 53c1 643d c032 483d
00000010: a660 81bd 8427 933e 6b93 87bd 4e0f 793d
00000020: cce3 e6bb dcae 313e 64a7 9dbc 9616 de3d
00000030: bae9 b93d 29de 21be 7c10 7ebd 1246 4dbd
00000040: 8232 43bd 5487 923e 1423 b23d 24d3 ad3e
00000050: 0e41 32bc 83a8 44bf 64cc 03be 1604 ab3e
00000060: 0541 acbd 4dc6 793e 06d0 45bd d3f7 30bd
00000070: abeb 54bd b175 2a3d 8958 7b3d 39d0 0a3e
00000080: 4549 123e 07bb 9bbd e373 1c3e ca8b 3fbe
00000090: a583 9a3c 2f2d 2fbd 0dcf 203d 4f22 a43d
000000a0: 2b78 3bbe b908 763d 2ea9 9cbd 58d3 6ebe
000000b0: 679a 4dbd e505 0b3d 94c1 79be 9db3 df3d
000000c0: d308 3b3c b123 003e baaa 723d 8a7a 07bf
000000d0: 0ef3 7b3e 3d5b 923e 651f c7bc 6edc 50bd
000000e0: 1b5c 1cbe b37b 78be df39 083a cffd c23c
000000f0: 816d 5a3e 3350 2f3e ed53 70bd 7e59 363e
00000100: 0683 793c 63d5 4cbe 9d12 50bb 9ade 093e
00000110: 7af1 85bd 0c3f 003e 1e16 ac3d 3322 593d
00000120: c0f2 f03d 2b12 d33d 1a20 f0bd fb0c abbd
00000130: b578 25bf 2154 ad3e c6a8 76bd b5a3 993e
00000140: 5236 0d3e d443 63be 15ad 1abe 6be4 e4be
00000150: e8e3 1abe d62f 52be 7f46 2e3e 23d6 d23d
00000160: 9631 74bd f73e 783e 434a 863d 11c4 36bf
00000170: 15e4 27bc 7f1d 0b3e 0459 46bd 26ce 243e
00000180: 71f4 02bd b454 bebc f274 923b 2d27 d0be
00000190: bc2e 9abd aee5 303e 428d db3e ca2d dcbd
000001a0: 5bd3 8fbd 5047 b63e 879d afbd b41b b6ba
000001b0: 5d35 653d 2361 69bc 53e2 f03d 1a65 bdbd
000001c0: f90e ec3d 68bf 0c3e 7db4 38be fcd0 183e
000001d0: ecc9 23bd 06f9 123e 2815 653d e905 ff3b
000001e0: c9c6 39be 4445 063e 7a76 e2bd 1e40 123e
000001f0: 9126 2bbe 278e 34bf 41dd 2d3d 167c 5f3e
00000200: ba3c 23bf da2e a53e f847 093e 6205 8d3e
00000210: ed29 a33c 98f0 a83d 30e3 9dbd e997 edbd
00000220: c74a ebbd a6f6 b9bd db59 053d 0447 e63e
00000230: 179f 79bd 8614 5a3e fbfb a9bc d1f5 8cbe
00000240: 894e 0cbe b5cf a3bc 4f81 ddbd 8742 213f
00000250: 7e38 2fbc cb82 3abe 1e52 7dbc e83e 1bbf
00000260: f766 c93d d981 27bd 3135 cf3e c5d7 b03e
00000270: ed9e 903e 3c91 743e 05a4 8c3d 4fc7 b13d
00000280: e777 c03a 39a0 9f3d 164c 1bbe d86f 20bd
00000290: 2a30 8c3e 420c 0dbd 545a 55bd 3437 5f3d
000002a0: e1d9 d63d 0666 b03e 5f90 e83d 5a22 e73c
000002b0: 3452 973d b2a8 eebd 10ea cabd b342 1cbe
000002c0: ce16 843e d2f1 0f3d 0555 9a3c 60f9 c13d
000002d0: 57e2 613d 1133 6c3d 7dd9 423d 99a4 48be
000002e0: 2878 cb3b 9ff8 e3bd 7802 c3bc 32c5 963e
000002f0: fc96 fdbc 3f84 99bb b0e4 d5bd ef9c 97be
00000300: b124 35be f763 82be 28e8 2b3e bbc7 953e
00000310: 02f7 083d 1900 8bbc c00e 153e 0dd3 afbe
00000320: 9b1f cc3d bd5c 1cba 854d 4bbe 4a15 a3be
00000330: e237 2cbe 4320 61be 7721 883e 57ae 373e
00000340: 5f0a 123e 1467 f3bd 8a59 5b3d 6551 783d
00000350: 00d7 3b3e 6a9b 753e 3aeb 613b 29bc 183c
00000360: d98c 833e e7e8 6d3d 19e0 eebd 4189 193e
00000370: 2f7c 703e 62a4 4b3d 6189 963c d93b 36be
00000380: d612 ae3d 676f 9e3d ad18 2f3d 3d4a cd3d
00000390: 86c2 3f3e b2e6 f0be ffd7 e53c e867 133e
000003a0: a48f a43d 9063 c3bd 2455 f73c 1b2a fb3d
000003b0: 36e3 1dbe 1032 123e 9584 60bd cd55 7ebe
000003c0: eebb 303e 0047 c33d 5473 82bd 3e05 323e
000003d0: 1064 37be d86d 85bd 797a 3dbd db1b 38be
000003e0: fcba 2e3e ddd7 4c3d f8cc 333d f2a7 80bd
000003f0: 1e56 373d 99f4 c9bc 390f 8a3e 7cc7 6dbf
-0.03958442 0.28668258 0.05584843 0.048876524 -0.06317262 0.28741086 -0.066199146 0.06080561
-0.0070461985 0.1735186 -0.019244857 0.10844152 0.09077783 -0.15807404 -0.06202744 -0.050115652
-0.04765559 0.28618872 0.08698097 0.3395015 -0.010879768 -0.7681963 -0.12870938 0.33401555
-0.08410839 0.24392052 -0.04829409 -0.043205094 -0.051982563 0.041616146 0.06136373 0.13555993
0.14285763 -0.07604032 0.15278582 -0.18705669 0.018861601 -0.0427677 0.03925996 0.08014356
-0.18307559 0.060066912 -0.07649456 -0.23322809 -0.050196078 0.03394117 -0.2439025 0.109229304
0.011415678 0.12513615 0.05924485 -0.52921355 0.24604437 0.28585234 -0.024306962 -0.050991468
-0.1526951 -0.24265938 0.0005196612 0.023802666 0.21330835 0.17120437 -0.058673788 0.17807576
0.015228992 -0.20003276 -0.0031749376 0.13463822 -0.065401986 0.1252405 0.08402656 0.05301113
0.11765051 0.103062 -0.11724873 -0.08352085 -0.6463731 0.33853248 -0.06021955 0.3000771
0.13790253 -0.22193843 -0.15105088 -0.4470552 -0.15126002 -0.2052606 0.1701908 0.102947496
-0.0596176 0.24242769 0.06557133 -0.71392924 -0.01024725 0.1358547 -0.048424736 0.16094264
-0.0319714 -0.023233749 0.0044695074 -0.4065489 -0.07528445 0.17275116 0.4288121 -0.10750921
-0.07022735 0.35601282 -0.08574968 -0.0013893754 0.055959094 -0.014244351 0.11761918 -0.09247799
0.11526293 0.1374489 -0.18037601 0.14923471 -0.03998749 0.14352807 0.05592838 0.007782687
-0.18142237 0.1311236 -0.11057754 0.14282271 -0.1671393 -0.7052941 0.042447332 0.21824679
-0.63764536 0.32262307 0.1340636 0.2754317 0.019917453 0.082490146 -0.07709348 -0.1160124
-0.11488872 -0.090802476 0.032556396 0.44976056 -0.060942736 0.21296892 -0.020750036 -0.27531293
-0.13701834 -0.019996503 -0.10815679 0.6299214 -0.010694621 -0.18213956 -0.015461473 -0.6064286
0.09834092 -0.040895317 0.4047027 0.3453962 0.2824625 0.23883528 0.06867222 0.08680593
0.0014684171 0.07794232 -0.15165743 -0.039169163 0.27380496 -0.034435518 -0.052088097 0.054496005
0.10490776 0.34452838 0.113556616 0.028214622 0.07388726 -0.1165327 -0.09907925 -0.15259819
0.2579865 0.035142727 0.018839369 0.09471393 0.055147495 0.05766589 0.047570694 -0.19594039
0.006209392 -0.11131405 -0.023804888 0.29447323 -0.030955784 -0.0046849544 -0.10444009 -0.29611918
-0.17689778 -0.25466892 0.1678778 0.29253945 0.03343869 -0.01696782 0.14556408 -0.34340706
0.09966966 -0.0005964747 -0.1985379 -0.3185218 -0.16818193 -0.21984963 0.26588032 0.17937599
0.14261769 -0.11884895 0.053552188 0.0606245 0.18343735 0.23985067 0.0034472481 0.009322205
0.25693396 0.05808344 -0.11663837 0.14993764 0.23484872 0.049717315 0.018376054 -0.17796268
0.084996864 0.07736092 0.042748142 0.100239255 0.18726549 -0.47051007 0.028057097 0.14395106
0.0803521 -0.095404744 0.030191965 0.1226389 -0.15418705 0.1427691 -0.05481394 -0.24837418
0.1725919 0.095350266 -0.06369653 0.17384812 -0.17909265 -0.06515092 -0.046259377 -0.17979376
0.17063516 0.05001055 0.043896645 -0.06282033 0.044759862 -0.024652766 0.2696474 -0.92882514

hidden1.bias f4 [256]
00000000: dd30 25be 88ba 13be 073e e3bd 4b04 9fbd
00000010: 6da0 61be 5f68 163e 81c0 75be 2853 3dbe
00000020: 9bb5 17be bf77 283d e7c0 babd 5cce 723e
00000030: 564f 2a3e 2ef2 27ba 78d3 e23d a32e a83d
00000040: 5eaa 2cbe db3c 38b9 d3f2 7b3d 29c4 6abe
00000050: 4036 3f3e 82e7 4b3e 1ad6 01be d32d 2ebe
00000060: 7287 86be 7453 66bd ef3a 93be 0682 efbd
00000070: aac3 d8bc a0e4 a3be f792 f73c 1cb7 673c
00000080: 2d91 64bd d89c 9abc 1860 87be 45b7 a9bd
00000090: 29b7 063e 7336 83be 294c 06be b209 c83a
000000a0: 487c 1e3e 8128 6ebc 0a4d c43c c957 9a3d
000000b0: 6280 433e b7ea 603d b0d6 483d 1404 dabe
000000c0: c930 7abe 081c 623e e982 b7be 51e3 67bd
000000d0: ea28 07bd 8bb6 9a3e 7255 1dbe 70b4 b43d
000000e0: b8ac babd bd58 aebd 8fdf 9bbd 13b8 f8bd
000000f0: 5e59 e1be b3ac 9dbe e60d 6bbe 3bf0 74be
00000100: fe15 193d 3aa1 7fbe 0d9c a73e 0863 90bc
00000110: e83f e3bd c840 d03d 9fc8 57be 38d1 50be
00000120: fe35 4ebe 06fa f5bd 25cb 62be 4abb 5cbe
00000130: 944a 38be 3b54 3ebe bf35 543e 6cfe 38be
00000140: e37c 18bd c28f 9d3d a8f7 a3bd 57b2 efbd
00000150: dfb5 113e 051c 89be 2ba8 973d eade fa3d
00000160: 227a cdbe 52cc babe 6ae8 4ebe 3932 b3be
00000170: 5e97 34bd c535 a8bc 4620 9ebd f7f6 96bd
00000180: 8409 86be b2b1 603b b32b 373e 2fd5 14be
00000190: 1864 9ebd b6e3 7abe 8644 50bd 974b c13d
000001a0: b995 b1be d8bc 8abc 405f 6d3e 75f8 e2be
000001b0: 1f02 1fbd 0169 f1bc cb2d b4bd baa5 0a3d
000001c0: 5e18 093d 8425 a6be 7a7c 50be 5fa7 cbbd
000001d0: 7c46 93bd df4b 24be 5253 b8bd 1f16 81bd
000001e0: c84b 9fbe 2f82 da3d 8f3e 6dbe e0fb bf3d
000001f0: 9607 b8bc 030d ec3d 60d3 34be 2015 103e
00000200: 6988 27be 9baf ba3b 44b9 64be f261 36be
00000210: 2da3 c1be 08ff 03be d242 b3be 8363 c5be
00000220: 1f45 133d 2109 ecbb 4460 1abe 56f6 edbd
00000230: 28b6 b53c fba9 df3c 81cd 5dbe d569 75be
00000240: b759 713d aa09 8e3e 3e43 adbe 0b96 f4be
00000250: 215f b6bd e73f cbbe 6074 59be 6153 59be
00000260: ee22 a1bd 6b9b 35bd 2e54 87bb 245b fabd
00000270: 9c05 35be 3e82 8c3c 3ac2 853e 9e39 64bd
00000280: 0808 02bc d755 e63d aaba 08be bb5e 8abe
00000290: 439e 9e3d b5a9 e53c 9e47 38be 8e79 0b3e
000002a0: cf05 a33d ec71 38be 56dd b6bd 4f01 88be
000002b0: bcb6 733e c3a5 c0be 638f 213e 98fc e9bd
000002c0: 8da1 96be 4135 b0bd 78ed 7cbd b3c2 313d
000002d0: dd0b 833c 2e16 23be 8614 76be 366d 40be
000002e0: 28ed 3ebe 9ecc 523e 89dc f6bd 7dec b1be
000002f0: f581 8bbe 8936 8fbe 5647 babe e2f8 d7be
00000300: e7a7 b33c fe28 bf3d 9242 b93d a3dd f0bd
00000310: bc7d 8abe 0580 fcbd 05bc 06be 412c d63d
00000320: 9ef2 9dbd 3ab0 c2be e583 3dbd c193 463d
00000330: 1b6e bd3d 0d8a 7d3e e82d 903d bdf9 d1be
00000340: 797e 733c bdcf 27be a808 5e3d b654 5ebe
00000350: 8440 79be 54cf 9abd 206f 3a3e 847f f0bd
00000360: 6488 833d 17cb ccbb 2c03 9ebe 3f1f 353d
00000370: 4fe8 a4be d26d 8abe 3190 6f3e db44 94be
00000380: f9f9 02be 530c f7bd 11a9 a23d 3dfd 78be
00000390: 63fa 423d 8e6c dabe 13ac d53b 5f20 27be
000003a0: d990 723b a62a e2be 7558 76be 8d23 9b3d
000003b0: efee 183e f63c 353d cb31 adbe 0124 3abe
000003c0: f8b6 3bbd 301d aebe 62e4 513e 6bd9 bebe
000003d0: b9c6 67bd 2d49 823e 790e 02be c513 aabe
000003e0: d7bd 0ebd 018b 063e a77a 28be d89f aebd
000003f0: 370e 88be 6fc1 67be c7d3 e1be 3d85 dabe
-0.16131921 -0.14426625 -0.11095815 -0.07764491 -0.22033854 0.14688252 -0.23999216 -0.18488753
-0.1481537 0.041129824 -0.091188245 0.23711532 0.16631827 -0.0006406632 0.11075491 0.0821202
-0.16861865 -0.00017570278 0.061510872 -0.22926392 0.18673038 0.19912532 -0.1267933 -0.17009668
-0.26275212 -0.05623193 -0.287559 -0.11694722 -0.026460487 -0.32010365 0.030221445 0.014142778
-0.055802513 -0.018873617 -0.264405 -0.08286909 0.13155808 -0.2562748 -0.1311499 0.0015261678
0.15477097 -0.014536024 0.023962516 0.07536275 0.19091943 0.05491134 0.049032867 -0.42581236
-0.24432673 0.22081006 -0.35842064 -0.05661327 -0.032998003 0.30217394 -0.15364626 0.08823478
-0.09114975 -0.08513019 -0.07611 -0.12144484 -0.44013494 -0.30795822 -0.2295452 -0.23919766
0.03737449 -0.24963847 0.32736245 -0.017625347 -0.110961735 0.10168606 -0.21072625 -0.2039231
-0.20137784 -0.12010579 -0.22147806 -0.2155582 -0.179972 -0.18586819 0.20723628 -0.18065804
-0.037228476 0.07693435 -0.08006221 -0.117039375 0.14229535 -0.2677919 0.07405122 0.12249549
-0.40132242 -0.3648401 -0.20205846 -0.34999254 -0.044089667 -0.020533452 -0.077209994 -0.073713236
-0.26179135 0.0034285602 0.17887764 -0.14534448 -0.07733935 -0.24500927 -0.0508466 0.09438246
-0.34684542 -0.01693575 0.23180866 -0.44330183 -0.038820382 -0.029469015 -0.08797797 0.033849455
0.033470504 -0.32450497 -0.20359984 -0.09944033 -0.07191178 -0.16044568 -0.09000267 -0.063030474
-0.31112504 0.10669362 -0.23168395 0.09374213 -0.022464555 0.11525919 -0.17658758 0.14070559
-0.1636063 0.0056972033 -0.22336298 -0.178108 -0.37819806 -0.12890255 -0.35011917 -0.38552484
0.03595459 -0.0072032367 -0.15075785 -0.116192505 0.022181585 0.027302733 -0.21660425 -0.23966153
0.05892345 0.27741748 -0.33840364 -0.47770724 -0.08904863 -0.3969719 -0.212358 -0.21223213
-0.078679904 -0.04433767 -0.004129908 -0.12224415 -0.17677921 0.017151948 0.26124746 -0.05571901
-0.007936485 0.112468414 -0.13352457 -0.270254 0.0774503 0.028035024 -0.1799607 0.13620588
0.07960092 -0.18012208 -0.08928935 -0.26563498 0.23800176 -0.37626466 0.15777354 -0.114251316
-0.29420128 -0.086039074 -0.061749905 0.04339857 0.015996868 -0.1592643 -0.24031267 -0.1879166
-0.18645155 0.20585868 -0.120537825 -0.3475074 -0.27247587 -0.27971295 -0.3638255 -0.4218207
0.021930648 0.093339905 0.090459004 -0.11761024 -0.27049053 -0.12329105 -0.13157661 0.104576595
-0.07712291 -0.38025075 -0.046268363 0.048480753 0.092495166 0.24759693 0.07040006 -0.41010848
0.014861696 -0.1638784 0.054207474 -0.21712002 -0.24341017 -0.07559076 0.18206453 -0.11743072
0.06422499 -0.006249796 -0.30861795 0.04421925 -0.32208487 -0.2703691 0.23394848 -0.28958783
-0.1279067 -0.120628975 0.07942403 -0.24315353 0.04760207 -0.42660946 0.006520757 -0.16320942
0.0037012605 -0.44173163 -0.24057181 0.0757514 0.14934896 0.04424759 -0.33827052 -0.18177797
-0.04582879 -0.34006643 0.20497277 -0.37275252 -0.056586 0.25446454 -0.12700833 -0.33218208
-0.034849014 0.13138963 -0.16453038 -0.085265815 -0.26573345 -0.22632383 -0.44106886 -0.42679778

hidden2.weight f4 [256, 256]
00000000: 6aa2 d7be 02c4 363d c9fc 8ebc 4dd4 0fbd
00000010: 05e2 6ebd 5a4b 213d 117d 0dbd dc0a 57be
00000020: 8cb5 50bd e4ab 05be 5b61 b53d afff 073d
00000030: 1c69 f9bc 4215 cabd 98db 35bd 92cb d4bd
00000040: 12fe 773a 264b 86bd 16ec 56bc ec7a 3cbc
00000050: fdf8 d9bc 181c e6bc f481 813d 0474 1fbe
00000060: 9b6d bbbd 38f7 263d 2b9d dcbd 32d6 913c
00000070: b89c 23be 2c48 143d f4e3 433d 7e1d 153c
00000080: 8bad 36be cd09 e53c 28fa 75be 5213 1bbd
00000090: b8ee e73d 9c0b 833d 5945 c53a 1393 e4be
000000a0: 5ffb 033e cf09 353d dcac 37bd a2ed 0b3e
000000b0: e80f 1d3d bb23 f0bc 6ad6 883d b4af 76bc
000000c0: 0815 bbbd b713 a9bb f373 f5bd ffe4 d4bd
000000d0: 0bdd dfbd 1d5f 99bc 2bae 393c f3c2 ccbd
000000e0: 008f 613d a091 90bb 649a 783b dd3b e6bb
000000f0: cd6b 78bd 1e50 19bd b446 30bd f003 c03d
00000100: 99b9 f1bd 6cdd 9ebc 19cf 923c 85bd b13c
00000110: 2d68 59be 399c a7bd 0323 b63b 9cee 003d
00000120: a059 963d 5adc 1a3d cb07 0abe 0429 42bd
00000130: bf77 55bc 2880 ddbc ff9d 0dbd 18ed bf3c
00000140: 1db2 a4bc 0c6b f73d e642 bdbd 84cc 3e3b
00000150: bd94 803d 0e2d e8bc e984 633d 4878 b13d
00000160: a522 99bc 7772 b23b 384d 9a3d 6fd3 aa3c
00000170: b7e2 06be 2e38 9ebd 3bfa babd 0705 96bd
00000180: 3a84 bfbd 49c9 ad3d d3ea 88bd d656 803d
00000190: dbc6 993d abf9 0abe b9b5 43bd 3c70 5dbd
000001a0: 1c91 f53c ba85 2dbe 587c a4bd d82d 02be
000001b0: 0f78 96bb 3f79 49be ef86 e63b af8c 42bd
000001c0: 2f5d acbc 3f10 8dbd 10cf e9bc a065 10bd
000001d0: fbf9 0dbd d4e6 71be 5b1d 8abd 1a6a a4be
000001e0: 2581 5abb fad3 79bd 299d 273d a181 ec3d
000001f0: dbb3 7ebd e67e 5abd f117 94bd 24de a43c
00000200: 4234 613c aa6e 04bd 20fa 6abc cf8d d8bd
00000210: c875 0abe 923d 1abd 5955 eebd d613 0cbe
00000220: a79b 0ebe 572c 883d f8e9 9abd 5ffe 933b
00000230: 0a72 f0bd 7d5f d8bd bc0f 5cbe a5d1 be3d
00000240: ab3b 02bd ecc1 9e3c 10f7 043c 4328 02bd
00000250: 0838 143c 54fa 86bd 6252 b93d be81 543d
00000260: 7f83 fa3d 93ed dcbb f074 edbe e66a 06be
00000270: c20a b5bc b846 473d efbe 7f3c 25cf 18be
00000280: 348a 183d 2d48 8f3d 08eb d93d 7a11 bbbc
00000290: fe44 97bd f84b 493d 60aa 22bd c8c2 5c3d
000002a0: 863d a63d 1871 7bbe 30fc 533d b671 75bd
000002b0: 4572 ff3d 1a86 f7bc ebdc 13bd f4d8 17bd
000002c0: 37f9 873d 3141 4bbd 65db c93d d4d3 fbbd
000002d0: 9680 a13d 93ce 233d b2f7 673d 8695 65bd
000002e0: a508 9bbd dbad a43d aaae a0bc 9f86 9cbc
000002f0: aac8 7f3c 28f4 4b3d 7792 99be cd28 18bd
00000300: be84 763d 22ee c8bd cd59 3b3e 4dee 71bd
00000310: 8d4c 423d c309 b7bd 6213 49bd c876 823d
00000320: 7497 903c 1aef 163d 315b 443d 72e3 18bd
00000330: 0882 533d 6e90 bf3b 0dda dfbc bec1 aebe
00000340: 4ecb 86be 8df4 943d c534 eabc f47b 443d
00000350: bdd3 0fbe 0292 cabc 5e50 0ebd b1b0 bebe
00000360: f2ad 93bd d4be bfbd f30b a5bd 75a1 22bd
00000370: cfdd cb3d 6644 8bbd 368a 82bd 8f5b c63d
00000380: 59f5 44bc 6223 b3bc d468 4b3d 9a18 24be
00000390: a38d cd3c 9ef5 963d e29f e73c f599 25bd
000003a0: c7fc 8f3d 8685 243e 9832 64bd c522 bbbd
000003b0: 04c7 53bc b7fa 38bc c2e9 5e3b 068d 353e
000003c0: 5589 09bd 848e e6bc 038a 973d da99 cdbd
000003d0: 7590 38be c812 a93d f3fc 973d 50c5 ec3c
000003e0: 4075 c8bb af82 2bbd 283a 033d 71d1 bd3d
000003f0: c215 18ba ada0 03be 6feb 4f3d 2ab0 bcbc
-0.421161 0.04462052 -0.017454522 -0.035114575 -0.058321018 0.0393785 -0.0345431 -0.21000236
-0.050954387 -0.13053852 0.0885646 0.033202823 -0.030445628 -0.09867336 -0.044398874 -0.103903905
0.00094601617 -0.06557302 -0.013117811 -0.011503916 -0.026607985 -0.028089568 0.06323615 -0.155716
-0.09151765 0.04076311 -0.10772165 0.017802332 -0.15977752 0.03620164 0.047824815 0.00910127
-0.17839639 0.027958775 -0.24021208 -0.037860222 0.11324829 0.06398699 0.0015050574 -0.4464346
0.12888859 0.044198807 -0.044842586 0.13664868 0.038345248 -0.029313913 0.06681521 -0.015056539
-0.09134871 -0.005159821 -0.11985006 -0.1039524 -0.109308325 -0.018722111 0.011333029 -0.09998121
0.055068016 -0.004411891 0.003793382 -0.007026179 -0.06064968 -0.03742992 -0.043036178 0.09375751
-0.11802978 -0.019392692 0.017921017 0.021696815 -0.21231146 -0.08184094 0.005558373 0.031477556
0.07341313 0.0378078 -0.13479535 -0.047402397 -0.013029038 -0.027038649 -0.034574505 0.023428485
-0.020104462 0.120809644 -0.092412755 0.00291136 0.062783696 -0.028341796 0.055546675 0.0866552
-0.018693278 0.005445774 0.075342596 0.020852773 -0.13172422 -0.07725559 -0.09129759 -0.07325178
-0.09351392 0.08485658 -0.06685414 0.06266563 0.07508632 -0.13571803 -0.047780726 -0.054062113
0.02997642 -0.16945544 -0.08031529 -0.127128 -0.004591949 -0.19675158 0.0070351283 -0.047497448
-0.021040527 -0.06887864 -0.028541118 -0.035253167 -0.034662228 -0.2362321 -0.0674388 -0.321122
-0.0033341136 -0.060993172 0.040921364 0.11548162 -0.062183242 -0.053343676 -0.07231129 0.020125456
0.013745369 -0.0323321 -0.014341861 -0.10573923 -0.13521492 -0.037656374 -0.116373725 -0.13679442
-0.13926564 0.06649082 -0.07564157 0.0045164074 -0.11740501 -0.10565088 -0.21490377 0.0931733
-0.031795185 0.019379579 0.008115545 -0.031776678 0.009046562 -0.06590715 0.090489164 0.051881544
0.12232112 -0.0067421882 -0.4637828 -0.13126716 -0.022099856 0.048651427 0.015609487 -0.1492277
0.037241176 0.06996188 0.10640532 -0.022835482 -0.07386206 0.049144715 -0.039713264 0.053896695
0.081172034 -0.2455486 0.051754177 -0.059922896 0.12472967 -0.030215312 -0.036099356 -0.037072137
0.06639331 -0.04962272 0.09856299 -0.122962624 0.07885854 0.039991926 0.056632705 -0.0560508
-0.07570008 0.08040973 -0.019614536 -0.019107161 0.015611807 0.049793392 -0.29994556 -0.037148286
0.060185187 -0.09811045 0.18295975 -0.059065152 0.047436286 -0.08937409 -0.04909075 0.06370312
0.017650343 0.03684912 0.04793853 -0.037326284 0.05163768 0.005846075 -0.027325654 -0.3413219
-0.26326984 0.07273207 -0.028589616 0.047969773 -0.14045615 -0.024727825 -0.034744613 -0.3724418
-0.07210912 -0.093625695 -0.0805892 -0.03970476 0.09954416 -0.06800155 -0.06374018 0.09685432
-0.012021386 -0.021867458 0.04966052 -0.1602501 0.025091952 0.073710665 0.02827448 -0.040430028
0.07030635 0.1606656 -0.055712312 -0.09137491 -0.012925867 -0.011290244 0.0034013842 0.17729577
-0.033578236 -0.028144129 0.073993705 -0.100391105 -0.18023856 0.08255535 0.07421293 0.02890268
-0.006117493 -0.041872676 0.032037884 0.092684634 -0.0005801582 -0.12854262 0.050761636 -0.02303322

hidden2.bias f4 [256]
00000000: 6568 693e 760b a53d 4f8f 8cbd 5435 663d
00000010: f7f7 263e a878 cdbc 74ab af3d dea8 6bbd
00000020: 1e1e 06be 9441 ca3c 1c86 a9bd 2c6e ff3d
00000030: a375 843d 5f8a ae3d 919a 8e3d 4006 0f3e
00000040: a655 183c 6df4 3abd ad62 953d 7b07 d9bb
00000050: be5e 213e 8ed4 19be 43ab fdbc 455e 5abd
00000060: 97ab 12bd 8442 223e 4c39 a0bb b9a3 81bd
00000070: 9bae ef3d c5d8 ef3d 8e08 64bb 863f fcbc
00000080: bd4a 0c3e ccba 893c 749f 053b 8a07 2d3d
00000090: 729e ddbd 2c4d f0bd 5682 013e 18cc 903d
000000a0: 66aa 2cbd dd90 143e 3189 08be c665 7dbe
000000b0: b385 e9bd 2cff d9bd 6f9e d53b f2e8 93bd
000000c0: a63a 16bd b9c3 28be d48a fdbc 5460 7cbd
000000d0: e301 49be de94 30bd dad3 bcbd 6586 cebd
000000e0: 344d 893b d5a7 93bd 9d3e 213c 3c9f e1bd
000000f0: 3c18 a8bc 346a d3bb a268 a63d 7cc0 ac3d
00000100: 272a debc 9735 9cbd d066 ce3d ae4a 40bd
00000110: 76ec 5ebd 940f 483d b422 c9bb b7c0 1fbd
00000120: 1f55 ed3d 4d7f 78bd a01b 66be a67e 42be
00000130: 8445 fabc f232 49ba c324 02bb df05 31bd
00000140: e1c0 96bd 3183 9c3b af89 813d 0e55 a83e
00000150: 6699 343d 7e12 5e3d 29d4 cdbc 701d 8fbd
00000160: 9c10 93bb 04e4 183d 9608 453c 6b46 c93b
00000170: 91d3 adbd 8c5d 243e 351c 1ebd 8407 20be
00000180: d3f0 ecbc ddb6 0f3e 30ce f1bc 2a2b e8bd
00000190: 9409 123e 44d5 f43d a2a6 cdbc 0164 b8bd
000001a0: 3788 4a3e e37a 923d 6f83 013e 4c83 013c
000001b0: 6c61 8d3d f6fd f13d a26d 81bd f7e7 adbd
000001c0: 4ece ea3d 1250 ca3d ff60 8a3d cf8c de3c
000001d0: e31a fe3c 45b7 12bd 5e15 cf3d 82f8 fbbc
000001e0: bffd b1bc 290a b3ba ce11 4bbd 9ec2 093e
000001f0: 9928 0abb 67a3 f23d 64a5 ce3d 1f4c f73c
00000200: 2638 aabd b55c 17bd e45d 0c3d 72b9 5ebe
00000210: 6272 d53b f1d9 213d 2048 53bd 440e a1bc
00000220: 0474 90bd ad63 493e 42ec 243e 5491 35bd
00000230: 0c29 923e e2d1 e83c e6a7 35bb 01de 0abe
00000240: d65d 1cbd d021 b1bd 4758 09be dc9f 9e3c
00000250: c683 33bb 601a e63d 696f 74bd bd42 c8bc
00000260: fea6 823e 2b99 fdbc fbe5 7dbd 833d 0ebe
00000270: f143 113e 4a97 cfbd 5891 dbbc 05b9 4cbe
00000280: 3925 863e 9c50 97bc aef5 6abd d3c8 dd3d
00000290: 711a 26be 36d0 0cbd c0d5 033c 383a a4bd
000002a0: e9d0 b23d f8d1 d6bd 97ed a33e 2457 063d
000002b0: 58c8 0e3e 2f52 c83d a219 acbd 4a17 e13d
000002c0: c70b 1ebe 2f2a 0d3e 43e4 2fbd 2794 4c3d
000002d0: 2294 2ebd 557a 95bd f0ac a73c 0b65 7f3b
000002e0: 2f56 bd3c dfcf 523c 53ed bfbd b255 0b3e
000002f0: e032 e43c 6ec1 36be e152 c93d c0c9 933d
00000300: fbf6 b33d 9ad4 8a3c 9c0e a8bd ae30 08be
00000310: 7deb da3c da75 73bd db41 13bc 8c7a b1bd
00000320: fb60 e13d d31b 993d 76f6 f0bd 4e11 c3bc
00000330: 6b35 b53d 018c ca3b e9fd 0bbd 6df9 1bbd
00000340: 862c ef3d c56f 22be 5a5a f9bc 2946 1abe
00000350: 5d22 a2bd 02b2 76bd 9ef4 cb3d 77ff 3fbd
00000360: 32b7 e73c 43dd d43d d448 c4bd 466a 52bc
00000370: 5523 8bbd 4391 1b3e be8b b2bc 584a d1bd
00000380: 57f7 623b d393 80bd 7205 6f3c 2293 fb3d
00000390: 3157 233e 6880 1f3d 738e a83d 31f7 4abd
000003a0: 1a2b a9bd ddf3 70bd 808d c0bd aed4 b83c
000003b0: 74dc d1bd 2505 ac3d 5f0b a23d e133 8a3d
000003c0: 3d04 823d a85d 243e af90 80bc 0f10 28bd
000003d0: 9f1f d9bc 8a3a 533d f622 9e3d e584 b2bd
000003e0: 525b 45bd 79fa 90bc 9360 833d 491d c3bd
000003f0: 8f4b 00bd dd83 893d 5550 ecbc 9082 483c
0.2279373 0.080588266 -0.068632714 0.0562032 0.16305529 -0.025081947 0.08577624 -0.05753409
-0.13097426 0.024689473 -0.082775325 0.124721855 0.0646775 0.08522486 0.06963075 0.13967228
0.009297764 -0.04564326 0.072942115 -0.006623206 0.15758798 -0.1502249 -0.030965453 -0.05331256
-0.035808172 0.15845686 -0.004889643 -0.06330056 0.11703225 0.117112674 -0.0034795138 -0.03079201
0.13700385 0.016812705 0.002038923 0.042243518 -0.10821237 -0.11733469 0.12647375 0.07070178
-0.042154692 0.14508386 -0.13333584 -0.24745855 -0.11402454 -0.10644373 0.006519131 -0.07222165
-0.036677025 -0.16480912 -0.030949987 -0.061615303 -0.19629626 -0.04311072 -0.09220095 -0.100842275
0.0041901115 -0.07209746 0.009841588 -0.110167 -0.020519368 -0.0064518694 0.08125426 0.08435151
-0.02711971 -0.07627409 0.10078204 -0.04694622 -0.054424725 0.04884298 -0.00613817 -0.039002147
0.11588501 -0.06066828 -0.22471476 -0.18993625 -0.030550726 -0.0007675133 -0.0019858337 -0.04321849
-0.073610075 0.0047763814 0.06325089 0.32877392 0.044091605 0.054216854 -0.02512558 -0.06988037
-0.004488064 0.037326828 0.012025973 0.0061424277 -0.08487619 0.1605131 -0.03860112 -0.15627867
-0.028923428 0.140346 -0.029517263 -0.11336358 0.14261466 0.1195474 -0.02510387 -0.09003449
0.19778524 0.07152345 0.12647794 0.007904839 0.069033474 0.11816017 -0.06319739 -0.084915094
0.11465131 0.098785535 0.06756782 0.027166752 0.03101868 -0.03581931 0.10111497 -0.030758146
-0.02172744 -0.0013659644 -0.049577527 0.13453147 -0.0021081327 0.11847573 0.100901395 0.030187665
-0.08311491 -0.036953647 0.03426923 -0.2175043 0.0065138796 0.039514486 -0.051582456 -0.019660123
-0.07053378 0.1966693 0.1610575 -0.04432805 0.2854694 0.028420392 -0.0027718483 -0.1356125
-0.038175426 -0.08649027 -0.13412581 0.019363336 -0.0027391776 0.112354994 -0.05967656 -0.024445886
0.2551803 -0.030956825 -0.061986905 -0.13890652 0.14186074 -0.10136278 -0.026802704 -0.19992454
0.26200274 -0.018471055 -0.057363205 0.1082932 -0.16221024 -0.034378253 0.008046567 -0.08018917
0.08731253 -0.10489267 0.32017204 0.032797948 0.13943613 0.097813 -0.084033266 0.1099077
-0.1543418 0.13785623 -0.042942297 0.049945977 -0.04262174 -0.072987236 0.020468205 0.0038970138
0.023112385 0.012866943 -0.09371438 0.13606909 0.02785629 -0.17847225 0.09830261 0.07216215
0.08787342 0.01694708 -0.082059115 -0.1329982 0.026723618 -0.059438564 -0.008987869 -0.08665952
0.11004826 0.0747601 -0.11765759 -0.023811962 0.08848079 0.0061812405 -0.034177694 -0.038079668
0.11678414 -0.15862949 -0.03043859 -0.15065826 -0.079167105 -0.060228355 0.099587664 -0.04687449
0.028285597 0.10393765 -0.09584203 -0.01284272 -0.067938484 0.15192132 -0.02179515 -0.10219258
0.003463229 -0.06278195 0.014588701 0.12283923 0.1595123 0.038940817 0.08230295 -0.049552146
-0.08260174 -0.058826316 -0.09401989 0.022562351 -0.10247126 0.08399419 0.07912325 0.06748176
0.06348465 0.16051352 -0.01569399 -0.04103094 -0.026504336 0.0515695 0.07721512 -0.08716754
-0.048182793 -0.01769756 0.064149044 -0.0952707 -0.03132206 0.06714604 -0.028846899 0.01223816

out.weight f4 [1, 256]
00000000: ea53 093d b906 bc3d 1689 f7bb 1ba9 5c3b
00000010: f9db 6a3d 2b17 94bb e99d e53c 0d7a 38bc
00000020: 7073 17be 3c63 1a3c dee0 abbd 9593 02bc
00000030: 43b6 cb3b e8ba 0e3d ce5e fc3d fa93 3aba
00000040: 27af 9c3d 82b5 63bb b51e 8a3c 31ff 9cbb
00000050: 8c21 363a ec43 213c 4a88 8fbd 492d 483b
00000060: 4394 14be 5236 113d 58e9 843d 84de 62bb
00000070: 56dd 12bb 5536 bc3c d541 053b 5c0a e4bc
00000080: 53c4 0dbc 9460 2c3d e890 633d 79e9 2f3d
00000090: 783c a3bd fb17 333c 49f9 573d 7c0e 2a3b
000000a0: 849f 15bd f0a1 3e3d 282a d1bd 406b b8bc
000000b0: c3bb 703c 64e5 b7bd 9f45 d3bc 014f 57bb
000000c0: da44 4dbb feba 9abc 539d 2cbb 9a7f 4a3b
000000d0: f752 f7bd 6ec3 173c 8f8d 24bc a7bc f53b
000000e0: 193d b5bb 193b babc 5024 b23a b0e7 2c3b
000000f0: c73b 95bc 7493 9fbd 01c7 fb39 53ad 213d
00000100: f1a0 d7ba 39a6 6c3a 3fd0 f6bb 1bed 76bb
00000110: b826 413d f852 b2bc 4cd5 2e3b e8fe e83b
00000120: 2e1a 37bd 14fc 18bd 50b8 dabc 135e 80bd
00000130: 6832 7f3c ae20 5fbb 559a dd3c f755 04bc
00000140: d4bd 303b 5967 d2bc 3f2e 46bd 5dc6 be3c
00000150: d517 9b3c db7a 1bbc 3011 9f3c 16c0 00bc
00000160: c4db 883c 43ce 203d 4542 883b 5307 193d
00000170: e5db 603d 4f3b 62bb 62b2 0d3d eedb cbbc
00000180: 5ada 5bbd ab58 b7bb 6559 47bd 388b b6bb
00000190: 0995 4ebb 1055 57bb 464d a7bd fa96 8cbb
000001a0: a094 b03c 90b0 8b3d e80e 833c 7cbb 383c
000001b0: 283e 81ba 319d 12bc fe81 8dbb e557 19bd
000001c0: 6eb8 cb3c 60c7 a63d 67b1 0a3d ee74 73bd
000001d0: de58 1eba 691d 313d c123 233b 3dc0 ebbc
000001e0: a061 d0bd 9255 ab3a df23 363c da93 083d
000001f0: 358d 74bd b49d 8c3b d9c4 0cbe 4481 46bd
00000200: 9503 eb3a 4f98 1b3d e5d1 f6bc 303c 93bd
00000210: 4459 b4bb cde4 10bc 55b9 96bd c71d b83d
00000220: d337 b5bb 80cb 413d aa99 1d3d 50cb c03d
00000230: 68fa b8bd 8c8e 8c3d 49fb d5bc ca49 46be
00000240: 3b17 ddbd 709e f23c 121e bfbb 3340 93bb
00000250: 64d9 3f3c bab2 4b3b 5f3f 95bd bb3c a1bd
00000260: 22ca c33c ccb6 8dbb b8b1 1f3b 3d08 22bc
00000270: f50b 323d f4ee 72bb 1583 a4bc e1d9 603d
00000280: 6c7c 8f3c 1512 c0bd f7d9 b43b b166 fe3c
00000290: 992e 36be d47b 033c 4092 cebd 964d 49bb
000002a0: 2f4c 25bc 3dee a3bd e155 8f3c cffc aa3c
000002b0: 44eb 463c 6e38 adbc 873e de3a 7307 1abb
000002c0: 6c62 5abc e7bb c23b 62c1 06bd 702f 92bd
000002d0: 7724 21bb 13ff 7bbc 84f8 053c 6573 743d
000002e0: 405f df3c 5a13 893c 790d a83a 3dcb 0f3d
000002f0: 520f 1fbd 1650 2cbe ec79 34bc c156 e73c
00000300: 1890 c7bc d437 003a 7f16 51bd 7c3a 98bd
00000310: 7a38 f73b bbb6 58bb 3ec7 91bd fe76 49ba
00000320: e3e5 f4bb 0dec 123d cab1 133d 3ce6 38bd
00000330: fda3 2cbb d41e 3bbb 6843 df3d 964d fabc
00000340: b889 123c 4273 27bb 5559 adbd 1b58 0dbd
00000350: 84d9 c73b 1dcc 3abc 3b2d cebb e474 0d3b
00000360: 2ddc ca3c 9dd4 623c 2c8b 48be e001 48bb
00000370: 78ac 743d b5ed 4cbd 0a97 f0bc 0a4e abbd
00000380: a62e e7bb 91e6 973c 8fcc f03a f6fc 25bd
00000390: f7b8 2739 f1aa 4bba b309 26bd 83eb f63a
000003a0: 9647 f33c 039a 8d3a 7f9a ebbc fb5a 9bbb
000003b0: d8ad aebc b129 823c 41f5 36bc be37 e53c
000003c0: 4d8a 21bb b1d6 833d f1ca 06bb f677 bf3a
000003d0: 0b31 9b3a a542 903c 9bd9 98bb 5636 423b
000003e0: fba3 12bb c6f0 b33d 8440 cebb 370d abbd
000003f0: 0534 91bd 5b8d a1bc 04fe e83c c7f3 0b3a
0.033527292 0.0918097 -0.0075541837 0.003367013 0.05733869 -0.0045193634 0.028029399 -0.011259568
-0.1479013 0.009423073 -0.083924994 -0.007969757 0.0062167956 0.034846216 0.1232277 -0.0007117387
0.07650595 -0.0034745638 0.016860345 -0.0047911634 0.0006947748 0.009842854 -0.07008417 0.003054457
-0.14509682 0.035452195 0.06489819 -0.0034617493 -0.0022409759 0.022975126 0.0020333428 -0.027836971
-0.008652764 0.04208429 0.055558115 0.042947266 -0.07970518 0.01093101 0.05272797 0.0025948575
-0.03652908 0.046541154 -0.10213119 -0.022512078 0.014693203 -0.089793 -0.025790034 -0.0032853486
-0.0031321556 -0.018887993 -0.002633889 0.003089881 -0.12076371 0.009262903 -0.010043516 0.0074992958
-0.005530965 -0.022733258 0.0013591144 0.0026383214 -0.01821698 -0.07791796 0.0004802272 0.039471935
-0.0016451163 0.00090274547 -0.007532149 -0.0037677947 0.047156066 -0.021768078 0.0026677428 0.0071104653
-0.0447027 -0.037349775 -0.026699215 -0.06267943 0.015575983 -0.0034046578 0.02705113 -0.008077136
0.0026968615 -0.025684046 -0.048383947 0.023287946 0.018932262 -0.00948974 0.019417375 -0.007858297
0.016706355 0.039259207 0.0041582906 0.0373605 0.054897208 -0.0034520214 0.034593947 -0.024885144
-0.053675033 -0.005595287 -0.048669238 -0.0055707954 -0.0031521937 -0.0032857098 -0.081690356 -0.0042904587
0.021555245 0.06820786 0.015998319 0.0112751685 -0.0009860443 -0.00894861 -0.004318475 -0.03743734
0.024868216 0.081434965 0.03386059 -0.059437685 -0.0006040464 0.04324094 0.0024893137 -0.02877819
-0.101748705 0.0013071767 0.011116951 0.033344127 -0.059704978 0.0042912606 -0.13746966 -0.04846312
0.0017930145 0.03798705 -0.030129382 -0.07189214 -0.0055038054 -0.008843613 -0.07359568 0.089900546
-0.0055303364 0.047313213 0.038476624 0.09413779 -0.09032136 0.06863126 -0.026120799 -0.19364086
-0.107954465 0.029616565 -0.005832442 -0.004493737 0.011709545 0.003108187 -0.07287478 -0.078729115
0.023900095 -0.0043247696 0.0024367403 -0.0098896595 0.043468434 -0.0037068697 -0.020082036 0.054895286
0.017515384 -0.09378449 0.0055191475 0.031054826 -0.17791213 0.008025128 -0.10086489 -0.003071641
-0.010088964 -0.08004425 0.017497005 0.020872502 0.012141053 -0.021145072 0.001695589 -0.0023502975
-0.01332913 0.00594281 -0.032899268 -0.07137954 -0.0024588385 -0.015380639 0.0081769265 0.05968036
0.027267098 0.01673286 0.0012821398 0.035105933 -0.03883297 -0.16827425 -0.011015397 0.02823961
-0.024360701 0.00048911315 -0.051046845 -0.0743303 0.0075445743 -0.00330679 -0.071180806 -0.0007685273
-0.0074736937 0.035869647 0.036058225 -0.045141444 -0.0026342862 -0.002855231 0.109015286 -0.030554574
0.0089439675 -0.0025550877 -0.08464304 -0.034507852 0.006098928 -0.011401203 -0.006292013 0.0021584565
0.024763191 0.013844636 -0.1958434 -0.0030518696 0.05973479 -0.050031383 -0.029368896 -0.08364494
-0.0070551215 0.01854256 0.001837151 -0.040524445 0.00015995266 -0.00077693077 -0.040536594 0.0018838499
0.02969722 0.0010803345 -0.028760193 -0.0047410703 -0.02132313 0.01588902 -0.0111668715 0.027980682
-0.0024649084 0.064374335 -0.002056774 0.0014607895 0.0011840177 0.017609904 -0.0046646125 0.0029634438
-0.0022375572 0.08786158 -0.006294312 -0.0835213 -0.0709 -0.019720724 0.028441437 0.0005338755
