model_weight/mqf1.pt (torch_old, 292889 bytes, 5 tensors)

hidden1.weight f4 [256, 26]
0	0xbcc90ef8	-0.02454327
1	0xbde12083	-0.10992529
2	0xbd6be408	-0.057590514
3	0x3d848176	0.06470005
4	0xbd2470b8	-0.04014656
5	0xbe0d0f6e	-0.13775417
6	0x3e459509	0.19295134
7	0x3dc8b3c6	0.09799914
8	0xbd1b1174	-0.03785844
9	0x3e29ed3f	0.16594408
10	0xbd5eafa0	-0.054366708
11	0xbd236d18	-0.03989896
12	0xbe0523ba	-0.1300191
13	0x3da34c0e	0.07973491
14	0xbe02a702	-0.12759021
15	0x3e06d497	0.13167034
16	0x3e0faefb	0.14031594
17	0x3e878bca	0.26473838
18	0xbdde24dd	-0.10846875
19	0x3dc90eca	0.09817274
20	0x3e1ec673	0.1550539
21	0xbdb0426d	-0.0860642
22	0xbbf2ddc0	-0.0074116886
23	0x3d383dd4	0.04498084
24	0xbdf51299	-0.11966438
25	0x3d6b22df	0.057406303
26	0x3e253719	0.161343
27	0x3e3f2177	0.1866511
28	0xbdde8c15	-0.10866562
29	0x3e3ba2cb	0.1832382
30	0xbdfd8610	-0.12379086
31	0x3de8a756	0.11360042
32	0xbcb331e0	-0.021874368
33	0x3ca121e8	0.019669488
34	0xbe403b37	-0.18772589
35	0x3e1167e3	0.14199786
36	0xbdb09dbb	-0.08623835
37	0x3cdfb490	0.027307779
38	0x3d79fc9c	0.061031923
39	0x3c0d5e90	0.0086285025
40	0xbe2f731d	-0.17133756
41	0xbda4ed05	-0.080530204
42	0xbd6b5b5a	-0.057460167
43	0xbe0ce01c	-0.13757366
44	0x3d5ba7ac	0.0536267
45	0xbdf8c421	-0.121467836
46	0x3db2eef2	0.087369815
47	0xbe23540f	-0.15950035
48	0x3da4f22a	0.08054002
49	0x3e473793	0.19454794
50	0xbe34918f	-0.17633651
51	0xbd2441c4	-0.04010178
52	0xbc70c0a0	-0.014694363
53	0xbdc1db53	-0.09465661
54	0xbd700064	-0.058594123
55	0xbe120f2f	-0.14263605
56	0xbde6eb36	-0.11275332
57	0xbcaca5c0	-0.02107513
58	0x3dfb825a	0.12280722
59	0xbc5f7130	-0.013637826
60	0xbd07bfdc	-0.033141956
61	0xbd06f118	-0.03294477
62	0xbd9422de	-0.07233213
63	0x3e1ccdd7	0.15312897
64	0xbe34828a	-0.17627922
65	0x3e0ef00f	0.13958763
66	0xbd001f9c	-0.031280145
67	0x3dd4f6fe	0.103986725
68	0x3cea922c	0.028634153
69	0xbdea61a7	-0.11444407
70	0xbe1c6956	-0.15274557
71	0xbcc092c0	-0.023507476
72	0x3d3440a4	0.04400696
73	0xbe9de59e	-0.30839247
74	0x3d45f038	0.048324794
75	0xbe03b45a	-0.12861767
76	0x3e86389b	0.26215062
77	0xbe8d2f31	-0.27575067
78	0x3e33eb23	0.17570166
79	0x3d821fd2	0.063537255
80	0x3d8529f2	0.06502141
81	0xbdb459b2	-0.088061705
82	0xbe138e91	-0.14409854
83	0x3c8c6258	0.017136738
84	0x3d79514c	0.060868546
85	0x3d9e6ed2	0.07735981
86	0x3e076481	0.13221933
87	0x3e3f6745	0.18691738
88	0xbd392450	-0.045200646
89	0xbe23eb98	-0.1600784
90	0x3d521b08	0.05129531
91	0xbdb9c430	-0.09070623
92	0xbd285b4c	-0.041102692
93	0xbd6420d0	-0.055695355
94	0x3da43ca5	0.080193795
95	0xbc37508d	-0.011188638
96	0xbdd22a9f	-0.102620356
97	0x3da175de	0.078838095
98	0x3e1510b6	0.14557156
99	0xbdac6b41	-0.084188946
100	0x3e130419	0.14357032
101	0x3bed9aa0	0.0072510988
102	0xbdac7e65	-0.08422545
103	0xbe889ef9	-0.26683787
104	0x3e30c805	0.17263801
105	0x3e384763	0.17995982
106	0x3e1783c5	0.1479636
107	0xbdb74152	-0.08948006
108	0x3c21fd20	0.00988701
109	0xbe3c2301	-0.18372728
110	0x3de50fc6	0.11184649
111	0xbdeb2c84	-0.114831
112	0xbdb786e8	-0.08961278
113	0xbd42fec8	-0.04760626
114	0xbc986bd0	-0.018606097
115	0xbd07fee8	-0.033202082
116	0xbd96c128	-0.073610604
117	0x3bf32640	0.0074203312
118	0x3c423b90	0.011855021
119	0xbcdc47b8	-0.026889667
120	0xbde45fce	-0.11151086
121	0x3e033b05	0.12815483
122	0x3e067ca9	0.13133492
123	0x3e27c435	0.16383441
124	0x3d6b5fcf	0.057464417
125	0x3e3c2bc6	0.18376073
126	0x3d52a5e8	0.05142775
127	0x3d560960	0.052255034
128	0xbe8bac28	-0.27279782
129	0xbdb13dff	-0.08654403
130	0xbe3219dc	-0.17392677
131	0xbe213d7a	-0.15746108
132	0xbcb4bcb0	-0.02206263
133	0xbe3d235c	-0.1847052
134	0x3c1eb820	0.0096874535
135	0xbc9500a0	-0.018188775
136	0x3d750694	0.059820727
137	0x3d418328	0.04724422
138	0x3e3cfacf	0.18455051
139	0xbe2d0ec2	-0.16900161
140	0x3c9bba08	0.019009605
141	0xbe3d76ed	-0.18502398
142	0xbe47b2d3	-0.1950181
143	0xbe18eb2d	-0.14933462
144	0x3da9e20a	0.08295067
145	0xbd6c0e24	-0.057630673
146	0x3df0d9f6	0.11760323
147	0xbda42b92	-0.08016123
148	0xbdfa1c0b	-0.1221238
149	0xbe40e619	-0.18837775
150	0x3e0cefaf	0.13763307
151	0x3e003333	0.12519531
152	0xbd560474	-0.05225034
153	0x3bcafe40	0.0061948597
154	0x3eea6608	0.4578097
155	0xbdfcaa95	-0.123372234
156	0xbe3603c6	-0.17774877
157	0xbe3e2902	-0.1857033
158	0xbdac7caa	-0.08422215
159	0x3d715acc	0.05892448
160	0x3d83917e	0.06424235
161	0xbe248bf3	-0.16069011
162	0x3d155f64	0.036467925
163	0x3e2adbcf	0.16685413
164	0xbda8ca71	-0.08241738
165	0x3e37165b	0.17879622
166	0x3dca09b6	0.098651335
167	0x3d20b0bc	0.039231047
168	0xbc2d8df0	-0.010592923
169	0xbdf70887	-0.12062173
170	0xbe107970	-0.14108825
171	0xbdafa70d	-0.08576784
172	0xbde65683	-0.112469696
173	0x3d2bb027	0.04191604
174	0xbe345ef9	-0.17614354
175	0xbd8204ac	-0.06348547
176	0xbd3cded9	-0.04611096
177	0xbe5392b3	-0.2066143
178	0x3c5eccf0	0.013598666
179	0x3d5d56c4	0.054037824
180	0x3ee0b951	0.43891385
181	0xbdc99f04	-0.09844783
182	0xbcded808	-0.027202621
183	0x3da66d02	0.0812626
184	0xbcb6b368	-0.022302344
185	0x3d49e56c	0.04929106
186	0x3ce78c18	0.028265044
187	0xbd46e738	-0.04856035
188	0x3e3f57b3	0.18685798
189	0xbc3768c0	-0.011194408
190	0xbe0c624e	-0.13709375
191	0x3cbda330	0.023149103
192	0xbe190242	-0.14942268
193	0xbd661f2c	-0.05618207
194	0xbe473895	-0.19455178
195	0xbe33a886	-0.17544755
196	0xbbdc8c80	-0.006730616
197	0x3c7bf150	0.015377358
198	0xbdd8338c	-0.10556707
199	0x3d127ee1	0.035765532
200	0xbde54bc1	-0.111960895
201	0x3da65332	0.08121337
202	0x3d59aff6	0.053146325
203	0xbe6551b8	-0.22394454
204	0x3df59cee	0.119928226
205	0x3e44406f	0.19165204
206	0x3e81dc79	0.2536352
207	0x3e6410db	0.22272055
208	0xbe3ac77c	-0.1824016
209	0xbcb82e80	-0.02248311
210	0x3d9decee	0.077112064
211	0x3e3390d1	0.17535712
212	0x3bce0520	0.006287232
213	0x3e0a6ecd	0.1351883
214	0x3dafab8a	0.0857764
215	0x3db047fe	0.086074814
216	0x3dadd78a	0.084883764
217	0x3d448818	0.04798135
218	0xbdd06201	-0.10174943
219	0xbd7bbb6c	-0.061458036
220	0xbe2aa512	-0.16664532
221	0x3e1ddb3b	0.15415661
222	0xbe1e4650	-0.1545651
223	0x3dab207e	0.08355807
224	0x3da1a8b0	0.07893503
225	0x3db956ab	0.09049734
226	0xbe10d1a2	-0.14142469
227	0xbd431c4c	-0.047634408
228	0xbe462ce1	-0.19353057
229	0xbdf02cf8	-0.11727327
230	0x3e359ca9	0.17735542
231	0x3d0b7970	0.03405136
232	0xbea5237e	-0.3225364
233	0xbd09e679	-0.03366706
234	0xbc5d5050	-0.0135079175
235	0x3d880756	0.06642024
236	0xbe43342a	-0.19062868
237	0xbdb8b58d	-0.09019003
238	0xbe122407	-0.14271556
239	0xbd4866dc	-0.04892622
240	0x3d69a2e4	0.05704011
241	0x3e437923	0.19089179
242	0x3bf3dac0	0.0074418485
243	0xbe3bf1f8	-0.18354023
244	0xbcd27368	-0.025689796
245	0xbe092d78	-0.13396251
246	0xbdd65287	-0.104649596
247	0xbe469dc5	-0.19396122
248	0x3e455acf	0.19272922
249	0x3d9caf32	0.07650603
250	0xbc5bc73c	-0.0134142
251	0xbd84da9c	-0.06487009
252	0xbd6d2268	-0.05789414
253	0x3db5c7be	0.088759884
254	0xba154c7c	-0.0005695296
255	0x3d00f25b	0.03148113

hidden1.bias f4 [256]
0	0xbe13acd2	-0.14421394
1	0x3e0b142c	0.13581914
2	0x3d87604b	0.06610163
3	0xbb8db197	-0.004324149
4	0xbc7e8d1c	-0.015536573
5	0xbd2ab6c3	-0.0416782
6	0x3de49274	0.11160746
7	0xbdb37da6	-0.087642
8	0x3e449dad	0.19200774
9	0x3e7605bc	0.24025625
10	0xbd34c99d	-0.044137586
11	0xbd1d8e79	-0.03846595
12	0xbdfce6fc	-0.12348744
13	0xbe0d510f	-0.13800453
14	0xbe2bf1af	-0.16791414
15	0xbe301d97	-0.17198788
16	0x3e3e3a2b	0.18576877
17	0xbdc75648	-0.09733254
18	0x3c0199b0	0.007910177
19	0xbe241105	-0.16022117
20	0x3cfb0421	0.030641617
21	0xbd85a3c6	-0.06525378
22	0x3e0107a7	0.12600575
23	0x3d3ff78b	0.046866935
24	0x3dec78ef	0.11546504
25	0xbe4db0c4	-0.20086962
26	0x3db58c22	0.08864619
27	0x3e0017aa	0.12509027
28	0xbdfe026e	-0.12402807
29	0x3de5fc74	0.11229792
30	0x3d0cd3cc	0.034381673
31	0xbd59da5c	-0.05318676
32	0x3d2a98f7	0.041649785
33	0xbc87c6ee	-0.01657435
34	0xbd529b96	-0.05141791
35	0x3be17e49	0.0068815094
36	0x3dcfc617	0.101452045
37	0x3d969558	0.07352704
38	0x3c4ffe1b	0.012694861
39	0x3e0eba61	0.13938285
40	0xbe43cf66	-0.19122085
41	0x3cb3fe84	0.021971948
42	0x3e110924	0.14163643
43	0x3df18d60	0.11794543
44	0xbe00083e	-0.12503144
45	0xbd7ffe94	-0.062498644
46	0x3d85d009	0.0653382
47	0x3e1b06db	0.15139334
48	0x3e1ac43a	0.15113917
49	0x3db513f2	0.08841695
50	0x3d1f06ed	0.038824964
51	0x3e1247df	0.14285229
52	0xbe351222	-0.17682698
53	0xbe650102	-0.22363666
54	0x3d21cc4d	0.039501477
55	0xbe8681ea	-0.26270992
56	0xbd6efdeb	-0.058347624
57	0x3d6f7758	0.058463424
58	0x3af7f79a	0.0018918396
59	0xbc5ba554	-0.0134061165
60	0xbdeb015b	-0.11474868
61	0xbd0cd196	-0.034379564
62	0xbe778667	-0.24172364
63	0xbdd5f041	-0.104462154
64	0xbe11a47a	-0.14222899
65	0xbcd90fa0	-0.026496708
66	0xbbeca064	-0.0072212685
67	0xbe513993	-0.20432119
68	0xbdcb6bed	-0.099326946
69	0x3ca3f3d4	0.020013727
70	0x3e2ad8b3	0.16684227
71	0x3c94f820	0.018184721
72	0x3d86257f	0.065501206
73	0x3e185272	0.148752
74	0x3d2fd4ca	0.04292754
75	0x3db5ed5e	0.08883165
76	0xbb3e3d69	-0.0029028303
77	0x3d7485a4	0.059697762
78	0xbd89d72f	-0.06730496
79	0xbe17cde8	-0.14824641
80	0xbc9f0611	-0.019412072
81	0xbe31db75	-0.17368872
82	0x3d7b5864	0.061363593
83	0xbdd297ec	-0.10282883
84	0xbdfaca78	-0.12245649
85	0xbd9fffad	-0.07812438
86	0x3d69eaef	0.057108816
87	0xbd30ae7d	-0.043135155
88	0xbe261cbc	-0.16221899
89	0xbdf20c90	-0.11818802
90	0xbd4ad106	-0.049515747
91	0x3e17eb4a	0.1483585
92	0x3e02d4dc	0.12776512
93	0x3c9cdb80	0.019147635
94	0xbd2dc852	-0.04242737
95	0xbc8e9865	-0.017406652
96	0xbcc57ce9	-0.024107413
97	0x3c2ce419	0.01055243
98	0xbe01b7cc	-0.12667769
99	0x3ce66597	0.028124614
100	0xbe14e471	-0.14540268
101	0xbdc08c92	-0.09401812
102	0x3e2be9a8	0.16788352
103	0xbdddd263	-0.10831144
104	0xbc41e2ea	-0.011833886
105	0x3c2f3354	0.01069339
106	0xbd7cae0b	-0.061689418
107	0xbdd557fd	-0.10417173
108	0x3db2e5fc	0.08735272
109	0xbe926db1	-0.28599313
110	0xbd5b36d9	-0.053519104
111	0xbe7d0b53	-0.24711351
112	0x3bf73aa7	0.0075448337
113	0xbdbb1812	-0.091354504
114	0xbcc84bfa	-0.024450291
115	0xbe3c70cb	-0.18402402
116	0xbc95aefb	-0.018271914
117	0x3e44713b	0.19183819
118	0x3da85f10	0.08221257
119	0x3cbf78ea	0.023373086
120	0x3cb0948d	0.02155521
121	0xbcbbc894	-0.022922792
122	0x3d411ea5	0.047148366
123	0x3d8c14da	0.068399146
124	0xbe0340f5	-0.12817748
125	0xbe66841e	-0.22511336
126	0x3dcd2351	0.10016502
127	0x3dba4283	0.09094717
128	0xbca19e3c	-0.019728772
129	0x3e00537d	0.12531848
130	0x3df9ca31	0.12196768
131	0x3dbc6297	0.09198492
132	0x3d7043ee	0.058658533
133	0x3dc8b0c9	0.09799344
134	0xbe65e3da	-0.224502
135	0x3e131aee	0.14365742
136	0xbcce8259	-0.025208639
137	0x3e16f397	0.1474136
138	0x3bdf4001	0.00681305
139	0xbdc7e848	-0.09761101
140	0x3c81bbc0	0.015836596
141	0xbd59b4d0	-0.05315095
142	0x3cf36da1	0.029715361
143	0x3da8f79e	0.08250354
144	0xbe30622c	-0.1722495
145	0xbe848d76	-0.25889176
146	0x3dd5c056	0.10437076
147	0xbe286213	-0.16443662
148	0x3d659891	0.0560537
149	0xbe2d0a71	-0.16898514
150	0x3e8f2464	0.2795745
151	0x3c400556	0.011720022
152	0xbdb80423	-0.08985164
153	0x3cd6e063	0.026230043
154	0xbe09f652	-0.1347287
155	0x3d5f1bbd	0.054469813
156	0x3b212ca6	0.0024593263
157	0xbce4740f	-0.027887372
158	0xbe34cd3c	-0.17656416
159	0x3de144c9	0.10999448
160	0x3e0427de	0.12905833
161	0xbe1714cf	-0.14754032
162	0xbe327d69	-0.17430653
163	0xbd96784d	-0.07347164
164	0x3de51c79	0.11187071
165	0x3da16b5e	0.07881807
166	0xbda154c4	-0.07877496
167	0xbd7b9ccd	-0.061428834
168	0xbdbc567d	-0.09196184
169	0x3da68d99	0.08132476
170	0x3a9e6100	0.0012083352
171	0x3da76e85	0.08175377
172	0x3e187170	0.14887023
173	0x3d8d4359	0.06897611
174	0x3e1d23c3	0.15345673
175	0xbe276932	-0.16348723
176	0x3cb203af	0.021730272
177	0xbe104ab7	-0.14091001
178	0x3ddc4039	0.10754437
179	0x3d1a7b21	0.03771508
180	0x3d95a4a2	0.07306792
181	0x3d9618c1	0.0732894
182	0xbdbc7995	-0.092028774
183	0xbd943f40	-0.072386265
184	0xbd93062f	-0.07178914
185	0xbd6bce0c	-0.05756955
186	0x3e02c342	0.12769797
187	0x3c7877c3	0.015165272
188	0xbe3b607d	-0.18298526
189	0x3de2c1d2	0.110721245
190	0xbdcd4f02	-0.10024835
191	0x3d41f29b	0.047350507
192	0xbda2884b	-0.07936152
193	0x3e167756	0.1469396
194	0x3d793ef9	0.06085107
195	0x3d8efea6	0.06982164
196	0xbe4c8c3c	-0.1997537
197	0x3e5181bf	0.2045965
198	0x3d5140ea	0.051087297
199	0xbe1a0ea0	-0.15044641
200	0x3e1a6815	0.15078767
201	0xbe046e6d	-0.12932749
202	0x3d430b68	0.0476183
203	0x3e097c42	0.13426307
204	0x3e01ce9e	0.12676474
205	0x3d866d09	0.065637656
206	0xbe969027	-0.29406855
207	0xbdb76112	-0.089540616
208	0xbdce5430	-0.10074651
209	0x3e0da5d3	0.13832788
210	0x3dafdf68	0.08587533
211	0x3e23beb4	0.15990716
212	0x3d5cc2a3	0.053896558
213	0xbd9d63b4	-0.076850325
214	0xbe5b0554	-0.21388751
215	0xbdc4e15f	-0.096132986
216	0xbd9b6434	-0.075874716
217	0xbd8a6918	-0.06758326
218	0x3e23abfc	0.15983576
219	0x3d1117d1	0.035423104
220	0x3dcdc264	0.10046843
221	0xbccad850	-0.024761349
222	0xbb016f97	-0.001975035
223	0xbd9a1a69	-0.075245686
224	0xbe2010c7	-0.156314
225	0xbdafeb5c	-0.08589813
226	0xbd95475f	-0.072890036
227	0x3e3e617b	0.18591873
228	0x3e336854	0.17520267
229	0x3be39174	0.0069448296
230	0x3d67d511	0.05659968
231	0x3d9fa831	0.07795752
232	0xbe0d5d2f	-0.13805078
233	0x3dde2558	0.108469665
234	0xbd4e032f	-0.050296005
235	0x3e54eaec	0.2079274
236	0x3d5e2f53	0.05424435
237	0xbd68c5f1	-0.056829397
238	0xbe177188	-0.14789402
239	0xbe656f4c	-0.22405738
240	0x3ccb23a7	0.024797274
241	0xbca42f38	-0.020042047
242	0x3d9af58d	0.07566366
243	0x3b7de85d	0.0038743236
244	0x3d17b1cc	0.037034795
245	0xbe2c0454	-0.16798526
246	0x3d935ded	0.07195649
247	0xbdf1b3de	-0.11801885
248	0xbdc8df8f	-0.098082654
249	0xbdc86e74	-0.09786692
250	0xbdb39d35	-0.08770219
251	0x3e06a9f8	0.13150775
252	0xbc3f262a	-0.011666814
253	0x3d2d2add	0.042277206
254	0x3d70a20d	0.058748294
255	0x3df79ca6	0.12090425

hidden2.weight f4 [256, 256]
0	0x3b931e9e	0.004489734
1	0xbd020f18	-0.031752676
2	0xbdc5f07e	-0.09665011
3	0x3d929fe3	0.07159402
4	0x3d27fd5a	0.0410131
5	0xbd4bdee6	-0.04977312
6	0xbc920f6e	-0.017829623
7	0xbd00f9ef	-0.031488355
8	0xbd207701	-0.03917599
9	0x3e19835e	0.14991519
10	0x3d2e0cd7	0.042492714
11	0xbd978aca	-0.07399519
12	0x3d3dbf11	0.046324793
13	0x3c2019a8	0.009771742
14	0xbd66ed78	-0.05637881
15	0xbc3321b2	-0.010933327
16	0x3b134100	0.0022469163
17	0x3d11e6bb	0.035620432
18	0xbcbb834b	-0.022889754
19	0xbd93b543	-0.07212307
20	0x3da84f96	0.08218305
21	0xbd9392ee	-0.07205759
22	0xbd72aa24	-0.05924429
23	0x395b7fde	0.00020933102
24	0x3d57c739	0.052680228
25	0x3d69d68e	0.05708938
26	0xbdd7f6f8	-0.105451524
27	0x3b849104	0.0040456075
28	0xbd946049	-0.072449274
29	0xbc44ea98	-0.012018822
30	0xbb6ba09b	-0.0035953883
31	0xbc6d3b87	-0.014479524
32	0xbd8da010	-0.06915295
33	0x3b79e6a3	0.0038131855
34	0x3c91b64a	0.017787118
35	0x3daddd8d	0.08489523
36	0x3cb16d64	0.021658607
37	0xbd4efdc9	-0.050534997
38	0xbe1e6777	-0.15469156
39	0x3d8ca182	0.06866743
40	0xbda1091d	-0.07863066
41	0x3d0c071f	0.03418648
42	0xbdb58a0a	-0.088642195
43	0x3da65323	0.08121326
44	0x3c85f3f4	0.016351677
45	0xbd4fd25c	-0.050737724
46	0xbceea821	-0.029132904
47	0x3def7afd	0.1169338
48	0xbd5429f8	-0.051797837
49	0xbd7ffc35	-0.062496383
50	0x3c6a6532	0.014306353
51	0xbceba668	-0.028765872
52	0xbd2e6372	-0.042575307
53	0x3c761538	0.015019707
54	0xbd1418c2	-0.036156423
55	0x3c020199	0.007934951
56	0x3e0aa2f5	0.13538726
57	0xbdce77ed	-0.10081468
58	0xbdb89af6	-0.090139315
59	0xbea0ac44	-0.31381428
60	0xbb9f9efb	-0.004871247
61	0xbd0f0fb2	-0.034927078
62	0xbd0b3eb2	-0.033995338
63	0x3d76fc28	0.06029907
64	0x3c1d5bc9	0.009604403
65	0xbe1bc2ea	-0.15211073
66	0x3c80c618	0.015719458
67	0xbd2e21b6	-0.042512618
68	0xbe3daf73	-0.1852396
69	0xbd4ec1d4	-0.050477818
70	0xbd447d7e	-0.04797124
71	0x3d899122	0.06717135
72	0xbbd8729e	-0.0066054603
73	0x3cfd59eb	0.030926665
74	0x3cc6291b	0.024189522
75	0x3cad0ee3	0.021125263
76	0xbd6c4310	-0.057681143
77	0x3dac01bb	0.083987676
78	0xbc871478	-0.016489252
79	0x3cc2f7d9	0.023799824
80	0x3dbaa446	0.09113364
81	0x3d55ceba	0.052199103
82	0xbe13c06f	-0.14428876
83	0x3caa7751	0.020808848
84	0x3da03ad3	0.0782372
85	0xbe1427f9	-0.14468373
86	0xbd2ece67	-0.04267731
87	0xbd489b00	-0.048975945
88	0xbdd5907f	-0.10427951
89	0x3cf10476	0.029421072
90	0xbda30c1b	-0.07961293
91	0x3d44ff99	0.04809532
92	0xba69fc7b	-0.0008925867
93	0xbe22db08	-0.15903866
94	0xbdef5799	-0.1168663
95	0xbdad5cc8	-0.08464962
96	0xbd870965	-0.06593589
97	0xbd3b8cb1	-0.04578847
98	0xbe08ca2f	-0.13358377
99	0xbd375acb	-0.04476432
100	0x3ddd1a5a	0.10796042
101	0xbdaea0c9	-0.08526761
102	0x3cb30423	0.021852558
103	0xbcd9e84f	-0.026600031
104	0xbd9616f5	-0.073285975
105	0xbda32a3b	-0.07967039
106	0x3dd2a94d	0.10286198
107	0x3d5eb6db	0.054373603
108	0xbd50a387	-0.0509372
109	0x3d755268	0.05989304
110	0x3d756d82	0.059918888
111	0x3d4d0622	0.050054677
112	0x3d8184f1	0.06324185
113	0xbdcede6f	-0.101010196
114	0xbd05975c	-0.03261505
115	0x3cc78352	0.02435461
116	0xbaf7866c	-0.0018884665
117	0xbd91e399	-0.07123489
118	0xbd78aeda	-0.060713626
119	0xbcbc0f04	-0.022956379
120	0x3d5576d8	0.05211529
121	0x3d993abd	0.074819066
122	0x3c97e02f	0.018539516
123	0x3d702bda	0.05863557
124	0xbd4b1b68	-0.049586684
125	0xbdd1feac	-0.10253653
126	0x3dd8bc05	0.10582737
127	0xbd542154	-0.051789597
128	0x3d3c5424	0.04597868
129	0xbd9a7d4e	-0.07543431
130	0xbdfb1ffa	-0.122619584
131	0xbd3775c6	-0.044790052
132	0x3d7d4a46	0.06183841
133	0xbd53a276	-0.051668607
134	0xbd5758bb	-0.052574854
135	0x3cc18fc0	0.023628116
136	0xbcc50491	-0.024050029
137	0xbd34518b	-0.044023078
138	0xbc0db36f	-0.008648737
139	0xbd4c4303	-0.049868595
140	0xbdd684ee	-0.10474573
141	0x3c101810	0.008794799
142	0xbd4a53ad	-0.049396206
143	0xbd8cd869	-0.068772145
144	0xbd62b5e8	-0.05534926
145	0xbd2ecfe9	-0.042678747
146	0x3ca45fc1	0.02006519
147	0xbbc48bc3	-0.005998106
148	0x3e38a4a2	0.18031552
149	0x3e243d5c	0.16039032
150	0x3d15e6f3	0.036597203
151	0xbe11b56e	-0.14229366
152	0x3d537519	0.051625345
153	0x3d47b1d9	0.048753593
154	0x3d3446a7	0.04401269
155	0xbd9fe61b	-0.07807561
156	0xbd3acd94	-0.04560621
157	0x3dca969d	0.098920085
158	0xbc689398	-0.014195345
159	0x3d66a34f	0.056308087
160	0xbcb36865	-0.021900365
161	0xbc61d906	-0.013784653
162	0x3c566b88	0.013087161
163	0xbdd122b0	-0.10211694
164	0x3d837f07	0.06420713
165	0xbcb641d2	-0.022248182
166	0x3de96a06	0.113971755
167	0xbd9e8441	-0.07740069
168	0x3c8e94d3	0.01740495
169	0xbb253125	-0.0025206294
170	0x3d315cd0	0.043301404
171	0x3d8b4c68	0.06801683
172	0xbccd1381	-0.025033714
173	0xbc960443	-0.018312579
174	0xbdd3771e	-0.10325454
175	0x3cf96d67	0.030447675
176	0xbe104233	-0.14087753
177	0x3d191fe9	0.037383948
178	0xbd46696a	-0.048440374
179	0x3da55f1a	0.0807478
180	0xbdb67fe7	-0.08911114
181	0x3cccb93d	0.024990672
182	0x3dc494b9	0.09598679
183	0x3dc3ca05	0.095600165
184	0x39a115d4	0.00030724576
185	0x3bb42650	0.0054977313
186	0x3d0cb6b5	0.03435393
187	0xbd7bad8e	-0.06144481
188	0xbba85bc0	-0.0051378906
189	0x3da53ad5	0.08067862
190	0x3d2b96ed	0.04189198
191	0xbd983606	-0.07432179
192	0xbd740340	-0.059573412
193	0x3caadc83	0.020857101
194	0xbdcf9588	-0.10135943
195	0x3d30236c	0.04300253
196	0xbd697b21	-0.05700219
197	0xbdae75ce	-0.08518563
198	0x3ce4a354	0.027909912
199	0x3c4b3752	0.012403326
200	0xbd8362ac	-0.064153045
201	0xbd18757e	-0.037221424
202	0xbc1be838	-0.0095158145
203	0x3d04e06e	0.032440595
204	0xbd9ff260	-0.07809901
205	0xbd13e9c6	-0.036111616
206	0x3dc22209	0.09479148
207	0xbde1c897	-0.110245876
208	0x3d4c67d0	0.04990369
209	0x3dd55b0b	0.10417756
210	0x3d137bd1	0.036006752
211	0xbdb85b33	-0.0900177
212	0xbca7022f	-0.020386783
213	0xbbbf61fc	-0.005840538
214	0x3d88046d	0.06641469
215	0x3c86c898	0.016453072
216	0xbd769dfd	-0.060209263
217	0xbc5f252e	-0.013619704
218	0xbe0a481c	-0.1350407
219	0xbcce3d70	-0.02517578
220	0x3cd19b49	0.025586741
221	0x3c41df48	0.01183302
222	0x3d3bb231	0.045824233
223	0x3db68c4c	0.08913478
224	0xbcd7a5f8	-0.026324257
225	0xbeb11b55	-0.34591165
226	0xb8d30be8	-0.00010063482
227	0x3bb92be2	0.005650983
228	0xbbc658ed	-0.0060530812
229	0xbd3ba94d	-0.045815755
230	0x3d1255d1	0.035726372
231	0xbd95326d	-0.072850086
232	0xbd5bd90c	-0.05367379
233	0x3dc1e34c	0.094671816
234	0x3da78441	0.08179522
235	0x3c8108c1	0.015751245
236	0xbde64229	-0.11243088
237	0xbde701ad	-0.112796165
238	0xbd74f915	-0.059807856
239	0x3da4cd11	0.08046926
240	0x3d8e8de9	0.06960661
241	0xbd0829c8	-0.03324297
242	0x3d572c40	0.052532434
243	0xbd889487	-0.06668954
244	0xba6cb118	-0.00090290746
245	0xbd38aac8	-0.045084745
246	0x3d76999b	0.060205083
247	0x3b08bf5e	0.0020866017
248	0x3d8f5825	0.06999234
249	0xbafcfb40	-0.0019300953
250	0xbbb5abb6	-0.005544151
251	0x3ceecbc7	0.029149903
252	0x3d631b50	0.05544597
253	0x3d5a6e9c	0.05332814
254	0x3d98ea6b	0.07466587
255	0x3d12f64b	0.035879415

hidden2.bias f4 [256]
0	0xbc128530	-0.008942887
1	0x3cced8e1	0.0252499
2	0x3c6b7bc9	0.014372774
3	0x3d472194	0.048616007
4	0x3d4256af	0.04744595
5	0x3d5887c4	0.05286385
6	0xbcd2c7ef	-0.025730101
7	0xbcd89e11	-0.02644256
8	0x3caac995	0.020848075
9	0xbb2c92dc	-0.0026332652
10	0xbda002ac	-0.078130096
11	0x3d379e98	0.04482898
12	0xbb636a3a	-0.0034700767
13	0x3d96df1a	0.07366772
14	0x3c1fcb45	0.009753053
15	0xbbf1f376	-0.007383759
16	0x3dafa9cb	0.08577307
17	0xbcdfb98f	-0.02731016
18	0xbd721194	-0.059098795
19	0xbca47378	-0.020074591
20	0x3b3ff7b8	0.002929194
21	0x3d4245b9	0.047429774
22	0x3c975733	0.018474197
23	0xbd240283	-0.040041458
24	0xbd18952c	-0.037251636
25	0x3d0bac90	0.034100115
26	0x3d0a03c2	0.03369499
27	0xbd1eca19	-0.038766954
28	0xbd670d19	-0.056408975
29	0xbd68919c	-0.05677949
30	0xbd010ff3	-0.03150935
31	0x3d7a5817	0.061119165
32	0x3cdc0464	0.026857562
33	0xbcc5c5a1	-0.024142088
34	0x3c032eb5	0.008006741
35	0xbd81b065	-0.06332473
36	0x3cdda695	0.027056972
37	0xbb3559bf	-0.00276719
38	0xbce9b1cf	-0.028527169
39	0xbc88c2d4	-0.016694464
40	0x3d874522	0.06604983
41	0x3cc5f467	0.024164392
42	0x3d930584	0.071787864
43	0x3cc9ded1	0.02464238
44	0x3c29665f	0.010339349
45	0xbd0f3f8e	-0.03497272
46	0xbd52983e	-0.05141472
47	0xbce2f814	-0.027706183
48	0x3d3305a5	0.043706555
49	0x3ba76853	0.005108872
50	0xbb8b3a52	-0.0042488957
51	0xbd8883d9	-0.06665773
52	0xbd445e88	-0.047941715
53	0x3c3457be	0.0110072475
54	0x3cb72321	0.022355618
55	0xbd6154e5	-0.055012602
56	0xbce7a514	-0.028276958
57	0x3d266a23	0.040628564
58	0x3d19154d	0.03737383
59	0xbbc51a91	-0.00601513
60	0x3c8ba197	0.017044825
61	0x3c957fdc	0.018249445
62	0x3d2a5159	0.041581485
63	0xbc5f675e	-0.0136354845
64	0x3db3ed79	0.08785529
65	0x3d860e7e	0.06545733
66	0xbc8dd876	-0.01731513
67	0xbcc73b3a	-0.024320234
68	0xbd83ffda	-0.06445284
69	0xbce2e32d	-0.027696216
70	0x3d2aca21	0.04169667
71	0xbccd191e	-0.02503639
72	0x3b91567b	0.004435358
73	0xbd7a5708	-0.061118156
74	0x3db2a950	0.087237
75	0xbd615882	-0.05501605
76	0x3cf68d99	0.030096816
77	0x3cc48f00	0.023993969
78	0x3d60662b	0.054784935
79	0xbd84f9d9	-0.06492967
80	0x3c971f5d	0.018447572
81	0xbdb2fe94	-0.08739963
82	0xbc89876e	-0.01678821
83	0xbbd396fa	-0.006457207
84	0xbd7d1edb	-0.061797004
85	0xbd249348	-0.04017952
86	0xbd15a411	-0.03653342
87	0x3d862b5a	0.065512374
88	0xbcd3720d	-0.02581122
89	0xba545f8a	-0.00081013946
90	0xbcfaa28d	-0.030595088
91	0xbd6ffaee	-0.058588915
92	0x3da38acc	0.07985458
93	0xbd012e7f	-0.031538483
94	0xbbe1364b	-0.0068729273
95	0xbcf38a17	-0.029728932
96	0xbcf1313d	-0.029442424
97	0x3a2e3b80	0.00066464394
98	0x3d64bc31	0.055843536
99	0x3c9a3eb9	0.018828737
100	0x3d01ee17	0.0317212
101	0x3d77372b	0.060355347
102	0xbd5f3900	-0.05449772
103	0xbbbc900c	-0.0057544764
104	0xbd60f21e	-0.0549184
105	0x3cd62b55	0.02614371
106	0xbcc96520	-0.024584353
107	0xbd67eb19	-0.05662069
108	0xbb8d6933	-0.0043155192
109	0x3b87eada	0.0041478695
110	0xbc9651ba	-0.018349517
111	0xbc7a6901	-0.015283824
112	0xbbf1d24d	-0.007379806
113	0x3d0d2173	0.034455728
114	0xbc977f83	-0.01849342
115	0xbc9ecaaa	-0.019383747
116	0x3d079a94	0.0331064
117	0x3ca2f49a	0.019892026
118	0xbd1d3005	-0.038375873
119	0x3d23cf14	0.039992407
120	0x3ca126b7	0.019671781
121	0x3c559ed6	0.013038358
122	0x3bbb1aec	0.0057099964
123	0x3d6a710a	0.05723671
124	0xbcc52eee	-0.02407023
125	0x3afc18e3	0.0019233491
126	0xbdc0da74	-0.094166666
127	0x3cdd7fe4	0.027038522
128	0x3cf4bf02	0.029876236
129	0xbd7151c6	-0.058915876
130	0x3d4e67c0	0.050391912
131	0x3d382430	0.044956386
132	0xbcb39c81	-0.021925213
133	0xbcd9d6a0	-0.026591599
134	0xbc1a2536	-0.009408286
135	0xbc836260	-0.01603812
136	0x3c6490a1	0.013950498
137	0xbd78bd3e	-0.06072735
138	0xbd2f0575	-0.042729814
139	0x3d0fee1d	0.035139192
140	0x3d3a1bb5	0.04543658
141	0x3ac19264	0.0014768359
142	0xbd8930a9	-0.06698734
143	0x3da9c026	0.082886025
144	0x3d819d2c	0.06328806
145	0xbc492be6	-0.012278533
146	0x3d2964a9	0.041355763
147	0x37527fb0	1.2546705e-05
148	0x3d15fcda	0.03661809
149	0x3bc81763	0.0061063035
150	0x3ca985f1	0.020693751
151	0x3db10da3	0.08645179
152	0x3c315d32	0.010825442
153	0x3ce87e63	0.028380578
154	0xbc43f82c	-0.011961024
155	0x3c0e6cb6	0.008692911
156	0xbd26e6bd	-0.040747393
157	0x3d8b5d52	0.06804909
158	0x3bdf7890	0.006819792
159	0x3d1385f9	0.03601644
160	0xbcb4f098	-0.02208738
161	0x3c3225fc	0.010873314
162	0x3d41b176	0.04728838
163	0x3d644aba	0.055735327
164	0x3c306ba7	0.010767854
165	0x3aee27a5	0.0018169774
166	0xba73f39a	-0.0009306014
167	0xbd1909d7	-0.0373629
168	0x3db16a28	0.08662826
169	0x3d7801e4	0.060548678
170	0x3d293e3f	0.041319128
171	0x3c6d0e4c	0.014468741
172	0x3d8de856	0.0692908
173	0x3d3edcd6	0.046597324
174	0x3cd91e4a	0.0265037
175	0xbd62677a	-0.055274464
176	0xbd8c5a6c	-0.06853184
177	0x3b7151ee	0.0036822516
178	0x3c9b69f8	0.018971428
179	0xba57151e	-0.0008204746
180	0xbbff3096	-0.0077877743
181	0xbc41be4b	-0.011825155
182	0x3d77d8e2	0.06050957
183	0xbc074b3e	-0.008257685
184	0xbcf2547b	-0.029581299
185	0x3d42417f	0.047425743
186	0xbd121abf	-0.03567004
187	0x3d2af00f	0.041732844
188	0x3be018bd	0.0068388865
189	0xbd3c9373	-0.046039056
190	0xbd84c4e7	-0.06482869
191	0x3c9c1c5f	0.019056497
192	0x3d3047df	0.04303729
193	0xbdb6ed85	-0.08932022
194	0xbc181443	-0.0092821745
195	0xbd390636	-0.04517194
196	0xbcad89b8	-0.021183833
197	0xbd39f98a	-0.045403995
198	0x3d07c81e	0.03314983
199	0xbce37e1f	-0.0277701
200	0x3c68b54f	0.014203384
201	0xbca1d541	-0.019755008
202	0xbceb21b9	-0.028702604
203	0x3da23b40	0.07921457
204	0x3c8a628c	0.016892694
205	0x3b889f8e	0.004169411
206	0xbb9cfd4b	-0.004790937
207	0xbd7676ee	-0.060172014
208	0x3d3d88b3	0.046272945
209	0xbc55d5c3	-0.013051453
210	0xbcc52b02	-0.02406836
211	0x3cde9d97	0.027174754
212	0xbd2c119b	-0.042008977
213	0xbd11a43d	-0.03555702
214	0x3d5ed5c4	0.05440308
215	0x3c960d8d	0.018317008
216	0x3d2417a7	0.04006162
217	0x3c9370e8	0.017998174
218	0x3d30141a	0.04298792
219	0x3d4ae25e	0.049532287
220	0x3d9b239b	0.075751506
221	0x3c34f0be	0.011043726
222	0xbd617e5e	-0.055052154
223	0xbc066ca9	-0.008204618
224	0xbd889bb5	-0.06670324
225	0xbcf2f89a	-0.029659558
226	0x3cad6899	0.02116804
227	0xbd54948a	-0.05189947
228	0xbd4f9bb3	-0.050685596
229	0x3d0f13e0	0.034931064
230	0xbd6e835e	-0.05823075
231	0x3ca46202	0.020066265
232	0xbd08a022	-0.03335584
233	0x3ae29a13	0.0017288349
234	0xbcad5647	-0.021159304
235	0x3d8d5901	0.06901742
236	0x3cf08a6f	0.029362885
237	0xbc645520	-0.013936311
238	0x3d880af7	0.066427164
239	0x3d607c03	0.054805767
240	0xbccd63e1	-0.02507204
241	0x3da867b8	0.08222908
242	0xbd3e45cd	-0.046453286
243	0x3dc1bbc9	0.09459645
244	0xbd608966	-0.054818533
245	0x3d49e585	0.049291153
246	0xbcde7924	-0.027157374
247	0xbd1511e0	-0.036394
248	0xbc747540	-0.014920533
249	0xbc3cfa12	-0.011534231
250	0x3d6f4486	0.05841496
251	0x3ca78f63	0.020454114
252	0xbd650972	-0.05591721
253	0xbd689232	-0.056780048
254	0xbd7cbb3b	-0.061701994
255	0x3cf96a0c	0.030446075

out.weight f4 [1, 256]
0	0xbe497a5c	-0.19675583
1	0x3d853ebd	0.06506107
2	0xbe45165a	-0.19246808
3	0x3da9f8a5	0.08299378
4	0xbe2639bd	-0.16232963
5	0xbe2c91a1	-0.16852428
6	0x3d77cfb4	0.060500816
7	0x3dc2984f	0.09501707
8	0x3cfd56eb	0.030925235
9	0xb9dcd51c	-0.0004212045
10	0x3bad6d47	0.005292568
11	0x3940e02d	0.00018394059
12	0xbdddf8a6	-0.108384416
13	0x3cfb0283	0.030640846
14	0xbc09e0eb	-0.008415441
15	0xbd20192f	-0.039086517
16	0x3d1f5a44	0.038904443
17	0xbbdcbfce	-0.006736732
18	0x3b94a48e	0.004536218
19	0xbe2ac08e	-0.16675016
20	0x3b7bbd68	0.0038412455
21	0x3bae119f	0.005312159
22	0x3d93d849	0.072189875
23	0x3e13bdb7	0.14427839
24	0x3caaf145	0.020867
25	0xba2880bc	-0.00064278743
26	0x3a8586e8	0.00101873
27	0xbae726dc	-0.0017635482
28	0xbac8ced9	-0.0015320434
29	0xbe207a43	-0.15671639
30	0xbe0b5d8f	-0.13609909
31	0x3d9bf2d5	0.07614676
32	0x3b0a831a	0.0021135272
33	0xbde5ff11	-0.11230291
34	0x3cc7fc08	0.02441217
35	0x3a20d4df	0.0006135236
36	0x3d174b64	0.036937132
37	0x3dbeef5f	0.09323
38	0x3d764090	0.060120165
39	0x3ae4db17	0.0017460313
40	0x3dbfa771	0.09358109
41	0x3d38d970	0.04512924
42	0x3ce77228	0.028252676
43	0x3d191511	0.037373606
44	0x3b1b09ff	0.0023657081
45	0x3a92fb04	0.0011213725
46	0xbc0b62c9	-0.008507439
47	0x3d6b0d54	0.057385758
48	0x3dc28b5b	0.09499236
49	0xbb166e56	-0.002295395
50	0xb9f09b1c	-0.00045891933
51	0xbe035bdc	-0.1282801
52	0x3e686a5e	0.22696826
53	0x3d46b741	0.04851461
54	0x3d8a90e7	0.06765919
55	0xbbb503fd	-0.005524157
56	0x3bae19fb	0.0053131557
57	0xbe4df62c	-0.20113438
58	0x3d037565	0.032094378
59	0xbcfead2c	-0.031088434
60	0x3d2778bc	0.040886626
61	0x3d5a37b8	0.053275794
62	0x3d5cfa6d	0.053949762
63	0xbdb3654b	-0.087595545
64	0x3d4462cc	0.047945783
65	0x3cff9871	0.03120062
66	0x392af344	0.00016303087
67	0xbb07dcc6	-0.0020730956
68	0xbd04cb33	-0.03242035
69	0x3a5dd58f	0.00084623037
70	0xbd6e3a0e	-0.058160834
71	0xbe4166d2	-0.18886879
72	0x3d192afc	0.03739451
73	0x3c9bf81b	0.019039204
74	0x3dc21df9	0.09478373
75	0x3dd0c3e6	0.10193615
76	0xbbbeb5e3	-0.0058200224
77	0xba8221ee	-0.0009928325
78	0x3d55bd3d	0.052182425
79	0xbd82798a	-0.06370838
80	0x3b795767	0.003804648
81	0x3d19e7cc	0.037574574
82	0xbdd5bafa	-0.104360536
83	0xbb2668a3	-0.0025391958
84	0xbdc27838	-0.09495586
85	0xbbcb92f8	-0.0062125884
86	0xbdb227ea	-0.08699019
87	0x3d82e70f	0.06391727
88	0xbe35ece5	-0.1776615
89	0x3a4ebbdc	0.00078862696
90	0xbaf13e52	-0.0018405414
91	0xbba6a9bd	-0.0050861523
92	0x3da7e43b	0.081978284
93	0xbbdd26fd	-0.0067490325
94	0x3b84a5a3	0.0040480657
95	0xbde22c2a	-0.1104358
96	0xbd593874	-0.053032354
97	0xbaccdce9	-0.0015629801
98	0x3cfc9395	0.030832091
99	0xbb0c89c7	-0.0021444426
100	0x3bb874b7	0.005629148
101	0x3dd6b574	0.10483828
102	0x3da7abee	0.0818709
103	0x3d9cafc1	0.0765071
104	0x3a1dde2b	0.00060221803
105	0x3d5ca588	0.0538688
106	0x3c993be2	0.018705312
107	0x3e953d78	0.2914846
108	0x3dd43901	0.10362435
109	0x3b784cb7	0.0037887522
110	0x3d948aee	0.07253061
111	0x3ce97882	0.028499845
112	0x3a25334d	0.0006301895
113	0x3ba78557	0.005112331
114	0x3d0d1789	0.034446273
115	0x3dc900bd	0.09814594
116	0xbde4c83b	-0.111710034
117	0x3d05da05	0.032678623
118	0xbd568ab2	-0.052378364
119	0xb90bf6b0	-0.00013347971
120	0xba1da172	-0.0006013132
121	0x3bd7dde2	0.00658773
122	0x3d2f1073	0.042740297
123	0xbb20693b	-0.0024476785
124	0x3c889a27	0.016675068
125	0x3d0fcdb1	0.035108272
126	0xbd2eaf21	-0.042647485
127	0xb9342cf0	-0.00017182878
128	0xbb981831	-0.0046415557
129	0xba524d31	-0.00080223667
130	0x3d81298d	0.06306753
131	0x3afe7b50	0.0019415412
132	0x3e0592ad	0.13044234
133	0x3c2c0aac	0.010500591
134	0xbaee6948	-0.0018189335
135	0x3c76b106	0.015056854
136	0x3d8d1abe	0.06889866
137	0x39d69538	0.00040928437
138	0xbdf966a3	-0.121777795
139	0x3c9bddc0	0.019026637
140	0xbb26874a	-0.0025410228
141	0xbcb58155	-0.022156397
142	0xbb9a318a	-0.0047056125
143	0x3d33930d	0.04384141
144	0x3d012d4e	0.031537347
145	0xbe23c898	-0.15994489
146	0x3d79893c	0.060921893
147	0x3dff9d2a	0.124811485
148	0xb9b5b7e0	-0.00034660008
149	0x3b4ae7b8	0.003096087
150	0xbd456844	-0.04819514
151	0x3cf29c79	0.029615628
152	0xb9779d31	-0.00023614314
153	0xbabe6b65	-0.0014527856
154	0x3e77bd50	0.2419331
155	0x3d432d40	0.047650576
156	0xbe31baa3	-0.17356353
157	0x3d70cabb	0.05878709
158	0x3b295814	0.0025839852
159	0x39f5baf3	0.0004686933
160	0xbb083884	-0.002078564
161	0x3bf4e103	0.0074731125
162	0x3d6ee2ce	0.058321767
163	0xba098ec7	-0.0005247411
164	0xba462538	-0.00075586466
165	0x3d4eb7e2	0.050468333
166	0xbbaa4de0	-0.0051972717
167	0xbe71baa3	-0.23606353
168	0x3d865f13	0.06561103
169	0x3d0cfa3f	0.03441834
170	0xbe21e8e3	-0.15811495
171	0x3d083ee2	0.033263095
172	0x3d3639f3	0.04448886
173	0xbb9ac2de	-0.004722937
174	0x3a6214c6	0.00086243113
175	0xbb0cbb46	-0.0021473928
176	0xbd7e909f	-0.06214964
177	0xbdeccd4f	-0.11562597
178	0x3d8ba202	0.0681801
179	0x3d1f3d1e	0.038876645
180	0x3d289918	0.041161627
181	0x3dcd9737	0.100386076
182	0xba9d8a80	-0.0012019426
183	0x3dc08ba4	0.09401634
184	0xbd46abde	-0.04850375
185	0x3d3c8268	0.046022803
186	0x3df85255	0.121250786
187	0xbacf8c36	-0.0015834633
188	0x3d35fc70	0.044430196
189	0x3c69c046	0.014267033
190	0xbde32114	-0.110902935
191	0xbe3b4c30	-0.18290782
192	0x3b49bf80	0.003078431
193	0xbdf3b4af	-0.11899697
194	0x3a752b3c	0.0009352451
195	0xbcb6b818	-0.02230458
196	0xbb6b46d3	-0.0035900369
197	0xbbbd261d	-0.0057723657
198	0x3a78b1fe	0.0009486972
199	0xba2f12a8	-0.00066785
200	0xbcf1a449	-0.029497283
201	0x3db97970	0.090563655
202	0x3d4eb4c2	0.050465353
203	0x3d1cc25d	0.038271297
204	0x3d4b0bbd	0.04957174
205	0x3cab83e8	0.020936921
206	0x3bae89f8	0.0053265058
207	0xbddd929f	-0.108189814
208	0xbb997c72	-0.0046840245
209	0xbb6520c9	-0.0034962168
210	0x3bb4f40a	0.005522256
211	0xbba72ea8	-0.0051019974
212	0x3a829d71	0.0009965134
213	0x3d8e44e3	0.06946733
214	0xbb95101e	-0.0045490405
215	0x3cc46b32	0.023976896
216	0xbb135069	-0.0022478348
217	0xbb015e66	-0.0019740104
218	0xbda48980	-0.080340385
219	0x3b9d19be	0.0047943285
220	0x3d0481be	0.032350294
221	0x3d402571	0.046910707
222	0x3cbc03ae	0.022950973
223	0xbdae4529	-0.08509285
224	0x3e0fe3b2	0.14051703
225	0xbba082e9	-0.004898418
226	0xba689b2b	-0.00088732195
227	0xba89a72c	-0.0010502092
228	0xbe12c090	-0.1433127
229	0xb9cd74c8	-0.00039187656
230	0xba5b47f8	-0.0008364911
231	0x3d580f4a	0.052748956
232	0xbde8a2d5	-0.11359183
233	0x3cd70f2a	0.026252348
234	0xbe26011d	-0.16211362
235	0x3d37592f	0.044762786
236	0x3e1ee69c	0.15517658
237	0x3db5f191	0.08883966
238	0x3cae3f19	0.021270322
239	0x3d9e9f17	0.07745188
240	0xbe63685f	-0.22207783
241	0x3d9f3088	0.077729285
242	0x3a1472bc	0.00056628487
243	0x3d724134	0.059144214
244	0xbe57111d	-0.21002622
245	0x3aac64f3	0.0013152644
246	0x3cf6bcd4	0.030119337
247	0xbe5ce5fb	-0.21572106
248	0xbd96e6e7	-0.0736826
249	0x39944bee	0.00028285332
250	0x3d633485	0.05547001
251	0xbbbe9a8d	-0.0058167637
252	0xbb9b0b71	-0.0047315885
253	0xbcada183	-0.021195179
254	0xbb73f77e	-0.0037226374
255	0x3d07fbf1	0.033199254
