model_weight/mqf2.pt (torch_old, 292889 bytes, 5 tensors)

hidden1.weight f4 [256, 26]
00000000: 5712 973e c404 52bb ad72 a23d 6ee5 f73d
00000010: 1f09 e83d 497b 96be 5399 9dbd 1cfb 02bd
00000020: 42ca 083d afdc cc3d 857a dbbc 7220 fe3a
00000030: 8da2 5e3d 94dd edbe 1ca2 23bd 3a1a 1a3e
00000040: 8e39 953c 7f95 ee3d d0eb a8bb 3e32 e0bd
00000050: 33ad dbbd 105f 07be 5384 89bd d3ae 75bc
00000060: e0cf 153f d66b 303e 712d 333e 5d55 323f
00000070: a547 ad3d a49e 8e3d 9d1b 7ebe 401f fbbe
00000080: 4fbc 01be 2074 ab3d 19cb a53c a625 c93e
00000090: 32fb 5abd 1632 5bbd 8ce2 39be 6b92 16bf
000000a0: 52fe b33d bbab 3cbe c216 163e 3e2e ba3e
000000b0: 755b c73d 249f 7dbe 129b 29bd 0a62 3abf
000000c0: 1c8e 10be 6e0e 06be 7712 543e e104 51bd
000000d0: 927a 093e 0b1b 023e ef14 74bd 30c8 19be
000000e0: a5ec 093e f3b8 013b 4345 89bd b66d 193e
000000f0: 53ff 323e b4ba 0dbe cf26 49bd 8d09 b3bd
00000100: 45cd e7bd b2bc 063e 46f3 d1bc d881 9f3c
00000110: e622 cf3c b880 2cbe 251c c6bd 44b3 d0bd
00000120: 1ba5 97be d314 e83e 49e1 ce3d 343e ae3d
00000130: 8af4 94bd a57a 673e b0d0 9c3d 6aed 3fbd
00000140: ca62 2e3e ac4e 83bd d611 8a3c 1e93 edbd
00000150: 47cc c9bd d65d d73d 41dd ddbd 1cae 4bbc
00000160: d103 b3bd e85d 643d acc3 493e a2a9 bdbe
00000170: b240 5abd 1bf6 323e 97e7 8cbd 4c57 9f3d
00000180: 523d 753a bdb2 65bc 0c6e 33be 5d1e 8ebe
00000190: 151f 523d 7e07 aabd 1cc3 9ebd f7d6 40be
000001a0: 8316 423e 11dd ab3e 97e0 053e 3b8e a3bd
000001b0: cf86 0d3e 3571 79be 7949 3cbe 82e0 0abd
000001c0: c836 4b3e 149a 9a3e f11a 89bd 3fff 8fbd
000001d0: 0ab1 91bd b4ae 13be 895f d5bb 262e cc3c
000001e0: 3080 9e3e b2c9 00bd 9888 02bc 05ca 573e
000001f0: 9c0b f1bd 07cf a1be e88d 093d cbd7 a6bd
00000200: ac6a 033e 0c5e d8bb 1346 f03d 700e 403e
00000210: e701 1bbc c4e6 01be 9081 963d a6db b4be
00000220: 1023 963b 94f3 2b3d 0de3 793e 881e 4cbe
00000230: ac34 3e3c 6d7c c0bd 33c4 1ebe 6c4b f8be
00000240: 3441 babc 07e5 613d 2309 183e 086e ba3d
00000250: 21a2 cfbc d75c d5bb ac07 8d3d 4c36 f13c
00000260: d5c1 cdbc f502 313e 1a7b e43d 427c c43e
00000270: 5e09 3f3b d8ed 373e 0496 ce3d db29 0c3e
00000280: 9b2b e43c 177e 2ebe 4e5e e3bd 8bf4 833d
00000290: 1ef3 cb3d 636c ddbd a5c9 8abd 819a 08be
000002a0: cd4f 343c 08bb 21be e5c7 9b3c 55f1 87bc
000002b0: 4e7a 343e 5bf4 a93d a484 bd3d 27e0 c33c
000002c0: 96ec a83d e8ef 01bf da9f b0bd a72e f0bd
000002d0: b794 bfbd 469d 7b3e 7bff 093c a038 a93d
000002e0: 1ef3 adbc 2008 283d cd3d 32be f2ce e23e
000002f0: da72 a3bd c62d 89bd a73d 133d 2208 5dbd
00000300: d5bb 483c 1785 4cbd db66 f33c 1dfa 323e
00000310: a97c cabd d707 d4bd 2caa 7bbc 4965 3a3d
00000320: 60dd a3bd 690c e5ba 7415 dbbc c5d4 02bf
00000330: 4018 b6bc 9c79 1a3e 77f2 c0be 341a 9bbe
00000340: fee4 72bc 8157 6bbe 539f 33bd d0e6 883d
00000350: 4ee3 0a3e 111c 8bbe 4afe bf3d a898 0bbe
00000360: 36c4 443e 839c 96bd 5362 333c 16d9 3e3e
00000370: f4af bd3d 7173 eebe 1385 0fbe 502b 9e3d
00000380: 175d 733d b92f 9dbe 5bd9 8a3d 6d8a 223d
00000390: f802 25be 3f73 ab3d b255 e5bc 7b95 893e
000003a0: c34d 73bd 056e 64be aa18 a8bd 3020 ce3d
000003b0: d87c e8bd ed1f e0bc 4a45 453d 4212 a2be
000003c0: 26ab 7d3d c700 74bc 0e23 bb3d 83b6 913d
000003d0: d904 3dbc b3ba b83d 5a60 47be 791c 74be
000003e0: 3eef c7bd 6347 5cbe 4247 9bbd 0269 e63d
000003f0: 2993 93bd c1d2 b43e da38 8d3d 4664 05bf
0.2950618 -0.0032046298 0.07932029 0.12104307 0.11329865 -0.29390934 -0.0769526 -0.031977758
0.033396013 0.100030296 -0.02679182 0.0019388332 0.05435424 -0.46458113 -0.03994952 0.15049067
0.01821592 0.11649608 -0.005155064 -0.10947083 -0.107263945 -0.13219857 -0.06714692 -0.014995295
0.5852032 0.17228636 0.17497803 0.69661504 0.08460931 0.06963852 -0.24815221 -0.4904728
-0.1266949 0.083717585 0.020238446 0.39286536 -0.053462215 -0.053514563 -0.18152827 -0.58817166
0.08788742 -0.18424885 0.14657119 0.36363405 0.09734241 -0.24767739 -0.041407652 -0.72805846
-0.1411671 -0.13091442 0.20710169 -0.051030044 0.13425663 0.12705629 -0.059590276 -0.15017772
0.13469179 0.0019794076 -0.06702664 0.14983258 0.17480211 -0.13840753 -0.049109276 -0.08742056
-0.11318449 0.13157919 -0.025628697 0.019471094 0.025285196 -0.16845977 -0.09673337 -0.10190442
-0.29618153 0.45328388 0.101015635 0.08507958 -0.072732046 0.22605379 0.076569915 -0.046857275
0.17029873 -0.0641149 0.016854208 -0.11600326 -0.09853416 0.10515945 -0.108332165 -0.012431648
-0.08740962 0.05575362 0.19703549 -0.37043482 -0.053284355 0.17476694 -0.0688011 0.077803224
0.0009355146 -0.014019665 -0.17522448 -0.2775754 0.051299173 -0.0830221 -0.07752058 -0.18832003
0.189539 0.33567098 0.13073955 -0.07986113 0.13820957 -0.24359591 -0.18387403 -0.033905514
0.19845116 0.30195677 -0.06694592 -0.07031106 -0.07113846 -0.14422113 -0.006511633 0.024924349
0.30957174 -0.03144235 -0.007967137 0.21073158 -0.117697924 -0.31603262 0.033582598 -0.08146628
0.12833661 -0.006603008 0.117321156 0.18755507 -0.009460903 -0.12685686 0.07348931 -0.35323828
0.0045818165 0.04198034 0.24403019 -0.19933522 0.011609238 -0.09398732 -0.15504532 -0.48495042
-0.02273617 0.055150058 0.14847235 0.09103018 -0.025345864 -0.0065113115 0.06886229 0.029444836
-0.02511684 0.17286284 0.11156292 0.3837605 0.002914987 0.17961824 0.10087207 0.13687842
0.027852824 -0.17040287 -0.111019716 0.06443127 0.0995848 -0.10811689 -0.06776742 -0.13340189
0.011005354 -0.15794003 0.019016216 -0.016594568 0.1762478 0.0829856 0.09253815 0.023910595
0.0824825 -0.5075669 -0.08624239 -0.11727648 -0.09354537 0.24571714 0.008422728 0.082627535
-0.021234091 0.041023374 -0.17406388 0.44298512 -0.079808906 -0.06698184 0.035947468 -0.053962834
0.012251814 -0.049931612 0.029712131 0.17478223 -0.09887058 -0.10353058 -0.015360396 0.04550675
-0.08001208 -0.0017475012 -0.026743628 -0.5110591 -0.02222836 0.15085453 -0.37684986 -0.3029343
-0.014825104 -0.22982599 -0.043853115 0.06684649 0.13563272 -0.2716985 0.09374674 -0.13632452
0.19215474 -0.07354071 0.010948735 0.18637499 0.09262076 -0.4657245 -0.14015608 0.07723105
0.05941495 -0.30700472 0.067797385 0.039682794 -0.16114414 0.08371591 -0.027994964 0.26871857
-0.05940033 -0.22307594 -0.08207829 0.10064733 -0.11351937 -0.027358973 0.048161782 -0.31654555
0.061930798 -0.014892763 0.091375455 0.071148895 -0.0115368 0.09019985 -0.19470349 -0.23838986
-0.09762429 -0.21511607 -0.07581951 0.112504974 -0.07205803 0.35317042 0.06895609 -0.5210613

hidden1.bias f4 [256]
00000000: ec56 c83c 2b84 cd3d b2a2 cfbd e430 353e
00000010: ce22 58be d087 58be 9f6a dfbe ae45 753d
00000020: 6094 e13d c66c d1bd d6ca c5be b0ae b9bc
00000030: 5038 a4be 3200 60be 775c 5c3e dc18 a6bd
00000040: d825 8bbe 5742 a13e b45e 14be 2092 04bc
00000050: 664b ac3d 8e21 de3d 34ac 543c d2e0 673e
00000060: bc8e 4b3e 760b eebd 8156 78be da95 56bd
00000070: 185a c73d b65b c9be d450 1abe 2b44 40be
00000080: a282 13be 218b 56bd 768c b5be 00d2 b1be
00000090: 8154 2dbe 3c14 293e e334 0a3d 48da 3dbe
000000a0: 7cd3 0ebe 07a8 10bb aca0 c03d 749a 8a3d
000000b0: b1b3 30be d674 c7bd c6de a2bd 79bb b9be
000000c0: 9778 1dbe 154d 33be b845 5b3b 49d7 fb3d
000000d0: b5bf 3c3e 1439 53be c827 15be 7df5 86be
000000e0: 6d83 3ebe 56f0 a4bd d3f0 86be 0b15 65bd
000000f0: 8635 7a3e 7fd7 e6bd a20b 81be 566f a23d
00000100: d769 71bb d98b d3be 6a4a 933d 2ea6 d4be
00000110: ab76 1e3e d97f 3bbe 3198 93be ab5a 563c
00000120: e597 a4be 33b1 a6be 7aa6 1cbd 1e70 a93d
00000130: e4d0 aebe adef 49be bc0a 88be 4671 e63d
00000140: 8929 bebe 5d91 8dbe f7e0 e4be 7eea afbd
00000150: f355 aebe d7c0 71be 8d5b 8fbe 0bac aebc
00000160: 9701 823d 394c 5bbc db81 10bd 286f 8d3c
00000170: bfe6 4a3b e76a 8c3d a78b 96bd 2f10 3fbe
00000180: 1eca 06be ff82 7ebe 4161 bdbe f48f 7dbc
00000190: a5af 093b b4fa c0be 8558 ca3a 079d ec3c
000001a0: 53ca 383e 7eac 92be c8a7 df3d 54af 0b3e
000001b0: 0211 a23d 492d 27be f746 27bc 242b 1e3e
000001c0: d367 833b 115f 41be c84b 5dbe 9742 c4bd
000001d0: 2e98 aebe 5b7e 64bd ca35 77be 6c14 c3bd
000001e0: 96a6 323c 0f33 80be 71bd b13e b492 a9bd
000001f0: fdbb 3e3e 0088 8e3d fd83 dfbd 6e3b 513d
00000200: d475 87be 9a21 96be c9a6 c33d c736 603d
00000210: 6325 fa3d c7c7 83be 5543 7fbd 466a c2be
00000220: e29e 02be 45ff 15be da76 823d 9bdd 2cbe
00000230: e771 fc3d 954a 04be a970 84bd 6595 abbd
00000240: 0192 00be 4e19 dabd 9d9a 2ebe 258a 9b3d
00000250: b6ac 1abe b6a4 aabd 76b6 21be 02a2 c93d
00000260: 74cd a1be cc67 043e 86b8 7dbe e7cd 87be
00000270: 9a6d b6be 829b 35be 639d d6be d67b ac3d
00000280: b1fa 99be 6bd9 dfbd 8a95 33be d87f 0dbe
00000290: 6f11 5cbd 3e84 d7be 6366 71be 165a bebe
000002a0: 99a1 57bd 969b debd 345c 9abd 7a33 283e
000002b0: e5f9 8c3e f3b9 c7bd 7e9a 12be aca3 c4bd
000002c0: b9ac 7c3e 1773 373e 1cbf f13d 36aa 0b3e
000002d0: a7a5 953d 8e5b 02be 53a5 6cbe a791 3f3c
000002e0: ebf6 6ebc c160 1f3d 6759 1dbe dbdd 6a3d
000002f0: 38d9 d7bd 7f48 973d ec91 77be 5bf9 bcbe
00000300: cd26 30be 2561 74bd 0e46 c4be 349e 263e
00000310: 440b 5fbe bd53 403e c81b e83d 169d 77be
00000320: 72a7 9dbe 7e89 afbc a23f a0be d9c0 96be
00000330: 69a0 263e 0e19 8abe a1fd 39be 80d8 60be
00000340: 7f33 29be 4e48 16be f8c8 063e b99a ffbd
00000350: c037 453d 59b7 823d 72ab 82be 1057 893d
00000360: bdd5 37bd e4b8 01be 5d4e 473e 0503 74be
00000370: d369 963e 9a9c 933b 9ae1 babd 8822 e9bc
00000380: 8039 6bbe cd2c 28be bc7a a03d dd3a bdbe
00000390: 16a7 85bd d8c0 13be accf f6be 6974 76bd
000003a0: 8516 cb3d 79b8 0a3c e2d4 5b3d e85d 8fbe
000003b0: e5be 813e 1e71 5dbe b27b 3a3e 1a50 21bd
000003c0: f779 21bd 8609 843e b84e 733c 147c 683d
000003d0: ee66 1cbd eeca 69bd a9f2 72be 8688 96bd
000003e0: 6177 653e 1fbd ccbe 0d66 12be 6e33 b9be
000003f0: f36c f0bc 4d07 3bbe 8065 40bc 5dc8 a5bc
0.02445551 0.10034975 -0.101384535 0.17694432 -0.21107027 -0.21145558 -0.43636033 0.059880905
0.110146284 -0.10225825 -0.38631314 -0.022666305 -0.32074213 -0.21875075 0.21519648 -0.0811021
-0.2717731 0.31495926 -0.14489251 -0.00809148 0.084128186 0.10846244 0.01298051 0.22644356
0.19878668 -0.1162328 -0.24251749 -0.052389003 0.09733981 -0.39327782 -0.15069896 -0.18776004
-0.14405301 -0.052378777 -0.35458726 -0.3473053 -0.16926767 0.16511625 0.033741843 -0.18540299
-0.13947862 -0.0022072808 0.09405646 0.06767741 -0.17256047 -0.097390816 -0.07952647 -0.36275843
-0.15378033 -0.17509873 0.0033458304 0.12296922 0.18432505 -0.20627242 -0.14565957 -0.26359168
-0.18604822 -0.08053653 -0.2635561 -0.05592827 0.2443448 -0.11271571 -0.25204188 0.07931392
-0.0036836767 -0.41317633 0.07191928 -0.41533035 0.15474956 -0.18310489 -0.2882705 0.01308314
-0.32147136 -0.32557067 -0.038244702 0.08273338 -0.34143746 -0.19720335 -0.2657069 0.11252074
-0.37141064 -0.27649966 -0.44702885 -0.08589648 -0.3404995 -0.23608719 -0.27999535 -0.02132227
0.063479595 -0.013384872 -0.03528009 0.017264917 0.003096029 0.068563275 -0.07350855 -0.18658517
-0.13163039 -0.24854659 -0.3698826 -0.015476216 0.0021009233 -0.3769127 0.0015437758 0.02888347
0.1804593 -0.28647226 0.109206736 0.13641101 0.079134 -0.16325869 -0.01020979 0.15446144
0.0040101795 -0.18883921 -0.2161094 -0.095830135 -0.3410048 -0.055784564 -0.24141613 -0.095253795
0.010903975 -0.25038955 0.34714845 -0.082799345 0.186264 0.06959534 -0.10913847 0.051082067
-0.26457083 -0.2932251 0.09553296 0.05473974 0.12214162 -0.25738356 -0.062320072 -0.37971705
-0.12755921 -0.14648159 0.063703254 -0.16881411 0.12326413 -0.12919076 -0.06466801 -0.08378104
-0.12555696 -0.10649358 -0.17051168 0.07594708 -0.15104946 -0.08332197 -0.1579226 0.09845354
-0.3160206 0.1293022 -0.24777421 -0.2652428 -0.35630494 -0.17735103 -0.41916952 0.08422057
-0.30074075 -0.10930141 -0.17537513 -0.138183 -0.053727563 -0.4209308 -0.23574214 -0.37178105
-0.052644346 -0.108695194 -0.075371176 0.16425887 0.27534404 -0.09752264 -0.14316747 -0.096015304
0.24675263 0.17914997 0.11804029 0.13639149 0.07306986 -0.12730238 -0.23109941 0.011692441
-0.014585237 0.03891063 -0.15366136 0.057340484 -0.10539478 0.073868744 -0.24176759 -0.36908993
-0.17202301 -0.059662957 -0.38334697 0.16271287 -0.21781641 0.18781944 0.11333424 -0.24181017
-0.30791813 -0.021427866 -0.31298548 -0.29444006 0.16272129 -0.2697224 -0.18163158 -0.21957588
-0.1652355 -0.1467602 0.13162601 -0.12480683 0.04814887 0.06382627 -0.25521427 0.06706059
-0.04488157 -0.12668186 0.19463487 -0.23829277 0.29377612 0.0045047523 -0.09125061 -0.028458849
-0.22971153 -0.1642334 0.0783591 -0.36958972 -0.0652601 -0.14429033 -0.48205316 -0.06016961
0.09916405 0.008466833 0.053669818 -0.28001332 0.25340953 -0.21625182 0.18211249 -0.03938303
-0.039422955 0.25788516 0.014850311 0.056758955 -0.0381841 -0.057078294 -0.2372538 -0.073502585
0.2240882 -0.39988038 -0.14296742 -0.3617205 -0.029348826 -0.18264504 -0.0117429495 -0.020237142

hidden2.weight f4 [256, 256]
00000000: 5875 ba3d 219d f3be 4ba1 1fbe 6822 f73c
00000010: fdf3 bcbd 8439 503d 263f a63c 5029 47bd
00000020: 5d85 05be 5d5c d43a 7728 c6bd 4064 253d
00000030: 9312 5dbd b821 393c 2672 2dbd 8995 d1ba
00000040: c00b a9bb 4080 253e 8e97 c2bc a0c7 80bd
00000050: 84e7 9f3c bc58 97bd 6028 5f3d 57a3 0d3c
00000060: 660d 93bc 479a c8bd 0b46 0abd c6c8 adba
00000070: e65c 26bd 4c0b 3bbc ec0b 1abe fe60 98bc
00000080: dc27 ee3a 1a33 1bbe 2912 c5bc e8a2 ae3b
00000090: 6d5e 843d 126e debd 6d3e 1abd 62a7 823c
000000a0: 421a 45bd 0768 0abc 687b 36bc cc8a 2abc
000000b0: c11f 6c3d 50cd 51bb 8c63 0dbd f573 bebd
000000c0: e947 a2bd fc50 1a3c 5710 bdbd 9708 c6bc
000000d0: e3b8 b33c 5b72 02be 3bdf ad3c d85d bc3d
000000e0: 725d 09be 3d5d edbc 5df2 7c3d 73ec c4bc
000000f0: 45d6 1bbd 6286 cc3c a47b 1cbd 3a7e a4bc
00000100: 24a0 2fbd faf4 b8bc d99b 9cbd 2105 523d
00000110: 6f54 01bd f739 4cbd d5df 17bd 5933 38bd
00000120: 184a 8ebd 066a ca3b d194 b73d 2b7d 963d
00000130: 1e46 d4bb a252 a5be 0843 f5bc ef60 aabd
00000140: 4b92 12bd a87f 503b 4156 0abd 5214 e43c
00000150: 7d86 1ebd 55bc 24bd f75f 0fbd f1da ac3d
00000160: 9fcb c3bd 3e7b fe3c 197c 8b3d ff6a 1abd
00000170: 9ff3 093e 5281 82bd bc8f 36bd 0c9c 80bd
00000180: 98f6 4ebc 848f 203d 5d0c b8bd 7ffc 1d3d
00000190: e14f 07bc 4efb 023b 8c8b 393c 54ac 543d
000001a0: 92aa 703b 8c6c 623d 0aa9 4cbd 5ab2 3a3b
000001b0: 28c3 9ebd 1598 5cbc 4738 6d3c f117 45bd
000001c0: 6c98 95bc 109e 173d 46b9 d6bc 158d 04be
000001d0: 458f 283d ff33 c9bc 66c2 cdbd 3c3c 873d
000001e0: 3b28 fcbc 46fc 6b3d 74ae 193d d774 713d
000001f0: 6fce b03b e0e8 a5bc 4df4 cbbc 652c 9e3d
00000200: 80a5 1ebe 50c7 ebbc c910 11bc c897 0cbd
00000210: d970 02bb 4c02 16bd e9da efbd df2a 1dbe
00000220: 2bc6 2abd 3c29 cb3c d32d e03b 8a10 873d
00000230: 3d1f ae3d e99c 42bd 42cc 503d a943 4dbd
00000240: 7b9f 9fbd 5288 86bd f305 af3b ce56 033d
00000250: 680b 40bd 98a1 39bd dbe9 8f3d 85c1 04bb
00000260: 3b2e 113d 05ff 0bbd 323a f3bc 9a0f 64bd
00000270: b316 13be 68d1 97bb f2f9 5dbd dc9e aebc
00000280: 6964 83bd cfbe cdbd 9b84 42bd 5af3 963b
00000290: 3261 aebe d95e a8bc 2281 c6bc 4a67 e1bd
000002a0: 1c46 1ebe b692 8b3d 4dc7 3abe eae6 383d
000002b0: b64f 0fbd 43f0 be3d 6e35 3b3d 24f3 b8bd
000002c0: bd38 c7bd 4a55 c53c 1879 83be 50d2 14be
000002d0: d5b7 11bd c4b8 973d b7dd c4bd cfa0 aa3d
000002e0: 4d68 02be 0e29 26be 1606 10be 3cf1 ba3d
000002f0: 6985 42bd 4194 ae3d 9f5d ccbd 70d9 84bd
00000300: 4eb9 42be d386 4a3c 5e39 90bd 0fc4 c2bc
00000310: a0da 063d f177 df3c 7396 21bd 6ced 923d
00000320: 370b 7abd 4dce 613d 002f 793c 3c3f 47bd
00000330: 2aef ea3b 9db2 ddbc 338d 8939 2181 a1bb
00000340: 0360 593c 6768 bdbd 3b15 d0bd 4c15 d93d
00000350: d689 293d 1a43 5c3d db92 7f3d 0ba5 78bd
00000360: ece0 99bd 58eb d7bd d506 fd3c 7b53 c73c
00000370: 9fdf b1bc 48c5 5fbd b721 2e3d 3f3a 54bd
00000380: fa06 a9bc e0a1 bcbd af88 a2bd 29cb 71be
00000390: 2aa6 13be 2222 5d3d a182 543c 82c2 77bd
000003a0: f468 eb3c 1517 86bd e04b fb3c 1bfb 63be
000003b0: 173d f4bc 6776 48be 4bf7 ae3c b26f 3abc
000003c0: d585 273c 8eb8 59bd 7efb 6d3d 283a d0bd
000003d0: 36d2 963d 4a77 3c3d 5d07 3fbe 8437 c9bc
000003e0: e0b3 a63c 6d7a 283c d1a2 e0bb d9c3 81bd
000003f0: 8bef 2dbd 4d30 14bd 431e 023c 50b2 8dbd
0.09104413 -0.47580817 -0.15588872 0.030167773 -0.092262246 0.0508361 0.020293783 -0.048623383
-0.13039155 0.0016201843 -0.09675687 0.04037881 -0.053972792 0.011299543 -0.04234519 -0.001599
-0.0051588714 0.16162205 -0.023753908 -0.062880754 0.019519575 -0.073899716 0.054481864 0.0086449
-0.017950725 -0.09795051 -0.033758204 -0.0013258688 -0.04061594 -0.011416268 -0.1504361 -0.018600937
0.0018169838 -0.15156212 -0.024056511 0.0053294785 0.06463323 -0.10860838 -0.03765719 0.015948955
-0.048120745 -0.008447654 -0.011137821 -0.010409068 0.05764747 -0.0032013245 -0.034518763 -0.09299461
-0.07923872 0.009418722 -0.09231632 -0.024174018 0.021938747 -0.12738936 0.021224609 0.09197587
-0.13414553 -0.028975124 0.061754573 -0.024038529 -0.03804614 0.024966422 -0.03820385 -0.02007972
-0.04287733 -0.022577751 -0.07646913 0.051274423 -0.031574663 -0.049859967 -0.037078697 -0.044970844
-0.06947726 0.0061771898 0.08963931 0.07348093 -0.006478085 -0.32289606 -0.02993919 -0.0831927
-0.035784047 0.003181437 -0.033773664 0.02784172 -0.038702477 -0.04021867 -0.03500363 0.08440197
-0.09560322 0.031064626 0.06810779 -0.037699696 0.1347184 -0.06372322 -0.04457067 -0.062797636
-0.012632035 0.039199367 -0.08986733 0.038570877 -0.008258791 0.0019986215 0.0113247745 0.051922157
0.0036722762 0.0552793 -0.049965896 0.0028487653 -0.07752067 -0.013463994 0.01447875 -0.048118535
-0.018261157 0.037015975 -0.026211392 -0.12944444 0.041152257 -0.024560926 -0.10046844 0.06603286
-0.030780902 0.057613634 0.037519887 0.058949318 0.0053957026 -0.020252645 -0.024896765 0.07723311
-0.1549282 -0.028781563 -0.0088541 -0.034324437 -0.0019903688 -0.036623284 -0.11711676 -0.15348385
-0.041692894 0.024799936 0.0068414 0.065949515 0.08502052 -0.047512922 0.050976045 -0.050113354
-0.0779409 -0.0656897 0.0053412854 0.032065205 -0.046885878 -0.045320123 0.07027026 -0.0020256948
0.03544448 -0.034178752 -0.029690836 -0.05567894 -0.14364128 -0.0046331175 -0.054193445 -0.021315984
-0.06415636 -0.100461595 -0.047489744 0.0046066465 -0.3405853 -0.02055304 -0.024231497 -0.11006029
-0.15456432 0.06815092 -0.1824009 0.04514209 -0.034988128 0.0932317 0.04570525 -0.090307504
-0.09727619 0.02408852 -0.25678325 -0.14533353 -0.035575707 0.07408288 -0.09612601 0.08331453
-0.127351 -0.16226599 -0.14064822 0.09128043 -0.04749051 0.08524371 -0.09978794 -0.064867854
-0.19016 0.012361246 -0.07042192 -0.023775129 0.03292334 0.027278872 -0.03945012 0.07174191
-0.06104585 0.055128384 0.01520896 -0.04864429 0.007169624 -0.027062709 0.00026235878 -0.0049287234
0.01326752 -0.09248429 -0.101602994 0.10599765 0.041391216 0.05377493 0.06239591 -0.060704272
-0.075136036 -0.10542935 0.030887047 0.024331799 -0.021713076 -0.0546315 0.04251262 -0.05181336
-0.02063321 -0.09210563 -0.079362266 -0.23612656 -0.14418855 0.05398763 0.0129705975 -0.06048823
0.028736569 -0.06547371 0.030675828 -0.22263758 -0.029814286 -0.19576417 0.021358153 -0.011379169
0.010224779 -0.05315452 0.05810117 -0.101673424 0.07364313 0.0460122 -0.18655153 -0.024562605
0.020349443 0.010283095 -0.0068553467 -0.06336183 -0.042464774 -0.036178876 0.007941785 -0.06918776

hidden2.bias f4 [256]
00000000: 8bd7 843d 5d81 4fbe ab7a c73d 3ff9 2bbd
00000010: 4e7e 5f3d ad1d 693d 151d 46bd 3702 1cbe
00000020: f6d5 e63d f8dd 03be 7531 b2bc fcf6 06be
00000030: 9b70 8bbe ecda 9bbc e5b9 8abb ed89 4dbd
00000040: 5f7c 37bd 7d31 a8bc e540 bcbd 692a 03be
00000050: 64fb 33be 8e0a 8abe 71c5 9cbd 10c6 703d
00000060: da0e 20bd 2196 153e d1dc ac3d 37f0 563d
00000070: 1b85 2cbd a066 66bd 9b72 35be b717 67bd
00000080: 375a 60bd 2d0d 4ebd 6319 573d 15a0 4c3d
00000090: 1fb5 6bbd db24 9bbe e5f0 8ebd ff18 123d
000000a0: ddbc e8bd 437e 7bbd 9a6b 3d3e b370 b8bd
000000b0: 4635 acbc d6d9 09bd 8f4a dfbd 865a 8abd
000000c0: 878e c03d 6682 4b3e 7a6d 013e b855 66bd
000000d0: 36ce 0a3c cb5c 2dbe 7adb 953b 2b72 b6bd
000000e0: b460 48bb 297c 983c a7ef 1cbe 6af4 51bd
000000f0: 7c3d eebc 5a6a e6bd 2d71 30be 8ad3 233e
00000100: 78f4 cfbd f5f6 b3bd a454 58be 2c30 b1bb
00000110: 3717 47bd 2360 d93d 32e9 38bc a973 aebc
00000120: a4ef 87bc c412 383e 413a 973d 0b70 43bc
00000130: a591 94bd 383f 8dbe c1d7 093e 1f32 a7bd
00000140: 595b f93d 291d a03d ab05 81bd ee03 90bd
00000150: 82eb 043d b40a 183d 0631 1bbe e10b 9b3c
00000160: 902b 093e 76c8 66bd 6bb1 273d f8ee 933e
00000170: f459 9c3d b34f cd3d 8e88 45be c827 bbbd
00000180: 528d 9d3d 2d29 443e 4bc0 c0bb 93a9 05be
00000190: 03db 163e b108 763d d83a 163c 6de7 913e
000001a0: d5a8 083c 3e8e 583d a14e 8a3d a7d4 933d
000001b0: c071 933d 3707 fdbc 6eab 263d 0ce2 ac3d
000001c0: 2949 813e ee9e dc3b a6b8 b5bd 499b babc
000001d0: 311c cdbd 38fa 913d 59de 5f3d e073 98bd
000001e0: 2d6f 2f3d 88cf d73d 5b2c 9ebd cf54 023d
000001f0: facc dfbc f70d 6bbe 5174 febd 468b a23d
00000200: 645f d0bd 38a7 973c 2f6a bdbd d4cf 163e
00000210: 2dce 453c e4cb 3d3e efd7 77bd 2d83 33be
00000220: 8354 8abd 966a e33d bfc6 393e a81a 87bc
00000230: 2605 913e 72ca 6fbd 0e04 ef3d 4f2b 00be
00000240: 479d 32bd 0f5f b5bc 94ac 73bd b472 9abd
00000250: 5478 9a3d 14fc 023e 4ab0 cdbb a9a1 c13b
00000260: ecc5 ec3c 7143 73be 7a8b 973c 6ea4 703e
00000270: 182f c43c a3d4 95bd dfae c63d 12cb 53bc
00000280: 5bd3 64bc bf27 64be f5cd cfbd fef1 25bd
00000290: 71be 0fbd 96ac 4e3d 51f9 803d 5f67 1b3e
000002a0: c7a5 29be 020f ac3d 0c82 41bd 1f77 dd3d
000002b0: 9743 cdbd e3a0 43be e712 b23d 3a58 273e
000002c0: ba61 06bd b422 423e 8481 2bbe 6fbd 99bd
000002d0: 65a4 b2bd b9b2 333e 6861 1dbe 7c3d aebd
000002e0: f88f bdbb b8a9 43bc 25bc 183e 99f7 f23b
000002f0: f24e 07be 251f 59bd d0db a4bd c4f3 bfbd
00000300: 7dc0 45bc 4fb6 a0bd 2147 08bc f5b7 77bd
00000310: 49a3 453e 1797 403c 01b2 3abc 3db2 01bc
00000320: d2cf 84bc 1f0f 69be 4b4c e63d 33c3 9dbd
00000330: e359 be3d 5bae 913d ca0a e0bc bfef 30bd
00000340: 11de 8fbd 80ec a83d 7941 91be ede1 f33d
00000350: 6e0b 48bd 471f 8c3c 8777 93bc cfff 443d
00000360: 6baf 103e 7600 243d 4576 46ba d8a2 08be
00000370: 9b49 653e 0c61 0abe afcf 47bd 5740 ad3d
00000380: 2753 9abd ad5c 8eba b8a0 08be b779 c73c
00000390: 9b84 3cbc 9bdf a13e 57b4 54bc a848 903d
000003a0: 9f2c 42bd c8b2 3c3d 07ea 173c 3f90 90bd
000003b0: 6539 f03d 8f9f 84bd 29e4 bcbc 9e7a 9e3d
000003c0: 5fa7 9e3d 4595 c43d e3cd 94bd 7b69 3dbd
000003d0: c8e4 16bc 81cf 4fbd ccbc 1c3e eebe 8b3c
000003e0: 7f1c 523d d443 1abb d388 18be d879 aabd
000003f0: 9957 33bd 562a 08be e44b 3e3d 1e97 103e
0.06486424 -0.20264192 0.09740194 -0.041985746 0.054563813 0.056913067 -0.04836758 -0.1523522
0.112712786 -0.12877643 -0.021752099 -0.13180155 -0.2723435 -0.019025289 -0.004233586 -0.050180364
-0.044796344 -0.02053141 -0.09192065 -0.12809147 -0.17576367 -0.26961178 -0.076548465 0.058782637
-0.039076664 0.14608051 0.08440555 0.05247518 -0.042119127 -0.056250215 -0.177195 -0.0564191
-0.054773536 -0.050305534 0.052514445 0.049957354 -0.057545777 -0.30301556 -0.06979541 0.03566837
-0.11364148 -0.06139971 0.18498078 -0.09005871 -0.021021497 -0.03365501 -0.10902893 -0.06755547
0.09402185 0.19873962 0.12639418 -0.05623409 0.008472016 -0.16929929 0.004573283 -0.089084946
-0.0030575218 0.018613892 -0.15325795 -0.051258482 -0.029082052 -0.11250754 -0.17230673 0.15998664
-0.101540506 -0.08787338 -0.21126038 -0.005407354 -0.048606124 0.1061404 -0.011286067 -0.021295385
-0.016593762 0.17975909 0.07384158 -0.011928569 -0.07254342 -0.27587295 0.1346121 -0.08163857
0.12175626 0.07818062 -0.06299909 -0.070319995 0.03245116 0.037119582 -0.1515542 0.018926563
0.13395524 -0.05634352 0.040940683 0.28893256 0.07634345 0.10024967 -0.19290373 -0.09138447
0.0769297 0.19156332 -0.005882298 -0.13052969 0.14731984 0.060066883 0.009169303 0.28496876
0.008341034 0.052870028 0.067532785 0.072182946 0.071994305 -0.03088723 0.04069083 0.084415525
0.2525113 0.006732813 -0.088731095 -0.022779124 -0.10015143 0.071278036 0.054655407 -0.074439764
0.042830635 0.1053763 -0.07723304 0.03181916 -0.02731942 -0.22954546 -0.12424529 0.079367206
-0.10174444 0.018512353 -0.092487685 0.14727718 0.012073082 0.1853481 -0.060508665 -0.17530508
-0.067544006 0.11104314 0.18142222 -0.016492203 0.2832424 -0.058542676 0.11670695 -0.12516521
-0.043607023 -0.022140054 -0.059490755 -0.07541409 0.07542482 0.12791473 -0.006277119 0.005909164
0.02890297 -0.23756196 0.018499125 0.23500225 0.023948237 -0.07315948 0.09701323 -0.012926834
-0.013966407 -0.22280787 -0.10146705 -0.040513985 -0.03509373 0.05045756 0.06297553 0.15176152
-0.16567145 0.084013 -0.047243163 0.10813736 -0.10022657 -0.19104342 0.086950116 0.1634225
-0.032808043 0.1895855 -0.16748625 -0.07506835 -0.08722762 0.17548646 -0.15369189 -0.08507821
-0.0057849847 -0.01194232 0.14915521 0.00741477 -0.13213709 -0.053008217 -0.080497384 -0.093726665
-0.012069819 -0.078472726 -0.00831774 -0.06047817 0.1930057 0.011754773 -0.0113949785 -0.0079160305
-0.016212378 -0.22759674 0.112450205 -0.07703247 0.09294488 0.07113334 -0.027348895 -0.04319739
-0.07024778 0.08248234 -0.28370264 0.11908326 -0.048839025 0.017104758 -0.018001331 0.04809552
0.14129417 0.040039502 -0.0007570724 -0.1334337 0.2239136 -0.13513583 -0.048782047 0.084595375
-0.07535391 -0.001086136 -0.1334256 0.02435003 -0.011506225 0.3161591 -0.0129824495 0.07045108
-0.047405835 0.046068937 0.009272105 -0.07058763 0.11729697 -0.06475746 -0.023058014 0.07738231
0.07746767 0.095987834 -0.07265832 -0.046243172 -0.009209819 -0.050735 0.15306395 0.017058816
0.051296707 -0.0023538964 -0.14895944 -0.08324021 -0.04378471 -0.132974 0.046459094 0.14120147

out.weight f4 [1, 256]
00000000: f44d 543d d50f 213c 945a 45bb 2513 1b3d
00000010: 5ef4 75ba 6ee6 c33b 54aa 0b3c 7b16 0fbd
00000020: bb1b 023c 3ea3 33bc 921a 893c 3af1 01ba
00000030: ff41 01be 4eda 5bbb 6e9d 803c a6f8 1d3c
00000040: a183 39bc cc47 d33b 0539 87bc 8e3a 4abd
00000050: b165 73bd 5d93 05be 16a2 2fbd b903 45bd
00000060: e406 053d 81f0 a93b b2cc de3b 9182 93bd
00000070: d5a6 ae3b 4058 fe39 8c9e 4ebd 2efd 22bc
00000080: d19d 71bc 75e8 c3bd 91b2 a93c e110 893c
00000090: 12ed 063c 5e08 87bc f519 84bd bc85 1e3e
000000a0: c991 4cbd 02b6 24be d738 723d ca77 df3b
000000b0: c9df 353e bf2d da3b 8f81 ccba dc3e 4d3b
000000c0: 12d0 60bb 71ad ba3c 903d f0bc 4116 4b3d
000000d0: 45a9 b03b ef95 8abb 1000 22bc b240 49b7
000000e0: 4e6a aabd f652 213d 1656 8abd a756 aabb
000000f0: 81db fa3b 4863 8dbd d819 29bd b0b1 80bd
00000100: 607b fc3c 39c2 89b9 3ff8 12bd 472a 413c
00000110: a3b2 a1bc 80a7 4f3c 140b 45ba d49c 07bb
00000120: ea50 943b 6757 0d3d 33ea 9bbb 74e3 043c
00000130: 21fc 41bd 0c1a a7bc d018 e33b 2f49 8c3b
00000140: 7cf3 ce3b f37b ec3a 15c8 633a 7a99 dd3a
00000150: 9adc f8bc 3e49 283b 58af 25bd a18a 3f3c
00000160: acac 833b b1d6 99bd 04e7 57bd bfc0 503c
00000170: 119e 103c 00e4 463d f6be 1ebe 1a97 1ab9
00000180: 94f0 7abb e769 2a3d 9f56 863d 2825 e8bc
00000190: 3466 5fbd ac7d ee3a 0e33 44bd 846d 853c
000001a0: 8ab5 033a 538f 263a 5092 843d 802e 753d
000001b0: f852 a53c 1198 03bc 0ec8 c33b 7940 a3bd
000001c0: 52ab ae3d 3ab4 b43b 1f35 e13b f2f6 5a3b
000001d0: 2b3c 5cbc b7e1 8dbd 8189 f03c 212a 353d
000001e0: d759 0a3b c604 f93d cbd1 d1bd e26c 9abc
000001f0: 5c91 953d 6a4a 6b3d d846 66bd 07c9 4c3b
00000200: c347 17be c4bc 41bb aabf d93b da54 e9bd
00000210: 9e4b 03bd a717 7c3b da6d 1a3b a1d7 93bc
00000220: d26f e13b a600 653b 2a4b 043d 2a6d 8e3d
00000230: bd70 993c c901 02bd 960f 443b 39ce 38bb
00000240: 7b97 cabc b53d 5c3b 160c 83bd aa5c ab3b
00000250: 36d1 b83a 80ca 293b 96b4 9d3c 8340 4a3b
00000260: ad86 fa3d 8576 98bd 31a8 84ba 8417 0d3c
00000270: 070c 113d 4680 1f3a 6bb9 553c d7ff b83c
00000280: 2adf 2c3c 7084 34bd b0dd a2ba fe2a 283c
00000290: b79c 8cbb 8f7f 203d 703f e3bb c6aa 453d
000002a0: d565 aebb f492 3d3a 85e3 53bb 0888 0839
000002b0: 7655 8fbd 206a 4a3c 699d 54bc dfbd c13b
000002c0: 13ec f03c 2b3c ee3c 133f 85bd d17e b73b
000002d0: 5aa8 09bc 324b e8bc 3355 adbb bb3f 553b
000002e0: 4395 613d 03db ddbc 7b62 0a3d 0718 033c
000002f0: e63f 673b f0f6 e13b 8756 7fbb 1978 f5bd
00000300: 1906 f7bb d8e2 6d3d 69fe 1cbc f577 8cba
00000310: 5971 0b3d fe6b 0a3d 295a f63c a8c1 cd3b
00000320: b23e dfbc 4135 17be 7296 c23c e1c4 b7bd
00000330: cf69 2d3d e61f 153b ef1c ffba ebfc 323b
00000340: 4a38 3ebb 0025 083d d69c e3bd dc90 47bc
00000350: a5f7 e6b9 35d6 06bd 8cbb 5039 778d 94bb
00000360: 3f75 f53c f4fa 9fbc df80 0dbd 0124 29bd
00000370: 169c 603d e654 1dbd 99e5 a2bb ad60 9a3b
00000380: 3027 cf3b b7b9 eabc a22b ffbd 4c45 ad3c
00000390: 72b0 7e3c 56d9 963c 107c e3bb 8589 f3bd
000003a0: a7ef 8ebd 5e84 683c 0342 663b 85b5 c1bd
000003b0: 7d92 cc3a 6344 cebd 028b 6abd 8738 95bc
000003c0: f548 113c b8f9 98bd 2cc1 14bd de91 69bb
000003d0: 3299 54bd ae9a 34bb c19f 453c 40e4 48bb
000003e0: 04c3 5cbb c32a 963c 8df7 b1bd c6ad aebd
000003f0: 2186 53bb 06b5 f1bc a3ae 023e b938 cb3b
0.051832154 0.009830435 -0.0030113803 0.037860055 -0.0009382422 0.005978397 0.008524496 -0.03493355
0.007941182 -0.010964213 0.016736303 -0.0004956905 -0.12622832 -0.0033546868 0.015700068 0.009641802
-0.011322887 0.006447768 -0.016506681 -0.04937225 -0.059423152 -0.13044496 -0.042879187 -0.048099253
0.032477275 0.005186141 0.006799304 -0.07202638 0.0053299465 0.00048512407 -0.05044417 -0.009948058
-0.014747099 -0.09565822 0.02071503 0.016731681 0.008235233 -0.016483482 -0.064502634 0.15480703
-0.04994372 -0.16085055 0.059136238 0.0068197 0.17761149 0.0066582854 -0.0015602576 0.0031317985
-0.0034303707 0.022787781 -0.02932623 0.04958177 0.0053912723 -0.0042292993 -0.00988771 -1.1995597e-05
-0.08321057 0.03938576 -0.06754701 -0.005198318 0.0076555614 -0.06903702 -0.041284412 -0.06283891
0.030820549 -0.00026275383 -0.035881277 0.011789865 -0.019738501 0.012674212 -0.00075166044 -0.0020692842
0.0045262473 0.03450718 -0.0047581433 0.00811087 -0.04735959 -0.020398162 0.006930448 0.004281185
0.0063156467 0.0018042311 0.00086891773 0.0016906701 -0.030378629 0.0025678421 -0.040450424 0.011690767
0.004018387 -0.07511652 -0.052710548 0.012741267 0.0088267485 0.04855728 -0.15502533 -0.00014742874
-0.0038290368 0.041604903 0.065594904 -0.02833803 -0.054540828 0.0018195412 -0.047900252 0.016287573
0.0005024305 0.00063537544 0.064732194 0.0598588 0.020181164 -0.008031861 0.005974776 -0.079712816
0.085287705 0.0055146487 0.0068727876 0.003341135 -0.01344208 -0.06927817 0.029362442 0.04422963
0.0021110678 0.121591136 -0.10245093 -0.018850747 0.07303116 0.057444014 -0.056219906 0.0031247751
-0.14773469 -0.0029561976 0.0066451626 -0.11393137 -0.032054536 0.0038466246 0.0023564012 -0.018047156
0.006879785 0.0034943013 0.032298245 0.06954415 0.018730516 -0.031739984 0.0029916517 -0.002819909
-0.024730435 0.0033606116 -0.063987896 0.0052295523 0.0014100436 0.0025908053 0.01925115 0.0030861206
0.122327186 -0.07444481 -0.0010120926 0.008611564 0.03541186 0.0006084483 0.013044695 0.022582931
0.010551253 -0.044071615 -0.0012425687 0.010264156 -0.004291143 0.03918415 -0.0069350526 0.048258565
-0.005322198 0.00072316756 -0.0032331657 0.00013020646 -0.06998722 0.012354404 -0.012976983 0.005912527
0.029409444 0.029081425 -0.06506171 0.0055998345 -0.008401955 -0.028356168 -0.0052896976 0.0032539207
0.055073988 -0.027081972 0.033785325 0.008001334 0.003528589 0.0068958923 -0.0038961486 -0.119857974
-0.0075385687 0.058077663 -0.0095821405 -0.0010716902 0.034043644 0.033794396 0.030072289 0.006279189
-0.027251575 -0.14766409 0.023753379 -0.089730985 0.042337235 0.0022754609 -0.0019463579 0.0027311395
-0.002902525 0.03323841 -0.111138985 -0.012180533 -0.00044053528 -0.032919127 0.00019906292 -0.0045334655
0.029963134 -0.019528843 -0.03454673 -0.0412941 0.054836355 -0.038411044 -0.004971218 0.0047112317
0.00632181 -0.028653009 -0.12459494 0.021151207 0.0155449975 0.01841418 -0.0069422796 -0.11891464
-0.06979304 0.014191715 0.003513456 -0.0945845 0.0015607622 -0.100716375 -0.057261474 -0.01821543
0.008867492 -0.07469505 -0.036317036 -0.0035639922 -0.05190391 -0.0027558017 0.012062014 -0.0030653626
-0.0033685574 0.018330937 -0.08689795 -0.085292384 -0.0032275992 -0.029505264 0.12761931 0.00620183
