model_weight/mqf2.pt (torch_old, 292889 bytes, 5 tensors)

hidden1.weight f4 [256, 26]
0	0xbd5ee434	-0.05441685
1	0x3de05016	0.10952775
2	0xbe0c4973	-0.13699894
3	0xbe450ea9	-0.19243874
4	0xbe3f62ce	-0.18690035
5	0x3d21b1d0	0.039476216
6	0x3e1977b7	0.14987074
7	0x3ca4c308	0.02011253
8	0xbe465b1b	-0.19370691
9	0xbe40136f	-0.18757413
10	0x3b8ba400	0.0042614937
11	0x3e3cb959	0.1843008
12	0xbe3e9479	-0.18611325
13	0x3dfa3bee	0.12218462
14	0x3e34e945	0.1766711
15	0xbdea17ac	-0.11430296
16	0x3e070a66	0.1318756
17	0xbe37ff9e	-0.17968604
18	0x3d9defe2	0.0771177
19	0x3e106951	0.14102675
20	0xbdba1c9a	-0.090874866
21	0xbc3fa69a	-0.011697436
22	0x3cca2f68	0.024680808
23	0xbd4b31b8	-0.049607962
24	0xbdad645c	-0.08466408
25	0xbf28b40b	-0.65899724
26	0xbd298d8c	-0.041394755
27	0xbd95869f	-0.073010676
28	0x3d412454	0.047153786
29	0x3db3df16	0.08782785
30	0x3d1e81e0	0.038698077
31	0xbe1f2915	-0.15543015
32	0x3d371364	0.044696227
33	0xbd040800	-0.032234192
34	0xbde3b3b9	-0.11118264
35	0x3df5fa6e	0.12010656
36	0x3e293d7b	0.16527359
37	0x3cbe9048	0.023262158
38	0xbcc48fa0	-0.023994267
39	0xbcb761f0	-0.022385567
40	0x3e1d5ec7	0.15368186
41	0x3d881942	0.066454425
42	0xbc348a94	-0.011019368
43	0xbda1fb13	-0.07909217
44	0xbe1df853	-0.1542676
45	0xbd9b4689	-0.07581813
46	0xbd05048b	-0.032475036
47	0xbd49627c	-0.049166188
48	0x3ca8a4a0	0.020586312
49	0xbde02d93	-0.109461926
50	0xbee5a3ff	-0.44851682
51	0xbe4ff547	-0.2030841
52	0xbc405100	-0.011738062
53	0x3d927ef6	0.07153122
54	0xbb2ba500	-0.0026190877
55	0xbd100bc4	-0.03516747
56	0x3d61b1bc	0.05510114
57	0x3b93c8a0	0.0045100003
58	0x3e42da2b	0.19028537
59	0x3d4e1218	0.050310224
60	0x3e42fe27	0.19042264
61	0xbdae6173	-0.08514681
62	0xbe00f3cb	-0.12593
63	0xbd796cc4	-0.060894743
64	0xbe259140	-0.1616869
65	0xbd8c0230	-0.06836355
66	0xbdcb9d4e	-0.09942113
67	0xbe2d74a1	-0.16939022
68	0xbe0dbdab	-0.13841884
69	0xbe27c255	-0.16382726
70	0xbe3967c5	-0.18105991
71	0xbe28b58a	-0.16475502
72	0x3dab43e9	0.08362562
73	0xbd41fc19	-0.04735956
74	0x3d9560b2	0.07293834
75	0x3e2c080d	0.16799946
76	0xbd4e382d	-0.050346542
77	0xbe3dad02	-0.18523028
78	0x3d7a58ac	0.06111972
79	0xbd408300	-0.04699993
80	0xbe0a4167	-0.13501512
81	0x3e3bedff	0.18352507
82	0xbd9d4e2b	-0.07680925
83	0xbbfa6920	-0.0076419264
84	0xbda7e03a	-0.08197065
85	0x3e409de3	0.18810229
86	0x3e138de7	0.144096
87	0xbe011670	-0.12606215
88	0x3d727b54	0.059199646
89	0x3deefe06	0.11669545
90	0xbde210e7	-0.1103838
91	0x3e3b97f5	0.18319686
92	0x3d483738	0.048880786
93	0x3db3e43a	0.08783765
94	0x3c586abb	0.01320904
95	0xbdf61580	-0.120158195
96	0x3c573680	0.013135552
97	0x3e45666b	0.1927735
98	0x3e1d04c7	0.15333854
99	0xbcaaa3e0	-0.020830095
100	0x3cbea010	0.023269683
101	0x3e03fb21	0.12888767
102	0x3f05abf1	0.52215487
103	0xbcfd9000	-0.030952454
104	0xbe2200c1	-0.158206
105	0x3e22c52d	0.15895529
106	0xbcf6f9e0	-0.030148447
107	0x3e31957d	0.17342182
108	0xbe01916e	-0.12653133
109	0xbdc6660c	-0.09687433
110	0x3e181319	0.14851035
111	0xbd87b680	-0.06626606
112	0x3d5ad3ac	0.053424522
113	0xbdec1d26	-0.11528997
114	0xbdb0896e	-0.08619963
115	0x3dcccffe	0.10000609
116	0x3dcc78b2	0.09983958
117	0xbd3ee3f8	-0.046604127
118	0xbd89c91e	-0.06727813
119	0xbe003df8	-0.12523639
120	0x3e3940b5	0.1809109
121	0x3c21c8b9	0.009874516
122	0x3e090dd5	0.13384183
123	0x3dbdf94a	0.09276064
124	0xbe189967	-0.14902268
125	0x3c3b5272	0.011433231
126	0xbcb5d8b8	-0.022198066
127	0xbd75ad4c	-0.059979722
128	0xbd77996b	-0.060449045
129	0x3f31d593	0.69466513
130	0xbd95e51a	-0.07319088
131	0xbc4983b0	-0.012299463
132	0xbc577b40	-0.013151944
133	0x3cc18998	0.02362518
134	0x3db4a8be	0.088212475
135	0xbddedbd3	-0.10881772
136	0xbdcb88b6	-0.09938185
137	0x3e0d8fbb	0.1382436
138	0xbdf1c898	-0.11805838
139	0xbdfd9e0c	-0.12383661
140	0x3d448568	0.04797879
141	0xbca4cfc8	-0.02011861
142	0x3cf868e8	0.03032346
143	0xbe00037c	-0.12501329
144	0x3db38e32	0.08767356
145	0x3e10d2bf	0.14142893
146	0x3de99374	0.114050776
147	0x3dbff808	0.0937348
148	0xbe384f8b	-0.17999093
149	0xbd2f20a8	-0.042755753
150	0xbe178fa7	-0.14800893
151	0x3dffac4f	0.12484037
152	0x3d24288c	0.04007773
153	0xbd33ad28	-0.043866307
154	0xbec874bb	-0.39151558
155	0xbe2e26bf	-0.17006968
156	0xbb799840	-0.0038085133
157	0xbdcd716b	-0.100313984
158	0x3c83af30	0.016074747
159	0x3db1984a	0.08671625
160	0xbe28b4ac	-0.16475171
161	0x3dc6100a	0.09671028
162	0x3e06b6c7	0.13155662
163	0x3df249d6	0.11830489
164	0xbd8d019a	-0.06885071
165	0xbdd12787	-0.10212617
166	0xbd189668	-0.037252814
167	0xbddd2e16	-0.10799806
168	0x3d835c9a	0.06414147
169	0xbdfa7488	-0.12229258
170	0x3dcf5526	0.10123663
171	0x3d79c39c	0.060977563
172	0xbdf489a4	-0.11940315
173	0xbd9ba818	-0.07600421
174	0x3d018fd4	0.031631306
175	0xbcab2538	-0.02089177
176	0xbd8018f7	-0.06254762
177	0xbdf2a1c9	-0.11847264
178	0x3d925ad2	0.07146229
179	0x3dcc0046	0.0996099
180	0xbd9caad4	-0.076497704
181	0x3ed8599d	0.4225587
182	0xbdf6370a	-0.120222166
183	0xbdfbc141	-0.1229272
184	0x3d29a6c8	0.04141882
185	0xbc4726f0	-0.0121552795
186	0xbe29ab59	-0.1656927
187	0xbe3be958	-0.18350732
188	0xbdaea685	-0.08527855
189	0x3de0c462	0.10974957
190	0xbe3e7db8	-0.18602645
191	0xbe158f56	-0.1460546
192	0x3d7e11ac	0.062028572
193	0xbd6e99b8	-0.058252066
194	0xbd88080a	-0.06642158
195	0xbd216188	-0.039399654
196	0x3e23ccab	0.15996043
197	0x3cdd9508	0.027048603
198	0xbd4a92cf	-0.049456414
199	0xbc0e2aec	-0.008677226
200	0xbe2ef44c	-0.1708538
201	0xbdc2fbad	-0.095206596
202	0xbbb78d23	-0.0056015416
203	0x3d4adbab	0.049525898
204	0xbdf5139f	-0.11966633
205	0xbe41fda3	-0.18944411
206	0xbeacb3a8	-0.33730817
207	0x3cc75ad0	0.024335295
208	0xbe11993b	-0.14218609
209	0xbcb781a8	-0.022400692
210	0x3cc858d8	0.024456427
211	0x3e0a3a0f	0.1349871
212	0x3d45ed84	0.048322216
213	0xbdbd189f	-0.09233212
214	0x3c9e6db0	0.019339412
215	0x3e238d3b	0.15971844
216	0xbbc81220	-0.0061056763
217	0xbdeda7e5	-0.11604289
218	0xbc090520	-0.008363038
219	0xbd69ce80	-0.0570817
220	0xbdd97960	-0.106188536
221	0xbe08a2c2	-0.13343337
222	0x3e400557	0.18752037
223	0xbe16a1e6	-0.14710197
224	0x3e0db246	0.13837537
225	0x3e014cd9	0.12626971
226	0x3dca5236	0.09878962
227	0xbe02c9e7	-0.12772332
228	0x3d8d8262	0.06909634
229	0xbeac090c	-0.33600652
230	0xbd2f426c	-0.042787954
231	0x3e1a5171	0.1507013
232	0x3e153607	0.14571391
233	0x3e04fc5b	0.12986891
234	0x3d57c98c	0.052682444
235	0x3b060a00	0.0020452738
236	0xbdae156e	-0.08500181
237	0xbe411151	-0.18854262
238	0xbe3df91a	-0.18552056
239	0x3c3984b0	0.011323139
240	0xbda69df9	-0.081356
241	0xbdb55ed3	-0.08855977
242	0xbe1402da	-0.14454213
243	0xbd852272	-0.065007105
244	0xbe2b4d4c	-0.16728705
245	0x3deaa732	0.11457671
246	0x3c4ae560	0.012383789
247	0x3e18f5b7	0.14937483
248	0x3d80b5b6	0.062846586
249	0xbd0db12c	-0.034592792
250	0xbcae5bef	-0.021284072
251	0x3e055fe1	0.13024856
252	0x3df0bc96	0.1175472
253	0x3e16a3d9	0.1471094
254	0x3d7bc569	0.061467562
255	0x3d143c2c	0.036190197

hidden1.bias f4 [256]
0	0x3e0d8ce9	0.13823284
1	0x3d5640a0	0.052307725
2	0xbdcd50e9	-0.10025198
3	0x3e358108	0.17725003
4	0x3dba23c8	0.09088856
5	0x3e42b0b4	0.1901272
6	0x3bbb622d	0.0057184906
7	0xbd0bb9ff	-0.034112927
8	0x3dcdaef5	0.10043136
9	0x3d82437d	0.063605286
10	0xbdd76184	-0.105166465
11	0x3c9e5ff3	0.019332862
12	0x3ce1e531	0.027575107
13	0xbd9a6c9a	-0.07540245
14	0x3d1548ee	0.036446504
15	0x3e2bd990	0.16782212
16	0x3e123ada	0.14280263
17	0xbd4e1032	-0.050308414
18	0x3e212f67	0.15740739
19	0xbdd20a1b	-0.10255834
20	0x3e3bc80e	0.18338034
21	0xbd9a43f0	-0.07532489
22	0x3ce9018a	0.028443117
23	0xbbb64cfa	-0.0055633755
24	0xbdb60b4c	-0.088888735
25	0x3ce5f0a4	0.028068848
26	0xbd8c6917	-0.06855982
27	0xbdfb307f	-0.12265109
28	0xbddf1922	-0.108934656
29	0xbd4a0f0e	-0.049330764
30	0xbe469ff2	-0.19396952
31	0xbc877394	-0.016534604
32	0x3e5081bc	0.2036199
33	0xbe2d905e	-0.16949603
34	0xbc831e4f	-0.016005663
35	0xbe704c75	-0.23466666
36	0x3d3605bb	0.04443906
37	0x3cf847db	0.0303077
38	0x39ddc5b6	0.0004229971
39	0x3e241187	0.16022311
40	0xbe193e88	-0.1496526
41	0x3e3a963f	0.18221377
42	0xbd937b44	-0.072012454
43	0xbb93b137	-0.0045072096
44	0xbe43fd61	-0.19139625
45	0xbdac5a35	-0.08415643
46	0xbcdb422e	-0.026764955
47	0x3da0026b	0.07812961
48	0x3d926052	0.07147278
49	0xbda28ea5	-0.079373635
50	0x3e391ea6	0.18078098
51	0xbce383a7	-0.027772738
52	0xbb74b9f2	-0.0037342277
53	0xbe0307a9	-0.12795891
54	0xbbbe35ea	-0.005804767
55	0xbe14eb42	-0.14542869
56	0x3db83a10	0.089954495
57	0xbd29a294	-0.041414812
58	0x3d7fc748	0.06244591
59	0x3d755949	0.059899602
60	0xbd582759	-0.0527719
61	0xbdb13b88	-0.08653933
62	0xbd6474a9	-0.05577532
63	0xbe44e942	-0.19229606
64	0xb9a43764	-0.00031321787
65	0xbd39db3d	-0.045375098
66	0x3dc0466b	0.09388431
67	0xbe2dfc07	-0.16990672
68	0x3e602f95	0.21893151
69	0xbe52f629	-0.20601715
70	0x3c1753aa	0.009236256
71	0x3d9e69af	0.07735001
72	0xbd414aa5	-0.047190327
73	0xbdb21073	-0.08694544
74	0x3d7ce2d7	0.06173977
75	0x3d6ebbc1	0.058284525
76	0x3d83cf57	0.06436031
77	0x3e680eae	0.2266185
78	0x3dd00b47	0.10158401
79	0x3d90c950	0.07069647
80	0xbddbb4c8	-0.10727841
81	0xbe140c07	-0.14457713
82	0x3d936776	0.07197468
83	0xbde69f1f	-0.11260819
84	0xbe063435	-0.13105853
85	0x3da2cb59	0.07948942
86	0x3e5d4bae	0.21610901
87	0x3e0b52d9	0.13605823
88	0x3e72f21c	0.2372517
89	0xbe5f6ace	-0.21818087
90	0xbe20a20a	-0.15686813
91	0x3e3d3d64	0.1848045
92	0x3c8ac451	0.016939314
93	0x3e2ba645	0.16762646
94	0x3dc95f6c	0.098326534
95	0x3e259b5b	0.16172545
96	0x3e086eba	0.13323489
97	0xbe1219f5	-0.14267714
98	0xbdcf74fe	-0.10129736
99	0x3cc0fc6e	0.023557868
100	0xbe152ebc	-0.14568609
101	0x3e0648f4	0.13113767
102	0x3da53eff	0.08068656
103	0xbcb41a58	-0.021985218
104	0x3c86206a	0.016372878
105	0xbe3c55a1	-0.1839204
106	0xbd74396c	-0.059625074
107	0x3db43738	0.08799595
108	0x3dbbd6eb	0.09171852
109	0x3d9a00c4	0.07519677
110	0xbd90d843	-0.07072499
111	0x3e055e9f	0.13024376
112	0x3dca6e02	0.098842636
113	0x3e2554d6	0.16145644
114	0x3d0a02d8	0.03369412
115	0x3e7e403b	0.2482919
116	0x3e234cbe	0.15947244
117	0xbe357a1b	-0.17722361
118	0xbe21fff6	-0.15820298
119	0x3e212f27	0.15740643
120	0xbdb54252	-0.0885054
121	0x3e3b7c4b	0.18309133
122	0x3bbc8cd2	0.005754092
123	0x3e1d3423	0.1535192
124	0x3e2b3e43	0.1672297
125	0x3c175580	0.009236693
126	0xbe389b51	-0.18027999
127	0xbd9273bc	-0.07150981
128	0xbdb0b1de	-0.086276755
129	0x3e12d730	0.143399
130	0xbe0e6838	-0.13906944
131	0xbd00d2e4	-0.03145112
132	0x3e2442b2	0.16041067
133	0xbd37b6f9	-0.04485223
134	0x3d971f70	0.07379043
135	0x3d90b0a6	0.07064943
136	0xbe43ccb3	-0.19121055
137	0xbdbdbbe3	-0.09264352
138	0xbbb242dd	-0.0054400996
139	0x3c6cb099	0.014446401
140	0xbe23c246	-0.15992078
141	0xbe8153bc	-0.25259197
142	0x3db26179	0.08709998
143	0xbdcc5b5a	-0.099783614
144	0x3df7ab8f	0.12093269
145	0x3e3d38b0	0.18478656
146	0xbe420224	-0.18946129
147	0x3e8e0fd1	0.27746442
148	0x3d8af2ba	0.06784578
149	0x3bcccc8c	0.00624997
150	0x3dc4c5e2	0.09608056
151	0x3dccbf48	0.099974215
152	0x3dd7b348	0.10532242
153	0x3de3c640	0.111217976
154	0xbe02a8b7	-0.12759672
155	0x3c12d865	0.008962725
156	0x3dd57591	0.10422815
157	0xbd77666b	-0.060400408
158	0x3e4f5a50	0.20249295
159	0xbdcf2851	-0.101151116
160	0xbe03b4a4	-0.12861878
161	0x3da50c91	0.080590375
162	0x3dcba3ab	0.099433266
163	0x3cdcc626	0.026949953
164	0xbd941cfa	-0.07232089
165	0xbe341635	-0.17586596
166	0xbdafa888	-0.08577067
167	0x3d90ad6c	0.070643276
168	0xbd0c41a5	-0.03424229
169	0xbd0489d2	-0.032358
170	0xbe413bd7	-0.18870483
171	0x3e8039c7	0.2504408
172	0x3e31cd4e	0.17363474
173	0x3d6248bc	0.055245146
174	0x3d1c1a9e	0.03811132
175	0x3dd12cbe	0.10213612
176	0x3db3daaa	0.08781941
177	0x3e690d50	0.22758985
178	0xbdc8cfe6	-0.098052785
179	0xbe1e4b9c	-0.1545853
180	0x3e20d6a8	0.15706885
181	0xbe1b01bd	-0.15137382
182	0x3d9a89ac	0.0754579
183	0x3d108da8	0.035291344
184	0x3dde0fb9	0.108428426
185	0xbda6fcaa	-0.081536606
186	0xbd494fa0	-0.049148202
187	0x3e4edc64	0.2020126
188	0xbe074397	-0.13209377
189	0xbd49b1e0	-0.0492419
190	0x3e1e87d1	0.15481497
191	0x3e338588	0.17531407
192	0x3d264a6b	0.040598314
193	0xbdfa5093	-0.122223996
194	0xbe3a0b01	-0.1816826
195	0xbe38a36e	-0.18031093
196	0xbda9f753	-0.082991265
197	0x3daeabfa	0.08528896
198	0x3d05176f	0.03249305
199	0xbd8923ec	-0.06696305
200	0x3dd4611d	0.103700854
201	0x3dc5bcc1	0.096551426
202	0x3dfcb249	0.12338693
203	0xbc8896e6	-0.016673516
204	0x3d701eac	0.058623
205	0xbe27e1af	-0.16394685
206	0x3cbece7b	0.023291817
207	0x3db960a8	0.09051639
208	0xbe12aab7	-0.14322935
209	0x3da2460b	0.07923516
210	0x3def268f	0.11677276
211	0xbe0d9281	-0.13825418
212	0x3e1d0a42	0.15335944
213	0x3dd51f54	0.10406366
214	0x3e1cb3bc	0.15302938
215	0x3dd80cc9	0.105493136
216	0xbe38ff7b	-0.18066208
217	0xbd506d93	-0.050885748
218	0xbdd9adcd	-0.10628853
219	0x3e18fe00	0.14940643
220	0xbbb08692	-0.005387136
221	0xbe33ddaf	-0.17565034
222	0x3d88306d	0.066498615
223	0xbe2ba0a2	-0.16760495
224	0x3d02485d	0.031807292
225	0x3d71c83e	0.059028856
226	0x3e77fb3a	0.24216929
227	0xbd7de0f9	-0.06198213
228	0xbe4db278	-0.20087612
229	0x3d132255	0.035921413
230	0x3c94fe70	0.018187732
231	0x3cb67135	0.022270778
232	0xbda06c10	-0.07833111
233	0xbd3580ab	-0.04431216
234	0xbdf4fa76	-0.11961834
235	0xbd5874c0	-0.052845716
236	0xbe4ce80c	-0.20010394
237	0x3b832209	0.00400186
238	0x3dcbb3ec	0.09946427
239	0xbd76de69	-0.0602707
240	0xbc6b7c77	-0.014372936
241	0xbe534b2a	-0.20634142
242	0x3d949b4b	0.07256182
243	0xbe5ec5c6	-0.21755132
244	0xbddebd58	-0.10875958
245	0xbe636607	-0.22206889
246	0xbc902631	-0.017596336
247	0xbd89da76	-0.06731121
248	0xbd8924ff	-0.066965096
249	0xbe11bd60	-0.14232397
250	0x3d09a474	0.0336041
251	0xbda9f4d6	-0.08298652
252	0xbe18970a	-0.14901367
253	0xbddad753	-0.10685601
254	0x3dae66c5	0.085156955
255	0x3d9f1232	0.07767142

hidden2.weight f4 [256, 256]
0	0xbd15b916	-0.036553465
1	0xbb0c0ce0	-0.0021369979
2	0xbd79bfd3	-0.060973953
3	0x3c9f9db5	0.01948438
4	0xbd045864	-0.03231086
5	0x3b3efba0	0.002914168
6	0x3d490684	0.04907848
7	0x3d130052	0.035888977
8	0xbcab8b99	-0.020940589
9	0xbd0997b5	-0.033591945
10	0xbc34c600	-0.011033535
11	0xbce676c5	-0.028132806
12	0x3d5f7f92	0.05456502
13	0xbd7fe6c2	-0.062475927
14	0x3b1ffc80	0.0024411976
15	0xbc476394	-0.012169737
16	0x3c5f37d8	0.013624154
17	0xbbfa0d70	-0.0076309964
18	0xbc5a2a20	-0.013315707
19	0xbd05158b	-0.032491248
20	0xbd7d0897	-0.06177577
21	0xbd1369c6	-0.035989545
22	0xbce1b9fd	-0.027554506
23	0x3d4f8546	0.05066421
24	0xbcd49b14	-0.025952853
25	0xbcb782fc	-0.022401325
26	0x3d03ec0c	0.032207534
27	0xbd1d71d4	-0.038438633
28	0xbbbf5a69	-0.005839635
29	0xbd2f92c8	-0.04286459
30	0x3c97c40d	0.018526101
31	0x3a302ff0	0.00067210104
32	0xbc7d6603	-0.015466216
33	0x3d13e996	0.036111437
34	0xbd3741d0	-0.044740498
35	0x3d5572d4	0.05211146
36	0xbd36a10a	-0.044587173
37	0xbd143ebc	-0.03619264
38	0xbd7d29d4	-0.06180747
39	0x3c9ce10c	0.01915028
40	0xbd796d94	-0.060895517
41	0xbd09ca28	-0.033640057
42	0xbcccae2b	-0.024985394
43	0x3bf25cb2	0.007396304
44	0xbcecc23c	-0.028901212
45	0xbc09d6d0	-0.008413032
46	0xbcaf5208	-0.02140142
47	0x3d23e2bb	0.04001115
48	0x3bef4140	0.0073014796
49	0xbd37b580	-0.044850826
50	0xbc8a2879	-0.016865002
51	0xbd2d3c28	-0.042293698
52	0xbcbd05d0	-0.02307406
53	0x3c8e4758	0.017368004
54	0xbd014be8	-0.03156653
55	0x3d02b8ea	0.03191463
56	0xbd1d7f52	-0.0384515
57	0xbcadc350	-0.021211296
58	0xbb7b6320	-0.0038358644
59	0x3d363ac8	0.044489652
60	0xbb3cc7c0	-0.0028805584
61	0xbd49cb15	-0.04926594
62	0xbc2b68b0	-0.010461971
63	0xbd618f9d	-0.0550686
64	0xbc52331d	-0.012829569
65	0x3d47b77e	0.048758976
66	0x3b31dcad	0.002713959
67	0x3d515b2c	0.05111234
68	0x3cb3dc2e	0.021955576
69	0xbbea700f	-0.0071544717
70	0x3c9e2df0	0.019309014
71	0x3cdee5e9	0.02720924
72	0x3d2a668f	0.041601714
73	0xbd6110a2	-0.054947503
74	0xbcedbc50	-0.029020458
75	0x3a3f9149	0.0007307721
76	0xbd12d650	-0.035848916
77	0xbcc3ba08	-0.023892418
78	0x3d58f9de	0.052972667
79	0xbcde97d2	-0.027172003
80	0xbd72e132	-0.059296794
81	0xbcbee220	-0.023301184
82	0xbcd8c1b4	-0.026459552
83	0xbd0fb844	-0.03508784
84	0xbd229fa0	-0.03970301
85	0x3c92f6fc	0.017940037
86	0x3bf24210	0.007393129
87	0xbb8c5c62	-0.004283474
88	0x3d22b470	0.03972286
89	0xbccf52e4	-0.02530808
90	0x3d36c0ce	0.044617467
91	0xbc29b37d	-0.010357735
92	0x3cbbbdc8	0.022917643
93	0x3d77dcbc	0.060513243
94	0x3cc46170	0.023972243
95	0x3d3d626a	0.046236433
96	0xbd35a677	-0.044348206
97	0x3b8a46b0	0.0042198524
98	0x3d518d24	0.051159993
99	0xbcbf501c	-0.023353629
100	0x3cfd3b10	0.030911952
101	0xbd3adb88	-0.045619518
102	0x3d6ede36	0.058317386
103	0x3c0dbf20	0.008651525
104	0x3bb9ca41	0.0056698625
105	0x3d5498d0	0.051903546
106	0xbcf58cbc	-0.029974334
107	0x3c4b94e8	0.012425639
108	0x3d3f1788	0.0466533
109	0x3c42e5d0	0.011895612
110	0xbd3a2b34	-0.045451358
111	0xbb38da0e	-0.0028206143
112	0xbc6d11e0	-0.014469594
113	0x3c68af20	0.014201909
114	0x3d204810	0.039131224
115	0x3cf6bafc	0.030118458
116	0xbd8182d6	-0.06323783
117	0x3c9843c4	0.018587
118	0xbd5395ba	-0.051656462
119	0x3d3a23aa	0.04544417
120	0xbc2deebb	-0.010616
121	0xbc3463b0	-0.0110100955
122	0xbcf64574	-0.030062415
123	0xbb2f4158	-0.0026741829
124	0xbd2c7c36	-0.042110644
125	0x3cc6ce84	0.024268396
126	0xbd691176	-0.056901418
127	0xbbeff5c7	-0.007323
128	0x3d247996	0.040155016
129	0xbd14bc92	-0.036312647
130	0xbd053576	-0.032521687
131	0xbc8873a4	-0.016656704
132	0xbd0b1a12	-0.03396041
133	0x3d2f736e	0.04283469
134	0x3d115d87	0.035489585
135	0x3d7faa4a	0.06241826
136	0xbd5ccc11	-0.05390555
137	0x3d6a0370	0.057132185
138	0x3ce67540	0.028132081
139	0x3d1e437e	0.038638584
140	0x3cadeae8	0.021230176
141	0x3cec94e0	0.028879583
142	0xbc5df3e2	-0.013546916
143	0xbc3b79c8	-0.011442609
144	0x3c5a06fc	0.013307329
145	0x3d77b62d	0.06047647
146	0x3d606b50	0.05478984
147	0x3ce81d38	0.028334245
148	0x3b815310	0.0039466694
149	0xbcdd5ca1	-0.027021708
150	0xbd3fc328	-0.046816975
151	0xbd616f77	-0.05503794
152	0xbd797887	-0.06090596
153	0x3cf949c3	0.03043068
154	0xbd143ce8	-0.036190897
155	0x3d6369d2	0.05552084
156	0xbd63776c	-0.05553381
157	0xbd7528c5	-0.059853334
158	0x3bdad920	0.0066787153
159	0xbc6e74e0	-0.014554232
160	0x3c37eed4	0.011226375
161	0xbcfdf15c	-0.030998878
162	0xbd78decd	-0.060759354
163	0x3d3167c7	0.04331186
164	0x3d368256	0.04455789
165	0x3d30c32e	0.043154888
166	0xbaad4467	-0.0013219238
167	0xbd263236	-0.04057523
168	0xbc6b6e21	-0.0143695185
169	0x3d444854	0.04792054
170	0x3d2dc15b	0.042420726
171	0xbca963cc	-0.02067747
172	0x3cb3b668	0.021937564
173	0x3d2e8bc6	0.042613767
174	0x3cf86be0	0.030324876
175	0x3c657ac0	0.014006317
176	0x3d6cf67a	0.057852246
177	0xbd115188	-0.035478145
178	0x3c1ea795	0.009683509
179	0x3c558ac0	0.013033569
180	0xbd6c024c	-0.057619378
181	0x3d077b0a	0.033076324
182	0xbd61dbd0	-0.05514127
183	0xbd1a2eec	-0.037642404
184	0x3ce34a68	0.02774544
185	0xbd6e02e8	-0.05810824
186	0x3d0a34fe	0.033741944
187	0xbc235ac2	-0.009970369
188	0xbd76aab2	-0.06022138
189	0x3d77f2ee	0.06053441
190	0xbd19e3f5	-0.037570912
191	0x3d679a9d	0.056543935
192	0xbd02a930	-0.03189963
193	0xbc4f9891	-0.012670652
194	0xbcf43074	-0.02980826
195	0xbd6eeb61	-0.058329944
196	0x3bcb5d89	0.0062062186
197	0xbd1816fa	-0.037131287
198	0xbc980c3b	-0.01856052
199	0xbd159030	-0.03651446
200	0xbd2ee136	-0.042695247
201	0x3d253268	0.040331274
202	0x3c82c268	0.01596184
203	0xbd4a3fb6	-0.049377166
204	0x3cacc898	0.021091744
205	0xbd700bae	-0.05860489
206	0xbd75bc8a	-0.059994258
207	0xbd7b7eba	-0.061400153
208	0xbd7a6e7c	-0.061140522
209	0x3d58c886	0.05292561
210	0xbd722ce8	-0.059124857
211	0x3d00bd59	0.031430576
212	0xbc1b3f28	-0.009475507
213	0xbcfe6189	-0.031052368
214	0x3bc8be7f	0.0061262245
215	0xbd2934ac	-0.041309997
216	0xbd5dd486	-0.054157756
217	0xbc49ce98	-0.012317322
218	0xbc00d147	-0.007862396
219	0x3d479aa6	0.04873147
220	0x3cce0bab	0.025152048
221	0xbce0aae8	-0.027425244
222	0xbc8684b9	-0.016420709
223	0x3ca8f899	0.020626353
224	0xbd45294a	-0.04813508
225	0x3d6f1e8b	0.058378737
226	0xbc16f1c8	-0.009212919
227	0x3d12351d	0.035695184
228	0x3d16757b	0.03673313
229	0x3d4a0d17	0.04932889
230	0x3be15d30	0.006877564
231	0xbca36e18	-0.019949958
232	0x3d31269a	0.043249704
233	0xbd2a1ca2	-0.041531213
234	0x3cf85a75	0.03031657
235	0x3d5b4913	0.053536486
236	0xbd6a2731	-0.057166282
237	0x3d5061f5	0.05087467
238	0x3cc41531	0.023935886
239	0xbd0605b6	-0.03272029
240	0xbd2d82e7	-0.042361166
241	0xbc145cb8	-0.009055309
242	0x3c92927d	0.017892117
243	0x3cd0d6c4	0.025493033
244	0x3cc7490c	0.024326824
245	0x3b165471	0.0022938515
246	0x3cf30fa4	0.029670544
247	0x3d2050f4	0.039139703
248	0x3ae284d8	0.0017282022
249	0x3d678929	0.05652729
250	0xbd33aaaf	-0.04386395
251	0xbd70e61c	-0.0588132
252	0xbcc76427	-0.024339749
253	0x3ca7bd28	0.020475939
254	0x3c9e3ad4	0.01931516
255	0x3ce46bda	0.027883459

hidden2.bias f4 [256]
0	0x3d0d022b	0.034425896
1	0x3d53c885	0.051704902
2	0x3d0e844e	0.034794144
3	0xba71ef6b	-0.00092290965
4	0xbdc59a03	-0.09648516
5	0xbd9f07f2	-0.07765187
6	0xbca8384c	-0.020534657
7	0x3b563c1d	0.003268964
8	0xbdb48f90	-0.08816445
9	0x3daaeb78	0.08345693
10	0xbd81c779	-0.063368745
11	0xbcf619f1	-0.030041667
12	0x3cd1012e	0.025513258
13	0x3bae43ed	0.005318156
14	0x3d02848d	0.03186469
15	0xbcc76f16	-0.024344962
16	0xbd30a1dd	-0.043123115
17	0xbd909893	-0.07060351
18	0x3d534048	0.051574975
19	0xbd0d5d62	-0.034512885
20	0xbd769b48	-0.06020668
21	0x3cfc20b0	0.030777305
22	0xbad9c9d7	-0.0016615939
23	0xbc40771b	-0.011747147
24	0x3d55b7cb	0.05217723
25	0x3d539b1f	0.051661607
26	0x3bdb285a	0.00668816
27	0x3c71dbe2	0.014761897
28	0x3d262612	0.04056365
29	0xbce7001f	-0.0281983
30	0x3d48f26c	0.049059317
31	0xbbaef16a	-0.0053388374
32	0xbc8b9027	-0.01703651
33	0x3a4584bb	0.0007534732
34	0x3b486d4e	0.0030582729
35	0xbd50ff01	-0.05102444
36	0x3d3c6390	0.045993388
37	0x3ceb8c8d	0.028753543
38	0xbbb22ca0	-0.0054374486
39	0x3db61566	0.088908
40	0x3cec3dfa	0.028838146
41	0xbcc108a7	-0.023563696
42	0x3c1d01e5	0.009582971
43	0xbc5f9ec9	-0.013648697
44	0xbc9ebad8	-0.019376203
45	0xbd8f1f60	-0.06988406
46	0x3d31481d	0.043281663
47	0xbd0f3002	-0.034957893
48	0x3d47f36d	0.048816133
49	0x3bb69190	0.0055715516
50	0xbd14a03d	-0.036285628
51	0xbbe1db9c	-0.0068926346
52	0xbc50462a	-0.012712041
53	0x3d21c87c	0.039497837
54	0xbd81ebad	-0.0634378
55	0xbd683b86	-0.05669739
56	0x3d37bc64	0.044857398
57	0xbda27010	-0.079315305
58	0xbd4d332c	-0.05009763
59	0xbd75b18d	-0.05998378
60	0xbcb290d1	-0.02179757
61	0x3af69a8e	0.0018814371
62	0x3d361ac1	0.04445911
63	0xbd89ac0f	-0.06722271
64	0x3d8f0079	0.06982512
65	0xbde687ad	-0.11256347
66	0x3cd9dcd8	0.026594564
67	0xbd6d060e	-0.057867102
68	0x3c84980c	0.016185783
69	0xbd30c1d4	-0.0431536
70	0x3d3eb25c	0.046556816
71	0xbb9c8100	-0.00477612
72	0x3d12bf3b	0.035826903
73	0x3bfc735b	0.007704181
74	0x3c6fd212	0.014637487
75	0xbc3687ff	-0.011140822
76	0xba828adc	-0.0009959596
77	0x3c592368	0.01325307
78	0x3d16997d	0.03676747
79	0xbcfbd901	-0.030743124
80	0xbcacf3c9	-0.02111234
81	0xbce0d408	-0.027444854
82	0x3d438d3a	0.047742106
83	0xbd48617f	-0.048921105
84	0xbcc5390c	-0.024075054
85	0x3c933234	0.017968275
86	0xbb4d9f80	-0.0031375587
87	0xbb4c3fd4	-0.0031165974
88	0x3db164a6	0.08661775
89	0xbb86dc49	-0.0041156155
90	0xbc8c059d	-0.01709252
91	0x3cc2377d	0.0237081
92	0xbd8c71ed	-0.06857667
93	0x3d077946	0.03307464
94	0xbd7c9ca6	-0.06167283
95	0xbcf5e719	-0.030017423
96	0xbbfc9309	-0.0077079576
97	0x3d400a88	0.046885043
98	0xbd4d03d0	-0.050052464
99	0x3cb56f63	0.02214784
100	0x3ca844fb	0.020540705
101	0xbcb9800c	-0.022644065
102	0x3d5277bc	0.05138372
103	0x3d45783b	0.048210364
104	0x3ad52d61	0.0016264134
105	0x3d1fcbee	0.039012842
106	0xbd276e2f	-0.040876564
107	0x3be001c3	0.0068361475
108	0xbc300c68	-0.010745145
109	0xbd42f910	-0.047600806
110	0xbd7d0c39	-0.061779235
111	0x3c2ce6d7	0.010553083
112	0xbc1f3d58	-0.009719215
113	0xbd91859d	-0.07105563
114	0xbaaf61ed	-0.0013380625
115	0xbd1b4285	-0.037905235
116	0xbc861bc5	-0.016370663
117	0x3da7569f	0.081708185
118	0xbd27d6ad	-0.040976215
119	0xbcde30bb	-0.027122846
120	0x3d026d76	0.03184267
121	0x3d1989ba	0.037484862
122	0xbd465702	-0.04842282
123	0xbd564856	-0.05231508
124	0x39b8d653	0.000352549
125	0xbc8da7fc	-0.017292015
126	0x3cb390b5	0.021919588
127	0x3aff5cf8	0.0019482663
128	0xbd15491d	-0.03644668
129	0x3cbab53b	0.022791496
130	0x3c8c5264	0.01712913
131	0xbb091be0	-0.0020921156
132	0x3b25ad76	0.0025280393
133	0xbd2e82fb	-0.04260538
134	0x3c8a529c	0.016885094
135	0x3d5f2259	0.054476116
136	0xbd256148	-0.040375978
137	0x3c44e95b	0.012018527
138	0xb9d13f4b	-0.00039910743
139	0xbc1b85fa	-0.009492392
140	0x3cc20d10	0.02368787
141	0x3d649154	0.05580266
142	0x3d6e0e99	0.05811939
143	0x3d9261b8	0.071475446
144	0x3d461a0d	0.048364688
145	0xb9890562	-0.00026134687
146	0xbd7b51dc	-0.061357364
147	0xbb9e34b8	-0.004828062
148	0xbcc89b84	-0.024488218
149	0xbc4807f5	-0.012208928
150	0x3dae3afc	0.08507344
151	0xbd556a6c	-0.052103445
152	0xbc811c5e	-0.015760597
153	0x3b3ba280	0.0028630793
154	0xbd2d2d73	-0.042279672
155	0xbc36b588	-0.011151679
156	0xbd07393d	-0.03301357
157	0xbd8d0f60	-0.06887698
158	0x3dc2928e	0.09500609
159	0x3d13ce19	0.036085222
160	0x3d886ba7	0.06661158
161	0x3d534e8b	0.051588576
162	0x3c527380	0.01284492
163	0x3d27a6ff	0.040930744
164	0x3d490113	0.04907329
165	0xbd6ebd8d	-0.05828624
166	0xbd14ca8a	-0.03632597
167	0xbbeca844	-0.0072222073
168	0x3d1b3cb4	0.037899688
169	0x3d47d2ae	0.048784904
170	0xbc9ac9d0	-0.01889506
171	0xbd8ab9c9	-0.06773717
172	0xbcbd7174	-0.023125388
173	0x3d824db0	0.06362474
174	0xbd15100d	-0.03639226
175	0xbc791a79	-0.0152040655
176	0xbd7798a2	-0.060448296
177	0xbd5559c0	-0.052087545
178	0x3c372a12	0.011179464
179	0xbd2feb0c	-0.042948768
180	0x3d172226	0.0368978
181	0xbd4b1c6a	-0.049587645
182	0xbca912ee	-0.02063891
183	0xbd37ed08	-0.044903785
184	0xbc81ea13	-0.015858686
185	0xbbb25274	-0.005441958
186	0x3d02ded9	0.031950805
187	0xbbc1cb18	-0.0059141032
188	0x3d86d7e9	0.0658415
189	0xbd7029d1	-0.05863363
190	0xbcaf7e3f	-0.021422504
191	0xbd2dd085	-0.042435188
192	0x3d0a2e9c	0.033735856
193	0xbd0e2d14	-0.03471096
194	0xbdb61ece	-0.08892594
195	0xbc149dd4	-0.009070832
196	0xbd2eb326	-0.042651318
197	0x3d413876	0.047172986
198	0x3d0e63a8	0.03476301
199	0x3c9ba326	0.018998694
200	0xbd826116	-0.06366174
201	0x3d4e410c	0.050355002
202	0x3b8691f5	0.004106755
203	0x3d200e92	0.039076395
204	0xbd47eb24	-0.048808232
205	0xbc6071d6	-0.013699016
206	0xbd44a233	-0.048006248
207	0x3d5cc6c0	0.05390048
208	0xbd02795e	-0.031854026
209	0x3d49d488	0.04927495
210	0x3db6eb6f	0.08931624
211	0x3d2a1013	0.041519236
212	0x3c9ca3f1	0.019121142
213	0x3b4727b1	0.0030388648
214	0x3cfa431c	0.030549578
215	0x3d91ffb0	0.07128847
216	0x3c5bbe20	0.013412029
217	0x3cdf2a89	0.027241962
218	0x3d9e8f05	0.077421226
219	0xbdb2a25d	-0.087223746
220	0xbc8252bf	-0.015908597
221	0x3d073656	0.033010803
222	0xbd10fc5e	-0.035396926
223	0xbaf8c8fb	-0.0018980795
224	0xbd346db4	-0.044049934
225	0x3d852c9e	0.06502651
226	0x3b3fce45	0.0029267233
227	0x3cce28a8	0.02516587
228	0x3c2add63	0.010428759
229	0x3db91644	0.0903745
230	0x3d03a1a3	0.03213657
231	0x3d27d3ba	0.040973403
232	0xbd2dac74	-0.042400792
233	0xbcf0d1a8	-0.029396847
234	0x3c8762e0	0.01652664
235	0xbcdf20b3	-0.027237272
236	0x3d1dd070	0.03852886
237	0xbbf0bfda	-0.0073470892
238	0x3c9fbe90	0.019500047
239	0x3d8ecd7b	0.06972786
240	0xbccc7341	-0.024957301
241	0x3c82d31e	0.01596981
242	0x3cab480d	0.02090838
243	0xbc4f5e8e	-0.012656821
244	0xbd5b87aa	-0.053596176
245	0xbdc14600	-0.094371796
246	0xbc8f7d32	-0.017515752
247	0x3d9dc149	0.07702882
248	0x3cacc988	0.021092191
249	0xbd464ed4	-0.04841502
250	0xbd8f758d	-0.07004843
251	0x3c20b6b0	0.009809181
252	0xbd02127b	-0.031755906
253	0xbb3c35b3	-0.002871853
254	0xbd7e555f	-0.062093135
255	0x3c8ca34d	0.017167712

out.weight f4 [1, 256]
0	0xbb40f417	-0.0029442364
1	0x3d1f4bc7	0.038890626
2	0xbe239058	-0.15973032
3	0x3b54a67f	0.0032447872
4	0xbdf66bf3	-0.120323084
5	0xbdf86d80	-0.121302605
6	0xb9e696f5	-0.0004398149
7	0xbdf02719	-0.11726207
8	0xbe14ddfc	-0.14537805
9	0x3d42e668	0.047583014
10	0xbd58020b	-0.052736323
11	0xbe16cb73	-0.14726047
12	0xbc1abbc2	-0.009444179
13	0x3d6717d3	0.056419205
14	0x3d1ce848	0.03830746
15	0x3b0bd176	0.0021334565
16	0x3b1d8cb0	0.0024040155
17	0xbe059e3f	-0.13048647
18	0x3d59457c	0.05304478
19	0x3cbaea29	0.022816734
20	0xbe3317c2	-0.17489532
21	0x3d1a0c45	0.037609357
22	0xbedacfc0	-0.42736626
23	0x3d8664c8	0.06562191
24	0xbaba3ed5	-0.0014209399
25	0x3d18546d	0.03718989
26	0x3e05720c	0.13031787
27	0xbdf6027a	-0.12012191
28	0xbe66b130	-0.22528529
29	0x3cbf5b5b	0.023358991
30	0xbd14c9bd	-0.036325205
31	0x3cf62ae5	0.03004975
32	0x3d6eeb7a	0.058330037
33	0x3da3656d	0.0797833
34	0xbc8617ea	-0.016368825
35	0xbda354af	-0.079751365
36	0x3ccc0ef8	0.024909481
37	0xbd1b821b	-0.037965875
38	0xbbcb47ad	-0.006203613
39	0x3d157d8e	0.03649669
40	0xb90d8df8	-0.00013499695
41	0xbb961814	-0.004580507
42	0x3a98cdb2	0.0011657982
43	0x3c3f1ba6	0.011664307
44	0x3b56ba74	0.0032764943
45	0xbb0b4a86	-0.0021254136
46	0xbe0b8548	-0.13625062
47	0x3d98dd3a	0.074640706
48	0x3da4936f	0.08035933
49	0x3d19aae8	0.037516505
50	0x3dc9c48b	0.09851941
51	0x3bcf8b13	0.0063337176
52	0x3b42365a	0.0029634447
53	0xbe37daaf	-0.17954515
54	0x3d06ab37	0.032878127
55	0xbb4f529f	-0.003163494
56	0xbc817875	-0.015804509
57	0xbe043b53	-0.12913255
58	0xbdf320b9	-0.11871476
59	0xba84cb8c	-0.0010131462
60	0x3ddb47f7	0.107070856
61	0xbc48891b	-0.01223972
62	0x3a84d260	0.0010133497
63	0xbaba6187	-0.0014219739
64	0x3daf534e	0.08560811
65	0xbe0ceb92	-0.13761738
66	0x3d006706	0.03134825
67	0x3c3d91aa	0.011570374
68	0xb9bfbb0b	-0.00036569717
69	0x3dccfad5	0.1000878
70	0xbbebca8a	-0.0071957754
71	0x3d24f8da	0.040276386
72	0xbe054a92	-0.13016728
73	0xbb93f510	-0.0045152977
74	0xbc0b3788	-0.008497126
75	0xbabb29a7	-0.0014279381
76	0xbe025e31	-0.12731244
77	0xba41f660	-0.00073990785
78	0xbc105de2	-0.008811446
79	0x3cfb5bc1	0.0306834
80	0x3df70324	0.12061146
81	0x3d6ea98a	0.058267154
82	0x3a775376	0.0009434739
83	0x3c910032	0.017700288
84	0x3d3a44ec	0.045475885
85	0x3d4f5fd1	0.050628487
86	0x3ac84320	0.0015278794
87	0x3be219c9	0.0069000465
88	0x3c8f02a6	0.017457318
89	0x39ac1e92	0.00032829173
90	0xbe0f6167	-0.14002
91	0x3d7c4179	0.061585877
92	0xbc5af4a4	-0.013363991
93	0x3d3645c3	0.044500124
94	0xbda05d4f	-0.07830297
95	0xbc9c62c7	-0.01909007
96	0xbe661053	-0.22467165
97	0x3a46c078	0.00075817807
98	0x3ac12710	0.0014736373
99	0x3d6f587e	0.058434002
100	0xba29f33e	-0.0006483084
101	0xbb16e1f3	-0.002302286
102	0x3b680f29	0.0035409427
103	0x3d615536	0.055012904
104	0xbd919b3f	-0.07109689
105	0xbac7755b	-0.001521747
106	0xbb4e9b59	-0.00315257
107	0x3a995ad7	0.0011700046
108	0x3da897a3	0.082320474
109	0xbb28c545	-0.0025752347
110	0xbc3e871b	-0.011628891
111	0x3d3a5dff	0.045499798
112	0x373f9300	1.1418713e-05
113	0xba8c67ce	-0.0010712089
114	0xbe7e9914	-0.24863082
115	0xbb4c46ce	-0.0031170133
116	0x3d04a567	0.032384302
117	0x3d4e921b	0.050432306
118	0x3bdcadc3	0.006734581
119	0xba89609b	-0.0010481061
120	0x3d5e349b	0.054249387
121	0x3a1c374c	0.00059591676
122	0xbb3f9990	-0.0029235817
123	0xbd6dc52e	-0.058049373
124	0x3aa11c24	0.0012291712
125	0xbe1bdaf4	-0.15220243
126	0xbe4b37e5	-0.19845541
127	0xba5c0560	-0.0008393135
128	0xbdf7427d	-0.120732285
129	0xbc9d5953	-0.019207632
130	0xbddf1d52	-0.10894264
131	0x3de03760	0.10948062
132	0x3a3a9e55	0.000711893
133	0xbc137e15	-0.009002228
134	0x3d44f32e	0.048083477
135	0x3c18ae3c	0.009318884
136	0xbb5195af	-0.0031980088
137	0x3c10bbe5	0.00883386
138	0x3e3949f9	0.18094625
139	0x3b202813	0.0024437949
140	0x3dea16e8	0.1143015
141	0x3a9e37a4	0.0012071026
142	0x3dcc6b74	0.099814326
143	0x3d59ad99	0.05314407
144	0x3dc96b6d	0.09834943
145	0xbb9c4983	-0.0047695055
146	0xbb8fd341	-0.004389197
147	0xbe0022e5	-0.12513311
148	0x3a05b1a9	0.0005100021
149	0x3d74b670	0.0597443
150	0x3d3d2be5	0.04618444
151	0xbdf7c3e8	-0.12097913
152	0x3d64f53b	0.055897932
153	0xba918a0e	-0.0011103766
154	0x3bd61c40	0.0065341294
155	0x3b3f78ea	0.0029216358
156	0x3d3039c9	0.04302386
157	0xbada3ea5	-0.001665075
158	0x3d058d31	0.032605354
159	0x3d29f38e	0.041492037
160	0x3d92ff67	0.071776204
161	0x3d194c4c	0.037426278
162	0x3bacef45	0.0052775466
163	0x3d1156ff	0.035483357
164	0x3db7486a	0.08949359
165	0xbac53922	-0.0015046934
166	0x3b675002	0.003529549
167	0x3cdc5921	0.026897969
168	0x3d600a0a	0.054697074
169	0x3bea8c1d	0.007157816
170	0xbe28172d	-0.16415091
171	0x3bc7bb03	0.0060952916
172	0x3d91aa4c	0.0711256
173	0x3dab55c6	0.08365969
174	0x3b8fa317	0.0043834555
175	0xb9ee271c	-0.00045424036
176	0x3bb0da7e	0.00539714
177	0xb9f5666b	-0.0004680635
178	0xbc2dbc01	-0.010603906
179	0xba77e799	-0.0009456813
180	0x3a87ef87	0.0010371067
181	0xba383981	-0.0007027612
182	0xbbb7293b	-0.005589632
183	0x3c843d47	0.0161425
184	0x3d1f99e0	0.038965106
185	0x3d495fa7	0.049163487
186	0xbb2dff4f	-0.002654988
187	0x3d249239	0.04017851
188	0x3cd33e07	0.025786413
189	0xbaed14d2	-0.001808787
190	0x3dc429e4	0.095783025
191	0xba15f807	-0.0005720858
192	0xbca6efe6	-0.020378064
193	0xba5baf72	-0.00083803304
194	0xbda5cb3a	-0.08095403
195	0xbdb63db5	-0.088984884
196	0xba5bf754	-0.0008391042
197	0x3dd3cb7b	0.10341545
198	0xba9f989f	-0.0012176222
199	0x3d665887	0.05623677
200	0xbba4dfe8	-0.0050315745
201	0x3cc08604	0.023501404
202	0x3dac863d	0.084240414
203	0x3e18a74a	0.14907566
204	0xbdb37d41	-0.08764125
205	0x3e2a6bcb	0.16642682
206	0xbe175331	-0.14777829
207	0x3d71ed31	0.059064094
208	0x3d2407cf	0.04004651
209	0xbcf8b8a1	-0.030361475
210	0x3cfad72f	0.030620186
211	0x3cc87d55	0.024473825
212	0xb9b4af7b	-0.00034463019
213	0x3dd19cf5	0.10235015
214	0xbd5da208	-0.054109603
215	0x3d92f3b2	0.071753874
216	0x3b3a0860	0.002838634
217	0x3d748f36	0.05970689
218	0x3d795115	0.06086834
219	0x3c58afcf	0.01322551
220	0x3d2f9239	0.04286406
221	0xbe14df54	-0.14538318
222	0xbb40c749	-0.0029415658
223	0xbaae2cdf	-0.0013288519
224	0xbb11dac8	-0.0022255648
225	0x3e07f1bf	0.13275813
226	0x3cbfcab2	0.023412082
227	0xb9b6a600	-0.00034837425
228	0x3d16b9ad	0.036798168
229	0x3ce93331	0.028466793
230	0x3bce24a6	0.00629099
231	0x3ab41c97	0.0013741431
232	0x3dcd85fe	0.100353226
233	0x3abe5108	0.0014519999
234	0xbe5037c4	-0.20333773
235	0x3d6eda43	0.05831362
236	0xb991f7c0	-0.00027841143
237	0x3cc1bc3b	0.023649326
238	0xba254468	-0.0006304444
239	0x3e0dc445	0.13844402
240	0x3dbbad4b	0.091639124
241	0xba191f1d	-0.0005841123
242	0x3b801e0f	0.0039098333
243	0xbe36afe6	-0.17840537
244	0x3c773cf7	0.015090219
245	0x3e0252bd	0.12726875
246	0x3e106d40	0.14104176
247	0x3d0a6d40	0.033795595
248	0xba4f476c	-0.0007907066
249	0x3dece367	0.11566811
250	0x3c904789	0.017612236
251	0xbd60ecd1	-0.054913346
252	0x3da1bf4a	0.078978136
253	0x3d743ed4	0.05963023
254	0xbbc2918a	-0.0059377598
255	0x3dc963b8	0.09833473
