model_weight/mvf.pt (torch_old, 290841 bytes, 5 tensors)

hidden1.weight f4 [256, 24]
0	0xbe365e45	-0.17809398
1	0xbd8d7378	-0.069067895
2	0xb7d42000	-2.528727e-05
3	0x3d1c426c	0.038149282
4	0x3e273f94	0.16332847
5	0x3c7fd5f0	0.0156149715
6	0x3b3cec00	0.002882719
7	0x3e425a06	0.18979654
8	0x3e40f3d8	0.18843019
9	0xbc90d078	-0.01767753
10	0x3e114c02	0.14189151
11	0xbda3e43a	-0.08002515
12	0x3e06eae0	0.13175535
13	0x3e18ad5e	0.14909884
14	0x3e4fc2a4	0.20289093
15	0x3e50f9ac	0.20407742
16	0xbd181a1d	-0.03713428
17	0xbe75044f	-0.23927425
18	0x3d866dac	0.06563887
19	0xbcad31e8	-0.021141961
20	0x3d1b6b3a	0.037944056
21	0xbe09ea21	-0.1346822
22	0x3e2bd71e	0.1678128
23	0xbdc5c862	-0.096573606
24	0xbe25fc73	-0.16209583
25	0xbe09b56e	-0.13448116
26	0xbe37d54c	-0.1795246
27	0xbd909320	-0.07059312
28	0x3e06c1ee	0.13159916
29	0x3d6ead88	0.05827096
30	0x3d3a5854	0.045494393
31	0x3e11b1b4	0.14227945
32	0x3d1241e8	0.035707384
33	0x3e1db49c	0.15400928
34	0x3e324dac	0.17412442
35	0x3cba9110	0.02277425
36	0xbd6741c0	-0.05645919
37	0xbd4acb0c	-0.049510047
38	0x3e446a82	0.19181255
39	0xbdf194a5	-0.1179593
40	0xbe33960f	-0.17537712
41	0xbe47d9e2	-0.1951671
42	0xbddd2b07	-0.107992224
43	0x3e13e036	0.14440998
44	0x3d7a1c4a	0.061062135
45	0x3e1e492b	0.15457599
46	0x3cae3c18	0.02126889
47	0xbe4a56f9	-0.1975974
48	0xbe10fe26	-0.1415945
49	0xbcbf6488	-0.023363367
50	0xbd802b92	-0.062583104
51	0xbd9abe1c	-0.07555792
52	0x3d1373ec	0.035999224
53	0xbdeeb42a	-0.11655457
54	0xbcddefa0	-0.027091801
55	0xbde745e1	-0.11292625
56	0x3e43d42c	0.19123906
57	0x3e1c3722	0.15255406
58	0x3e245652	0.16048554
59	0xbe170931	-0.147496
60	0xbe3a8aa9	-0.18216957
61	0xbd55204c	-0.052032754
62	0x3e166fb6	0.14691052
63	0xbe3e0eee	-0.18560383
64	0xbdec5dc9	-0.115413256
65	0x3e52fab1	0.20603444
66	0x3c8a8c38	0.016912565
67	0x3dd206c8	0.102552
68	0xbe2dbcf9	-0.16966619
69	0xbb05e8f0	-0.002043303
70	0x3a325600	0.0006802976
71	0x3e1bd242	0.15216926
72	0xbe1d2395	-0.15345605
73	0x3d8fc3cc	0.07019767
74	0xbd19e8dc	-0.037575588
75	0x3d435538	0.047688693
76	0xbe025733	-0.12728576
77	0x3b94cf40	0.0045413077
78	0xbd16a738	-0.036780566
79	0x3e288d42	0.16460136
80	0xbd931584	-0.07181838
81	0xbe2cdfbc	-0.16882223
82	0x3dc792ec	0.0974482
83	0x3d691f18	0.05691442
84	0xbc950598	-0.018191144
85	0xbd1fdd98	-0.039029688
86	0x3d881a64	0.066456586
87	0x3d9cdc54	0.07659212
88	0xbe0a22a9	-0.13489784
89	0xbd42165e	-0.047384612
90	0xbdfa5ccd	-0.122247316
91	0xbcc192d0	-0.023629576
92	0x3dc872ae	0.097874984
93	0xbe19d633	-0.15023117
94	0x3c420ed0	0.011844352
95	0x3e01c2bc	0.12671942
96	0x3d295950	0.04134494
97	0xbe00b361	-0.12568428
98	0xbe32aefc	-0.17449564
99	0x3c2cedd0	0.010554746
100	0x3def3164	0.116793424
101	0xbdbab840	-0.09117174
102	0x3e361abe	0.17783639
103	0xbd8547fa	-0.06507869
104	0xbd9d7656	-0.076885864
105	0x3de86a7c	0.11348435
106	0xbc6d3450	-0.014477804
107	0x3d36d5a4	0.044637337
108	0x3afa8200	0.0019112229
109	0xbe33edeb	-0.17571227
110	0x3e299a9e	0.16562888
111	0x3dec8ce8	0.11550313
112	0x3e4e0fa8	0.2012316
113	0xbc0beb3c	-0.008539971
114	0xbe190204	-0.14942175
115	0xbc67e710	-0.014154211
116	0x3d4b610f	0.04965311
117	0xbe85bb2d	-0.26119366
118	0xbca82590	-0.020525724
119	0x3d9542a8	0.07288104
120	0xbc319a50	-0.010840014
121	0x3e241cc6	0.16026601
122	0xbdc3c4cb	-0.0955902
123	0x3d426d20	0.04746735
124	0x3e4ee44a	0.20204273
125	0x3e2b770c	0.16744632
126	0xbde28532	-0.11060561
127	0xbd8814b6	-0.06644575
128	0x3cc2aef0	0.023765057
129	0x3dfaf654	0.122540146
130	0x3e0e070c	0.13869876
131	0x3e1fe6e2	0.15615419
132	0x3e277e60	0.16356802
133	0x3b33fa80	0.0027462542
134	0xbe4bd7a2	-0.19906476
135	0xbe1bb931	-0.15207364
136	0xbe462984	-0.19351774
137	0x3d117ca5	0.03551926
138	0x3e277dbe	0.1635656
139	0x3d5bab58	0.053630203
140	0xbdf06f11	-0.11739934
141	0x3e881d40	0.26584816
142	0xbdc31cab	-0.09526952
143	0xbc215280	-0.00984633
144	0x3d14fccc	0.0363739
145	0xbb7cb380	-0.0038559139
146	0xbd3b4aa0	-0.045725465
147	0x3d9c7fa8	0.07641536
148	0xbe16b644	-0.14717966
149	0x3d16791c	0.036736593
150	0x3e043dfa	0.12914267
151	0x3e4be5a0	0.19911814
152	0xbe3010d0	-0.17193913
153	0x3ddc27b0	0.10749757
154	0x3dd810d4	0.10550085
155	0x3e4587fe	0.19290158
156	0x3d144f44	0.036208406
157	0xbc8b81e8	-0.017029718
158	0xbe223b51	-0.1584294
159	0x3c9b4b20	0.01895672
160	0xbdf6081f	-0.12013268
161	0x3d8c9466	0.06864242
162	0xbda153ac	-0.07877287
163	0xbc83b960	-0.016079605
164	0x3d50fa13	0.05101974
165	0xbb9cb82d	-0.0047826977
166	0xbe3f57f6	-0.18685898
167	0x3df1e724	0.11811665
168	0xbd58f548	-0.052968293
169	0xbe40b0c4	-0.1881743
170	0x3e08df9e	0.13366553
171	0xbc9253e8	-0.017862275
172	0xbdc74704	-0.09730342
173	0x3e4bc24e	0.1989834
174	0xbce3d4a8	-0.027811363
175	0xbe0ad546	-0.1355792
176	0xbd629938	-0.055321902
177	0x3e2b3d12	0.16722515
178	0x3d11df28	0.03561321
179	0xbdaea35c	-0.08527252
180	0xbd3b3530	-0.04570502
181	0x3e327876	0.17428765
182	0xbd74c2ac	-0.059755966
183	0xbd4312e4	-0.047625437
184	0xbe39a473	-0.18129139
185	0x3e24f54a	0.16109195
186	0x3e29a188	0.16565526
187	0xbe145788	-0.14486516
188	0x3d8e2592	0.0694076
189	0xbe188a6d	-0.14896555
190	0x3d9aa1c4	0.075503856
191	0x3e2e56ee	0.17025349
192	0xbe406ac8	-0.18790734
193	0xbc2cce50	-0.010547236
194	0xbdf27a90	-0.11839783
195	0x3e391b5e	0.18076846
196	0x3de2887c	0.110611886
197	0x3d6dd4b0	0.058064163
198	0xbd8a6572	-0.067576304
199	0xbe0ffbc2	-0.14060882
200	0xbcde16e8	-0.027110532
201	0xbde52264	-0.111882
202	0xbe17a2fc	-0.14808267
203	0xbd97fa10	-0.074207425
204	0xbdd357b2	-0.10319461
205	0x3d547800	0.051872253
206	0xbd89a0ea	-0.06720145
207	0x3e105aa0	0.1409707
208	0x3bc6906b	0.0060596964
209	0xbe635dc0	-0.22203732
210	0xbe06b552	-0.13155106
211	0x3dda75ec	0.10667023
212	0xbde0729e	-0.109593615
213	0x3e7b05ed	0.2451398
214	0x3d5a3f58	0.053283066
215	0x3a9fb380	0.0012184232
216	0x3e23a57c	0.15981096
217	0x3c298600	0.0103468895
218	0x3da5f5d8	0.081035316
219	0x3cf27bc0	0.029600024
220	0xbe4463f0	-0.19178748
221	0x3c412360	0.011788219
222	0x3e45f7ba	0.19332781
223	0xbe0f38a2	-0.13986447
224	0xbe2d7746	-0.1694003
225	0x3dc4b8ec	0.096055835
226	0x3e04d662	0.12972406
227	0xbddf998b	-0.10917958
228	0x3cfc0130	0.030762285
229	0xbdd53714	-0.10410896
230	0x3e0e6c48	0.13908494
231	0x3ddee11c	0.1088278
232	0xbda803f4	-0.08203879
233	0x3d8dc36c	0.069220394
234	0xbd85e42e	-0.065376624
235	0x3cd5f248	0.026116505
236	0xbe2c24d2	-0.16810921
237	0xbe72f8c7	-0.23727714
238	0xbdef9a33	-0.11699333
239	0x3df88b2c	0.1213592
240	0xbce23e40	-0.027617574
241	0x3dfe2b70	0.12410629
242	0xbe450568	-0.19240344
243	0xbe4a2693	-0.19741277
244	0xbc67c150	-0.01414521
245	0x3d1c6598	0.038182825
246	0x3d401300	0.04689312
247	0x3e0421ce	0.1290352
248	0x3e18f736	0.14938053
249	0x3dc5566c	0.09635624
250	0x3e0287aa	0.12747064
251	0x3d192d2c	0.037396595
252	0xbe0b31ce	-0.13593218
253	0x3db0ed20	0.08638978
254	0xbd8fd8e4	-0.070237905
255	0x3d132dc4	0.035932317

hidden1.bias f4 [256]
0	0xb9cea268	-0.00039412384
1	0xbaeee456	-0.0018226008
2	0x3dc5240f	0.09626018
3	0x3e215bfc	0.15757746
4	0xbdf63727	-0.12022238
5	0x3e1e6bdd	0.15470834
6	0xbd777ef5	-0.06042381
7	0xbd519008	-0.05116275
8	0x3e718efb	0.23589699
9	0xbcdb5788	-0.026775137
10	0xbd1e7f4f	-0.03869563
11	0xbe1dacf7	-0.15398012
12	0xbce87846	-0.028377663
13	0x3ce8392d	0.028347576
14	0xbe1a57a1	-0.1507249
15	0xbe01d658	-0.12679422
16	0x3dba46c0	0.09095526
17	0xbe1d6806	-0.15371713
18	0xbcae9d87	-0.02131535
19	0xbe1855f9	-0.14876546
20	0xbd788f69	-0.06068364
21	0x3d39b777	0.04534098
22	0x3e20441b	0.1565098
23	0x3e6c62a4	0.23084503
24	0x3e3f0b24	0.18656594
25	0x3e13d504	0.14436728
26	0x3db0faff	0.08641624
27	0xbd593538	-0.05302927
28	0xbe22639d	-0.15858312
29	0xbcbec4d2	-0.02328721
30	0xbe44c1b4	-0.19214517
31	0xbd3578d7	-0.044304695
32	0x3ba9a73e	0.0051774075
33	0x3e3af721	0.18258335
34	0x3de7ca2e	0.113178596
35	0x3e1562af	0.14588426
36	0xbe50d732	-0.2039459
37	0x3d870d48	0.0659433
38	0x3d6dd7b1	0.058067027
39	0xbb8e7918	-0.0043479316
40	0xbe5476b6	-0.2074841
41	0x3db19783	0.08671477
42	0x3e295eb5	0.16540034
43	0xbcb5ec58	-0.022207424
44	0x3daea525	0.085275926
45	0x3e217970	0.15768981
46	0x3e462170	0.19348693
47	0xbd9b0a97	-0.07570379
48	0xbdf387d9	-0.11891145
49	0xbd120879	-0.03565261
50	0xbc6c59e4	-0.0144257285
51	0x3e30eb70	0.17277312
52	0xbd1a7195	-0.037705977
53	0xbe045427	-0.12922727
54	0x3dff83ac	0.12476286
55	0xbe153ae2	-0.14573243
56	0xbdc78f81	-0.09744168
57	0xbe141352	-0.14460495
58	0xbe2704e8	-0.16310465
59	0x3e166c4f	0.14689754
60	0xbd643dcb	-0.055722993
61	0x3e130ba9	0.14359917
62	0x3e1633bd	0.14668174
63	0x3e6a4725	0.22878702
64	0x3cf8ffc8	0.030395404
65	0x3c778030	0.015106246
66	0x3cb07ad3	0.021542942
67	0x3bdb5be8	0.0066943057
68	0xbc920cad	-0.01782831
69	0x3e1ac631	0.15114667
70	0xbd2f0233	-0.042726707
71	0x3e578d53	0.21050005
72	0x3de160c6	0.11004786
73	0x3d0e0def	0.034681257
74	0xbe0e0ad3	-0.13871317
75	0xbe46ed1c	-0.19426388
76	0x3e460c27	0.19340573
77	0xbd4b98a2	-0.04970611
78	0xbe044d7a	-0.1292018
79	0x3d0aa326	0.033846997
80	0x3d642ed0	0.055708706
81	0xbde752c2	-0.11295082
82	0x3de5d1f1	0.11221684
83	0x3e4430b2	0.19159201
84	0x3c231a86	0.009955054
85	0xbd7c6bbd	-0.061626185
86	0x3e0a79ad	0.13522978
87	0x3da1ed67	0.07906609
88	0x3da25863	0.07927015
89	0xbe22bdf5	-0.15892775
90	0x3df20def	0.11819064
91	0x3dc84ca9	0.09780247
92	0x3e0ff00d	0.14056416
93	0x3d8c23a2	0.06842734
94	0xbe8ea99c	-0.27863777
95	0xb973adcd	-0.00023239032
96	0x3d5b5173	0.053544473
97	0x3c8de336	0.017320257
98	0x3d5f9c6a	0.054592527
99	0x3d930ae6	0.07179813
100	0xbdbce134	-0.092226416
101	0x3e56f2e9	0.209911
102	0x3deac64f	0.114636056
103	0xbd83d778	-0.06437582
104	0xbe12f33a	-0.14350596
105	0xbdaeb62b	-0.085308395
106	0xbe248333	-0.16065674
107	0xbda66fa0	-0.081267595
108	0xbd4f8364	-0.050662413
109	0xbe167a33	-0.14695053
110	0xbc864347	-0.016389502
111	0xbcc64e6a	-0.024207313
112	0x3d58a92f	0.05289572
113	0x3dbd9bdc	0.092582434
114	0xbda81808	-0.082077086
115	0xbd8bcf72	-0.068266764
116	0x3d8347ff	0.064102165
117	0xbc8d2775	-0.017230729
118	0x3d3ed108	0.046586066
119	0xbdea9631	-0.11454428
120	0x3c914ff0	0.017738312
121	0x3e5e2707	0.21694575
122	0x3e438782	0.19094661
123	0xbe14b7f8	-0.14523304
124	0x3e3b772a	0.18307176
125	0xbdfe4e96	-0.12417333
126	0x3e35db60	0.17759466
127	0xbc1f5788	-0.009725459
128	0xbdd555ed	-0.1041678
129	0x3db2c0b6	0.08728163
130	0xbdd0d97b	-0.10197731
131	0x3c5bc3b4	0.0134133585
132	0x3e70a82e	0.23501655
133	0x3ca5468c	0.020175241
134	0xbd8a20d7	-0.06744545
135	0xbdef15f9	-0.11674113
136	0xbde09abb	-0.109670125
137	0x3ddae19a	0.10687561
138	0xbdc81eac	-0.09771475
139	0xbe135eb6	-0.14391598
140	0x3db06023	0.086120866
141	0xbe55c162	-0.20874551
142	0x3e7a2ca5	0.24431093
143	0xbb898d34	-0.004197741
144	0xbe2d8d04	-0.16948324
145	0xbe13b2cc	-0.14423674
146	0xbd039066	-0.03212013
147	0x3cfa9f22	0.030593459
148	0xbd909c7a	-0.070610955
149	0xbce2e7e2	-0.027698461
150	0x3e40b7b3	0.18820076
151	0x3dfc2cbc	0.1231322
152	0xbc85a0f7	-0.016312106
153	0xbdfbb3b9	-0.12290139
154	0xbe8930b9	-0.26794985
155	0x3d62cf53	0.0553735
156	0x3e2cbe0c	0.16869372
157	0xbd98029a	-0.07422371
158	0x3e141957	0.14462791
159	0x3e6ce4b6	0.23134121
160	0xbdb53676	-0.08848278
161	0xbe054c72	-0.13017443
162	0x3d8c5392	0.06851877
163	0xbd384016	-0.044982992
164	0x3e2be79a	0.16787568
165	0xbd38aa21	-0.045084123
166	0xbd7047bd	-0.058662165
167	0x3d576e96	0.052595697
168	0xbe1b1b9b	-0.1514725
169	0x3e1f678c	0.15566844
170	0x3e5879ba	0.21140185
171	0x3dd19382	0.10233213
172	0xbe01c1d2	-0.12671593
173	0x3dfb9ca6	0.12285738
174	0xbd9fd16e	-0.078036174
175	0x3db2e10b	0.0873433
176	0xbe0bd440	-0.13655186
177	0xbd968dec	-0.07351288
178	0x3d1f05a8	0.038823754
179	0x3e34c289	0.17652334
180	0x3d2ce607	0.04221156
181	0xbe47d941	-0.1951647
182	0x3dd92e84	0.10604575
183	0x3d9d3829	0.07676727
184	0x3d66116b	0.056168955
185	0xbe0f779d	-0.14010473
186	0xbdfd62e9	-0.12372381
187	0x3c390e0b	0.011294852
188	0x3e47ab06	0.19498834
189	0xbe4dfd62	-0.20116189
190	0xbdcee57f	-0.10102367
191	0xbdb44b54	-0.0880343
192	0x3e0515fd	0.12996669
193	0xbe0d943a	-0.13826075
194	0xbe1e30c4	-0.1544829
195	0x3e4aabfc	0.1979217
196	0xbd6761a9	-0.05648962
197	0xbdcd6e9f	-0.10030865
198	0xbc8a8df8	-0.0169134
199	0xbe2c5a31	-0.1683128
200	0x3d8b1728	0.06791526
201	0x3cbcec06	0.023061763
202	0xbdf8a795	-0.12141339
203	0xbe08082d	-0.13284369
204	0x3db9f8cc	0.09080657
205	0xbe2a962a	-0.16658846
206	0x3d0825ad	0.033239055
207	0x3d7df825	0.062004227
208	0x3dbcc79a	0.092177585
209	0x3e1681b0	0.1469791
210	0x3abb5a40	0.0014293864
211	0xbde805f2	-0.11329259
212	0xbe1fa28d	-0.15589352
213	0x3deba2e1	0.11505676
214	0x3e17ab0e	0.14811346
215	0x3d8bdc96	0.06829183
216	0x3d8eee39	0.06979031
217	0xbe0378d6	-0.12839064
218	0x3e09fb90	0.1347487
219	0x3dca87a2	0.09889151
220	0x3d42924e	0.04750281
221	0x3ad6bb95	0.0016382808
222	0x3cea42fc	0.028596394
223	0x3dbc1820	0.09184289
224	0xbdf89a10	-0.1213876
225	0x3e77ba3a	0.24192134
226	0x3d662a97	0.05619296
227	0xbd9495ea	-0.07255156
228	0xbd99ce7d	-0.07510088
229	0xbdf06a6e	-0.1173905
230	0xbdaa5996	-0.083178684
231	0x3db632f8	0.0889644
232	0x3dcb23bc	0.09918925
233	0xbe3ba99a	-0.18326417
234	0x3a4ffed6	0.0007934397
235	0x3e236a94	0.15958625
236	0xbded2996	-0.115801975
237	0x3e0086af	0.12551378
238	0x3935048e	0.00017263202
239	0x3e124749	0.14285006
240	0xbdf6e0e4	-0.12054613
241	0x3de0c321	0.10974718
242	0xbe0d777a	-0.13815108
243	0xbdf2fe3a	-0.11864896
244	0x3c9591ad	0.01825794
245	0xbe00569b	-0.12533037
246	0x3dacf494	0.08445087
247	0xbd248741	-0.04016805
248	0xbe34f5a8	-0.17671835
249	0x3e23aa33	0.15982895
250	0x3bd6d4f2	0.006556147
251	0xbca1b7a8	-0.019740894
252	0x3c8acaf8	0.016942486
253	0x3c66c2f3	0.014084565
254	0xbe42457f	-0.18971823
255	0x3de7e7db	0.1132352

hidden2.weight f4 [256, 256]
0	0xbd543d9f	-0.05181658
1	0xbd880a47	-0.06642585
2	0xbc7ae5a8	-0.015313543
3	0x3cac1de5	0.021010349
4	0xbd30a8e8	-0.04312983
5	0xbd2203f1	-0.03955454
6	0x3d07778d	0.033072997
7	0x3d2da334	0.04239197
8	0xbce6723c	-0.028130643
9	0xbd5f91f4	-0.05458255
10	0xbd6a5a85	-0.057215232
11	0xbd782cc4	-0.060589567
12	0x3d154a11	0.03644759
13	0xbc97c79c	-0.018527798
14	0xbcdd1b48	-0.026990548
15	0x3d25b742	0.04045797
16	0x3c97c6ec	0.01852747
17	0xbc9fbc88	-0.019499078
18	0xbd339fe3	-0.04385365
19	0xbd1121d8	-0.035432667
20	0x3c7dbcb3	0.015486884
21	0x3d24eed0	0.04026681
22	0x3d35fa20	0.04442799
23	0x3b5edc6a	0.0034005889
24	0xbd0886a6	-0.033331536
25	0xbc2a9b6e	-0.010413034
26	0x3d352eca	0.044234075
27	0x3c800614	0.015627898
28	0xba4dc580	-0.0007849559
29	0xbc8b82b0	-0.01703009
30	0x3d734df8	0.05940053
31	0x3d45dc41	0.048305754
32	0x3c0e5dcd	0.008689356
33	0xbd89a491	-0.06720842
34	0xbd5267d7	-0.05136856
35	0xbd8b6d3e	-0.06807946
36	0x3d0f3458	0.03496203
37	0xbd8b5bc8	-0.06804615
38	0x3cbf6a00	0.023365974
39	0x3b34fe40	0.0027617365
40	0x3d0a58bb	0.033776026
41	0xbd8b610f	-0.06805622
42	0xbc753177	-0.014965407
43	0xbb51923f	-0.0031978039
44	0xbd23914e	-0.039933495
45	0x3c533328	0.012890615
46	0xbd1c0e17	-0.038099375
47	0x3ba918b0	0.0051604137
48	0x3d122124	0.035676137
49	0x3d103ec4	0.035216108
50	0x3d12ea77	0.035868134
51	0x3c0d2540	0.008614838
52	0xbd4a07e1	-0.04932392
53	0xbd3b928b	-0.04579405
54	0xbc5779ae	-0.013151569
55	0xbd834be3	-0.064109586
56	0x3b6d5000	0.0036211014
57	0x3d2d2e70	0.042280614
58	0xbd8039cd	-0.062610246
59	0xbd4152d9	-0.04719815
60	0xbd1a151a	-0.03761778
61	0xbd773226	-0.06035056
62	0x3d535f06	0.051604293
63	0x3d1d9286	0.038469814
64	0xbbfb0150	-0.0076600686
65	0x3d7542de	0.059878223
66	0xbce180f4	-0.02752731
67	0xbd3d395a	-0.046197273
68	0xbd572b0e	-0.052531295
69	0x3d12dd18	0.035855383
70	0xbc364c88	-0.011126645
71	0x3be7063a	0.007050303
72	0xbc7c4e88	-0.015399583
73	0xbb9c7bf5	-0.004775519
74	0x3d7d2d54	0.061810806
75	0x3d0184c6	0.031620763
76	0x3d64251e	0.05569946
77	0x3c88f528	0.016718462
78	0x3cab288c	0.020893358
79	0xbd5eb1bb	-0.054368716
80	0x3d6217bc	0.055198416
81	0xbcbbb6f4	-0.022914387
82	0x3b8a8a65	0.0042279237
83	0x3c976e88	0.018485323
84	0xbb56cbd4	-0.00327753
85	0xbd80ade7	-0.06283169
86	0x3d539b60	0.05166185
87	0xbc09a580	-0.008401275
88	0x3d428ff1	0.047500554
89	0xbcb730e8	-0.022362188
90	0xbd3e84dc	-0.046513423
91	0x3c862bf9	0.01637839
92	0x3d128ada	0.03577695
93	0x3a084614	0.0005198431
94	0x3d539cf6	0.05166336
95	0xbb9cad8c	-0.0047814306
96	0xbcb6c6a8	-0.022311524
97	0x3c957066	0.018242072
98	0x3c325d0c	0.010886442
99	0x3aa2afa1	0.0012411961
100	0xbd3bbff3	-0.045837354
101	0xbd2b2d58	-0.04179129
102	0xbc1f0f1a	-0.00970819
103	0xbc380238	-0.011230998
104	0x3cd5b168	0.02608557
105	0xbbdbb10a	-0.0067044543
106	0xbd7162a0	-0.058931947
107	0x3d05eb30	0.032694995
108	0xbd30bc76	-0.04314848
109	0xbccbcd7a	-0.024878252
110	0xbba1a43a	-0.0049329074
111	0x3d35fecb	0.044432443
112	0xbd7aea6e	-0.061258726
113	0x3c95c702	0.01828337
114	0xbd4e483e	-0.050361864
115	0xbd2cde1c	-0.042204008
116	0x3d3a4468	0.045475394
117	0x3d0d4d7e	0.03449773
118	0x3d71aa42	0.05900026
119	0x3d0996f2	0.03359122
120	0x3d3eceba	0.04658387
121	0xbd823b3e	-0.06358956
122	0x3d3faeef	0.04679769
123	0x3c3a6c50	0.011378363
124	0xbc9bfac8	-0.01904048
125	0x3d233c81	0.039852623
126	0x3bc62e40	0.006047994
127	0xbb373660	-0.0027955994
128	0xbd4711d0	-0.04860097
129	0xbd12a4dc	-0.035801753
130	0xbd173ede	-0.03692519
131	0xbd126c96	-0.035748087
132	0xbd72bdff	-0.059263226
133	0x3cdae90c	0.026722454
134	0x3d5c8a21	0.053842667
135	0xbd6344de	-0.0554856
136	0x3d5ab86d	0.05339854
137	0xbd1982aa	-0.037478127
138	0xbd33ca80	-0.04389429
139	0xbce90091	-0.028442653
140	0xbd6319a3	-0.05544437
141	0x3d616272	0.055025525
142	0xbd0a445e	-0.033756606
143	0xbcc552c7	-0.024087323
144	0xbd184b01	-0.037180904
145	0x3c484b58	0.012224995
146	0x3ccdabe2	0.025106374
147	0xbd754be2	-0.05988682
148	0xbd0ea1fa	-0.03482244
149	0xbd721218	-0.059099287
150	0xbd17db42	-0.037074335
151	0x3cca4c40	0.024694562
152	0x3bc8e5a6	0.006130892
153	0xbd8052a0	-0.062657595
154	0xbbe00670	-0.006836705
155	0xbd24ac42	-0.04020334
156	0xbd43c488	-0.04779485
157	0xbc5facd0	-0.013652042
158	0xbbc6838c	-0.006058162
159	0xbd802f6f	-0.06259047
160	0xbc888248	-0.016663685
161	0xbc8ca2b4	-0.017167427
162	0x3cf74970	0.030186385
163	0x3ca04fe4	0.019569345
164	0xbbb4b790	-0.0055150464
165	0xbd1fe87b	-0.03904007
166	0xbc37a710	-0.011209264
167	0x3d0e71ee	0.03477662
168	0xbc7bb6bc	-0.0153633915
169	0x3cb09490	0.021555215
170	0xbc41bfae	-0.011825485
171	0xbd5030ae	-0.050827675
172	0x3cf880f8	0.030334935
173	0xbcd67c43	-0.0261823
174	0xbcda4b28	-0.026647165
175	0xbac3e7ea	-0.0014946435
176	0x3ca2628c	0.019822381
177	0xbd27330e	-0.040820174
178	0x3d536fc4	0.05162026
179	0x3c11dae8	0.008902289
180	0xbcd0ee4a	-0.02550425
181	0xbd1a6aca	-0.0376995
182	0x3c45b617	0.012067339
183	0xbce5cf16	-0.028052848
184	0xbc2cd4a0	-0.010548741
185	0x3d37d4d2	0.044880696
186	0xbd740950	-0.059579194
187	0xbb96aef0	-0.004598491
188	0xbd7b7e48	-0.061399728
189	0xbd577ad2	-0.052607365
190	0xbc0aca08	-0.00847102
191	0x3ca41310	0.020028621
192	0xbae741d2	-0.0017643517
193	0xbc8aab70	-0.01692745
194	0xbcbdb2ea	-0.023156602
195	0x3d43b6a1	0.04778159
196	0xbd0c6b63	-0.0342821
197	0x3c9edae3	0.019391483
198	0xbd562254	-0.05227883
199	0xbccc13cc	-0.024911784
200	0x3d287184	0.041123882
201	0x3cf94fa7	0.030433489
202	0xbd53e394	-0.051730707
203	0x3d5fba08	0.054620773
204	0xbc07be20	-0.008285075
205	0xbd4e3586	-0.050344013
206	0xbca4dad3	-0.020123875
207	0xbd761cf2	-0.0600862
208	0x3d063968	0.03276959
209	0x3d3a4e14	0.045484617
210	0xbbfbc38a	-0.007683222
211	0x3d2ba73c	0.041907534
212	0x3d4e201e	0.050323598
213	0xbd62fcab	-0.055416744
214	0x3cec5854	0.028850712
215	0x3c118f90	0.008884326
216	0xbd0bf0d5	-0.034165222
217	0x3c2f4e96	0.010699889
218	0x3c0d1202	0.00861025
219	0xbd875c53	-0.06609406
220	0xbd28821d	-0.04113971
221	0xbd54bec6	-0.05193975
222	0xbbdaaa98	-0.0066731684
223	0xbcb00800	-0.02148819
224	0xbcaa6c3a	-0.02080356
225	0x3c9d4794	0.01919917
226	0xbc564bcb	-0.013079594
227	0x3c8e6408	0.017381683
228	0x3d047f95	0.032348234
229	0xbd51abd2	-0.05118925
230	0x3ceceae8	0.028920606
231	0xbd7d031b	-0.06177054
232	0xbcb17ed8	-0.02166693
233	0x3d0f5ff8	0.035003632
234	0xbd1454b1	-0.03621358
235	0x3d3ff5a2	0.046865113
236	0x3d23bff8	0.039977998
237	0xbd2452d2	-0.040118046
238	0xbd829ea6	-0.06377916
239	0xbca5531c	-0.020181231
240	0xbc3da9f0	-0.011576161
241	0x3b1d7e60	0.0024031624
242	0x3cb8cd58	0.022558853
243	0x3d3a27fa	0.04544828
244	0xbcb4d3dc	-0.022073679
245	0xbc1bd538	-0.0095112845
246	0x3d6973fa	0.05699537
247	0xbd4569e4	-0.04819669
248	0x3d15f284	0.036608234
249	0xbc535cad	-0.012900514
250	0xbd57aaaa	-0.052652992
251	0x3d0be804	0.034156814
252	0x3cc80b28	0.024419382
253	0x3d28b62f	0.04118937
254	0x3d53631f	0.0516082
255	0xbd25c046	-0.04046657

hidden2.bias f4 [256]
0	0xbd66bb7c	-0.056331143
1	0x3d2476ee	0.040152483
2	0xbd7511fa	-0.059831597
3	0xbc3631b6	-0.01112025
4	0x3d4f73f4	0.05064769
5	0x3e2709e6	0.1631237
6	0x3d1be2e2	0.03805817
7	0x3d5a13c2	0.0532415
8	0xbd1290b8	-0.035782546
9	0x3c8d32cc	0.017236136
10	0xbbfc5300	-0.007700324
11	0x3d4c9431	0.049946014
12	0x3c8f3946	0.017483365
13	0xbd459706	-0.04823973
14	0x3d4f6fce	0.050643735
15	0x3c11a340	0.0088890195
16	0xbc8f8190	-0.017517835
17	0x3d0896a4	0.033346787
18	0x3ca016ac	0.01954206
19	0xbd5138ce	-0.051079564
20	0x3d271d38	0.04079935
21	0x3c8263c5	0.015916714
22	0x3ca2f044	0.019889958
23	0xbd01a864	-0.03165473
24	0x3bdbb725	0.006705182
25	0x3c379a5d	0.011206237
26	0x3c494b3c	0.012286004
27	0x3c57f7aa	0.013181606
28	0xbd8417ac	-0.064498276
29	0x3cd135a9	0.025538282
30	0xbd3a5643	-0.04549242
31	0xbcccee34	-0.025015928
32	0x3d4e5ad7	0.0503796
33	0xbb9043db	-0.0044026203
34	0x3b951d4d	0.004550612
35	0x3c7af7e8	0.0153178945
36	0x3d28e1ce	0.04123097
37	0x3d7724a6	0.060337685
38	0x3b980033	0.0046386956
39	0xbbbee161	-0.005825207
40	0xbd10aca4	-0.035320893
41	0xbceb2398	-0.028703496
42	0xbb401bbc	-0.0029313406
43	0xbd5c2cc0	-0.053753614
44	0x3d1c4e5c	0.038160667
45	0xbb3b1d60	-0.0028551444
46	0xbd1fe50d	-0.0390368
47	0x3d6796c0	0.05654025
48	0x3d591da6	0.05300679
49	0xbc114fe1	-0.008869142
50	0xbcdc62a4	-0.026902504
51	0x3c18ce65	0.009326552
52	0xbac3c782	-0.0014936777
53	0x3c5c5a1b	0.013449217
54	0x3d224a65	0.03962173
55	0xbc19c4f3	-0.009385335
56	0xbcf702ec	-0.03015276
57	0x3d7d13ee	0.061786585
58	0x3cf95f85	0.030441055
59	0xbd5d5e27	-0.05404487
60	0xbc21ae56	-0.009868225
61	0x3d1608dd	0.036629546
62	0x3d6d4bdd	0.057933677
63	0x3d27b15e	0.040940635
64	0xbd5c9ad9	-0.05385861
65	0x3ca910cc	0.020637892
66	0x3d493e95	0.04913195
67	0x3d102c99	0.03519878
68	0xbd44f642	-0.048086412
69	0xbd04fb9e	-0.032466523
70	0x3d34dbf0	0.04415506
71	0xbce5261c	-0.027972274
72	0x3cd7f95d	0.026364023
73	0x3c193500	0.009351015
74	0x3be529e1	0.0069935177
75	0xbcc15e52	-0.023604546
76	0x3d3179ac	0.043328926
77	0x3d8f3019	0.06991596
78	0x3d63e5df	0.055639144
79	0xbba88c56	-0.0051436825
80	0x3c4e4003	0.012588504
81	0x3b1d49a8	0.0024000201
82	0xbc0bae5c	-0.008525457
83	0x3af45e52	0.0018643832
84	0x3be11207	0.006868604
85	0x3c3f21eb	0.0116658015
86	0x3d8388a9	0.0642255
87	0x3bb7a4fb	0.005604384
88	0x3c808f04	0.015693195
89	0x3d2db801	0.042411808
90	0x3d28588e	0.041100077
91	0xbd49cfd8	-0.04927048
92	0xbce4fb83	-0.027951961
93	0xbd5edd4c	-0.054410264
94	0xbd1eea42	-0.038797624
95	0x3d19146f	0.037373003
96	0x3c3b6c15	0.011439343
97	0xbc8c7bd5	-0.017148891
98	0xbd331e0b	-0.043729823
99	0x3d0f7cd2	0.035031147
100	0xbccd0eaa	-0.025031406
101	0x3d11fbaa	0.035640396
102	0x3c184935	0.009294798
103	0xbab06989	-0.0013459186
104	0x3d014026	0.031555317
105	0xbd05dbc4	-0.032680288
106	0xbc45f170	-0.012081489
107	0xbc8f9153	-0.01752535
108	0xbd006564	-0.031346694
109	0x3c944594	0.018099584
110	0xbbec9682	-0.0072200904
111	0xbd08bdd7	-0.03338417
112	0xbccd8de0	-0.025092065
113	0x3d2f8a20	0.042856336
114	0x3ba2d137	0.004968788
115	0x3d5f9dbc	0.054593787
116	0x3b549820	0.0032439306
117	0x3d563e73	0.05230565
118	0xbbe0c820	-0.0068597943
119	0x3c70ee6b	0.014705281
120	0x3d8a5801	0.06755067
121	0x3d21e3b4	0.039523795
122	0x3ccb3fdb	0.024810722
123	0xbc0c204f	-0.008552625
124	0x39820958	0.00024802494
125	0x3d066c71	0.03281826
126	0xbd47f1e6	-0.048814677
127	0x3ce2d477	0.027689202
128	0xbcf10695	-0.029422084
129	0xbd3191d0	-0.04335195
130	0x3d5642da	0.05230985
131	0xbd506026	-0.050872944
132	0xbd58c434	-0.05292149
133	0x3c1b1435	0.009465267
134	0x3e224a6f	0.15848707
135	0x3ce35e18	0.027754828
136	0xbd7e4e47	-0.06208637
137	0x3ca39d8e	0.019972589
138	0x3c19390f	0.009351983
139	0xbd406b9a	-0.046977617
140	0x3b05a613	0.0020393177
141	0x3c627d1c	0.013823774
142	0xbd456d55	-0.04819997
143	0x3a8a214d	0.0010538489
144	0x3d45bd77	0.04827639
145	0x3d806a9a	0.06270333
146	0xbd779aa8	-0.060450226
147	0xbce7d0b0	-0.028297752
148	0xbcf7c059	-0.030243086
149	0x3cf01ca6	0.029310536
150	0xbc372dc8	-0.011180349
151	0x3d5538e6	0.052056216
152	0x3d59714e	0.05308657
153	0x3cd6fdb4	0.026244022
154	0xbcaa1aa1	-0.02076465
155	0xbc1fee12	-0.00976135
156	0x3a8bf133	0.0010676741
157	0x3c99bd05	0.01876689
158	0xbd295445	-0.04134013
159	0x3cd98650	0.026553303
160	0xbd6f797f	-0.058465477
161	0x3d0f7561	0.03502405
162	0x3d162c67	0.03666344
163	0xbd726257	-0.059175815
164	0x3db4ae4c	0.08822307
165	0xbd617d57	-0.055051174
166	0xbd3a60fa	-0.04550264
167	0xbd879e01	-0.06621934
168	0x3dfda86a	0.12385638
169	0xbc85bab0	-0.016324371
170	0xbd367d24	-0.044552937
171	0x3d46d409	0.048542056
172	0xb9d46300	-0.00040509552
173	0xbc825541	-0.015909793
174	0xbb966055	-0.0045891204
175	0x3b226912	0.0024781865
176	0x3d224281	0.039614204
177	0xbd45d3a7	-0.04829755
178	0x3d3acf3c	0.04560779
179	0xbd497440	-0.04918313
180	0xbd0154d5	-0.031575043
181	0xbcf35a34	-0.029706098
182	0x3b95d0cb	0.004572009
183	0xbcef52b7	-0.029214246
184	0xbaef5f40	-0.001826264
185	0xbd3ced9a	-0.046125032
186	0x3d2c8470	0.04211849
187	0x3d54d5b4	0.051961616
188	0x3d38d23d	0.045122374
189	0xbd3d29e8	-0.046182543
190	0x3c0078ee	0.007841332
191	0xbd529510	-0.05141169
192	0xbd05128c	-0.03248839
193	0xbcc7e4f0	-0.024401158
194	0x3d4d13c2	0.05006767
195	0x3cf2df3b	0.02964746
196	0x3b62e57d	0.003462165
197	0xbd7dee04	-0.061994568
198	0x3ce94f42	0.028480176
199	0xbc505db7	-0.012717656
200	0x3d5c6482	0.05380679
201	0xbcc4e775	-0.024036149
202	0xbd284066	-0.04107704
203	0xbceb58c8	-0.028728858
204	0x3d857742	0.06516887
205	0xbc9d3347	-0.01918949
206	0xbd7a4416	-0.061100088
207	0x3c8796c7	0.016551388
208	0x3ce9d4ef	0.028543917
209	0xbd224a06	-0.039621376
210	0xbcc92160	-0.024552047
211	0xbd33d3c9	-0.043903146
212	0x3c624102	0.013809444
213	0x3d5525c4	0.05203797
214	0xbd06afb4	-0.032882407
215	0xbcc28c4a	-0.023748536
216	0x3d0cba63	0.03435744
217	0x3bfcfe70	0.007720761
218	0x3d43a656	0.047766052
219	0xbce1d7ba	-0.027568687
220	0x3d5a4374	0.053286985
221	0x3d7e595a	0.06209693
222	0x3d525e71	0.051359598
223	0xbccf835a	-0.025331188
224	0xbd259d55	-0.040433247
225	0xbcdb406c	-0.026764117
226	0x3c0d2fd4	0.00861736
227	0xbd04d2a1	-0.032427434
228	0x3d52ca4d	0.05146246
229	0x3d5ba4bc	0.0536239
230	0xbd0e57d4	-0.03475173
231	0x3c01623d	0.007896957
232	0x3d44023e	0.0478537
233	0xbd7b6070	-0.061371267
234	0xbd304b72	-0.0430407
235	0xbbadbaca	-0.005301808
236	0xbd09b1c2	-0.03361679
237	0x3d6521cc	0.055940434
238	0xbd2c7a11	-0.0421086
239	0x3d5772d2	0.052599736
240	0xbccbc80f	-0.024875669
241	0xbc33668e	-0.010949744
242	0x3d623cd9	0.05523381
243	0x3d1b9c23	0.0379907
244	0xbc30345b	-0.01075467
245	0xbd1639b7	-0.036676135
246	0xbd377310	-0.044787467
247	0xbce60fa5	-0.028083632
248	0x3cc73396	0.02431659
249	0x3b06e3ce	0.002058256
250	0x3d07c82b	0.03314988
251	0x3c837d1c	0.016050868
252	0x3cd1f24b	0.02562823
253	0x3d147d89	0.036252532
254	0xbd702735	-0.05863114
255	0xbc0111f6	-0.007877817

out.weight f4 [1, 256]
0	0xbbede789	-0.007260267
1	0xbb29655a	-0.0025847764
2	0xbc2bffb1	-0.010497973
3	0x3c0bfddc	0.0085444115
4	0x3bd6f824	0.0065603424
5	0x3e1167e0	0.14199781
6	0xbb81d9ef	-0.0039627473
7	0xbb3b6a07	-0.0028597133
8	0x3bc5c322	0.0060352245
9	0x3baddecf	0.005306102
10	0x3b0d3ab6	0.0021549887
11	0x3be3b9de	0.0069496473
12	0x3bb5b38d	0.0055450858
13	0xbb1d44a0	-0.0023997203
14	0x3b12307e	0.0022306736
15	0x3b1000da	0.0021973164
16	0xb90062c0	-0.00012243818
17	0xbbc429f7	-0.005986448
18	0xb991d6f8	-0.0002781672
19	0xbb6f53cd	-0.0036518455
20	0xba3cb969	-0.0007199259
21	0x3bc84f1e	0.006112947
22	0x3ad233e0	0.0016037188
23	0xbb37ad58	-0.0028026905
24	0x3c0fcd23	0.008776936
25	0xbad50ede	-0.0016255041
26	0xbbb32b2e	-0.005467794
27	0xbbdd49db	-0.006753189
28	0xbb0ae609	-0.002119424
29	0xbb02baa6	-0.0019947677
30	0x3bbda924	0.0057879854
31	0xbb0d7e2c	-0.0021590097
32	0x3b08b242	0.0020858203
33	0xbbc66550	-0.006054558
34	0x3b91bffa	0.004447934
35	0xba9bfba8	-0.0011900561
36	0xbba8d0d7	-0.005151849
37	0xbb2d8738	-0.0026478302
38	0x3b5fc9e6	0.003414744
39	0x3c04e085	0.00811017
40	0x3b315ef1	0.0027064646
41	0xbad53899	-0.0016267478
42	0xb9b6265f	-0.00034742334
43	0x3a891794	0.0010459297
44	0x3ae8b98c	0.0017755493
45	0xba218830	-0.0006161956
46	0xb7caddd8	-2.418358e-05
47	0x3aaa4794	0.0012991303
48	0xbb651d6f	-0.003496017
49	0xbe1052b5	-0.1409405
50	0x3bbf3fc4	0.005836459
51	0xbbf9f2c3	-0.0076278164
52	0x3b02061a	0.0019840063
53	0x3a5c741a	0.00084096345
54	0x3c5f7b63	0.0136402575
55	0xbb862327	-0.004093546
56	0x3b92354c	0.00446192
57	0x3b97bb8c	0.0046305116
58	0x3aa6280a	0.0012676727
59	0xbb368318	-0.0027849134
60	0xbc365427	-0.011128462
61	0x3b965231	0.0045874347
62	0xbaa9785a	-0.0012929544
63	0x3b701568	0.0036633853
64	0xbb0395da	-0.0020078332
65	0x3c43f3dd	0.011959997
66	0x39be815a	0.00036335998
67	0x3b93b097	0.004507135
68	0xbc9eb133	-0.019371605
69	0xbb9bfe57	-0.0047605443
70	0x3b4f5018	0.0031633433
71	0x3bca5443	0.0061745956
72	0xbc07d540	-0.008290589
73	0x3a28c86c	0.00064385566
74	0xb99970d9	-0.00029266512
75	0xba58a55f	-0.00082643883
76	0x3b022028	0.0019855592
77	0x3c0c5557	0.0085652685
78	0xbadab555	-0.0016686121
79	0xbbf08e24	-0.0073411632
80	0x3b4995e1	0.00307595
81	0xb95aa704	-0.00020852318
82	0xbaf6b026	-0.0018820807
83	0xbaf14bf9	-0.0018409482
84	0xbdc0795e	-0.09398149
85	0xbc3e2128	-0.011604585
86	0x3c76088c	0.015016686
87	0x3ad2a7a0	0.0016071685
88	0xbb53754f	-0.0032265966
89	0xbc05454c	-0.008134197
90	0xbaf70f22	-0.0018849114
91	0x3a1107ad	0.0005532455
92	0xba9b8b93	-0.0011867158
93	0xba65e234	-0.00087693636
94	0xbb8de549	-0.0043303114
95	0xbb0465e1	-0.0020202326
96	0x3b9fd555	0.004877726
97	0xbb0267fd	-0.0019898408
98	0xbc1ddcbd	-0.009635148
99	0xbb391ae3	-0.0028244785
100	0xbb23df6f	-0.0025005003
101	0xbac6fecc	-0.0015182137
102	0xbb2f2e06	-0.0026730313
103	0xbe3eda1a	-0.18637887
104	0x3b59b04d	0.0033216656
105	0x3b2b67fe	0.0026154513
106	0x3a8f4ab8	0.0010932302
107	0x3b9924e1	0.0046735858
108	0x3b43cd48	0.0029876996
109	0x3b28a976	0.0025735772
110	0xbad61aa1	-0.001633484
111	0xbb914de7	-0.0044343355
112	0x3c1800de	0.0092775505
113	0xbad18b34	-0.001598692
114	0xbcac1b0f	-0.021008996
115	0xbacd4c94	-0.0015663081
116	0xba64be1c	-0.0008725838
117	0xbabd565d	-0.0014445294
118	0xbad67617	-0.0016362098
119	0xbb3c4c94	-0.0028732168
120	0x3bf85746	0.007578763
121	0x3b0fbd80	0.002193302
122	0xbddd1f1b	-0.107969485
123	0x3c821287	0.015877975
124	0xb9d703d5	-0.0004101085
125	0xbb1bdd54	-0.0023783045
126	0xbbbe796f	-0.005812816
127	0xbb536f6c	-0.0032262458
128	0x3b5bfcff	0.0033567545
129	0xbaf18cf8	-0.0018428853
130	0x3bedcd39	0.0072571305
131	0x3ba10dd9	0.004914981
132	0xbad76a56	-0.0016434889
133	0xba36cee2	-0.0006973577
134	0x3e17c32e	0.14820549
135	0x3b733bc6	0.0037114485
136	0xbb0e872c	-0.002174805
137	0x3c8bcf6a	0.017066676
138	0x3aeebb60	0.0018213801
139	0xba94cb6a	-0.0011352126
140	0xbb7e94af	-0.0038845947
141	0xbd16eef8	-0.036848992
142	0x3b832765	0.004002499
143	0xbca3b647	-0.019984378
144	0xbbe79383	-0.0070671453
145	0x3c048456	0.008088192
146	0xbc018313	-0.007904786
147	0xbc8a6d3a	-0.016897786
148	0x3b0f75ff	0.00218904
149	0x3b6ed3dd	0.0036442198
150	0xb9a78bb8	-0.0003195682
151	0x3b7d27c6	0.0038628443
152	0x39e53561	0.00043718054
153	0xbd9d8262	-0.07690884
154	0xb99a0690	-0.00029378058
155	0xbb5f97e6	-0.0034117638
156	0xbbb4f3e7	-0.0055222395
157	0xbc10f35a	-0.008847082
158	0xbab793b7	-0.0014005814
159	0x3c12fdfa	0.008971686
160	0xbbcefb8e	-0.0063166087
161	0x3b6c4c56	0.0036056242
162	0xbb2528bc	-0.0025201282
163	0x3afcb0a7	0.0019278721
164	0x3d89c944	0.067278415
165	0xbbdded4e	-0.0067726737
166	0xbdfdc1fd	-0.12390516
167	0xbc202968	-0.009775497
168	0x3e04dabc	0.12974066
169	0xbaaf1271	-0.0013356936
170	0xba920a65	-0.0011142014
171	0xbb6be4ae	-0.0035994458
172	0xbabb4a19	-0.0014289051
173	0xb9637f20	-0.00021695765
174	0xbaf5c894	-0.0018751794
175	0x3c09a9a8	0.008402266
176	0x3cb95445	0.02262319
177	0xbbdfda64	-0.006831454
178	0x396f15f0	0.00022800989
179	0xbc285048	-0.010273047
180	0x3c39705f	0.011318295
181	0xbc8e8cc3	-0.017401105
182	0xbb7aea7b	-0.0038286734
183	0xbbb7c69f	-0.0056083943
184	0x3ad1f814	0.0016019368
185	0xbabfbf8f	-0.0014629232
186	0xbad4520b	-0.0016198767
187	0x3a85abd4	0.0010198303
188	0x3a034ad2	0.00050084025
189	0xbb43e4f9	-0.0029891117
190	0x3b88b4ec	0.004171958
191	0xbadd9a2b	-0.0016906908
192	0xbb1253f0	-0.0022327863
193	0x3b418d82	0.0029533808
194	0xbaa1f5b6	-0.0012356553
195	0xba9cdad3	-0.001196707
196	0x3b804efb	0.003915665
197	0xba15c1ff	-0.00057128066
198	0x3bc4a6a5	0.006001311
199	0xbb3eb23e	-0.002909794
200	0xbb00e3c2	-0.0019667004
201	0xbb8dc056	-0.0043259067
202	0x3a6a90c0	0.0008947961
203	0x3b1d27e6	0.002398008
204	0x3b48c27d	0.0030633502
205	0xbb663ee4	-0.00351327
206	0xbab6b2cd	-0.0013938785
207	0x3b95873f	0.0045632417
208	0x3b1299f4	0.0022369595
209	0xbb3fd41c	-0.0029270714
210	0x3c06a5d7	0.00821825
211	0x3b5b26c9	0.0033439866
212	0x3a9f3531	0.001214659
213	0xbd30f142	-0.04319883
214	0x3bd0bf65	0.0063704723
215	0xbbd4d1d3	-0.0064947396
216	0xbc261e0d	-0.010139001
217	0xbb0a75ca	-0.0021127337
218	0x3c086585	0.008324985
219	0xbac8d864	-0.0015323278
220	0x3a13e750	0.0005642073
221	0x3c04b695	0.008100172
222	0xba4e77cf	-0.0007876129
223	0x3d9b1b55	0.075735725
224	0xbb125f99	-0.0022334813
225	0x39e0d090	0.0004288
226	0xba269260	-0.0006354209
227	0xbb0b2003	-0.0021228797
228	0xb9bdd79a	-0.00036209525
229	0xbaff730b	-0.0019489242
230	0xba88553e	-0.0010401381
231	0xbb2b1238	-0.0026103389
232	0xba5fbb9c	-0.0008534731
233	0x3b37e38c	0.0028059212
234	0x3a431b92	0.0007442768
235	0xbac8a10a	-0.0015306782
236	0x3a4f2b34	0.0007902861
237	0x3a58b000	0.0008265972
238	0x3b81600e	0.003948218
239	0x3ba0f3fe	0.0049118986
240	0xba977f28	-0.0011558281
241	0xbb9668fe	-0.0045901528
242	0x3b2dc48d	0.0026514858
243	0xbb86b91e	-0.004111423
244	0x3be333b3	0.0069336533
245	0xba15cefd	-0.00057147426
246	0x3abe0f38	0.0014500385
247	0xba33c151	-0.00068571145
248	0x3b368171	0.002784815
249	0x3c7e146a	0.015507797
250	0x3b91711b	0.004438532
251	0x3bc3652d	0.005962989
252	0xbcca8c0a	-0.024724979
253	0xbb58be7a	-0.0033072517
254	0xbbbc0d12	-0.005738863
255	0xbac6a992	-0.0015156737
