model_weight/mvf.pt (torch_old, 290841 bytes, 5 tensors)

hidden1.weight f4 [256, 24]
000000 cb 13 95 bd 8d 46 96 bd 23 b3 16 be 0c 70 59 be
       -0.07279166 -0.07337675 -0.14716773 -0.21234149
000010 3f 3d 96 3e b8 ee a4 3d 6d ca d6 3d 1e 86 86 3d
       0.29343602 0.080533445 0.104878284 0.065685496
000020 80 91 82 bd fe 84 70 3d 1d 24 7e bd 5b a6 db bd
       -0.06375408 0.05872058 -0.06204616 -0.10725089
000030 cd 03 3e bd 4e 90 2e be f1 cc aa 3d 44 0a 3d be
       -0.046390343 -0.17047235 0.08339871 -0.18460947
000040 a5 3b 2c be 21 d7 3a be 83 d5 91 bd d1 2d 03 3e
       -0.16819628 -0.18246128 -0.07120802 0.12810446
000050 41 4e f1 be 33 38 b1 be dd 2b 98 3d 42 35 86 bd
       -0.47130015 -0.3461319 0.07430241 -0.06553127
000060 40 26 37 3c fb ee 3f 3e 0c 35 a4 bd 44 03 bf bd
       0.011178553 0.18743508 -0.080179304 -0.09326795
000070 89 70 32 3e bb bc 35 be bc c2 6d 3d e6 6c 39 be
       0.17425741 -0.17747776 0.05804704 -0.18107948
000080 6b 4e 32 bc a2 81 78 bd fd bb 55 bd 0f 5d 1a 3e
       -0.010882954 -0.060670502 -0.052181233 0.15074562
000090 85 80 07 3e 6d 36 b1 be 73 df 42 3d bb ec 2d bc
       0.1323262 -0.34611836 0.04757638 -0.010615523
0000a0 a0 c5 2e 3e 89 60 84 3e eb a5 3b bd 56 70 c7 bc
       0.17067575 0.258549 -0.04581253 -0.024345558
0000b0 1d 63 3d be 68 85 5f 3d a6 89 af bb 51 d0 aa 3a
       -0.1849484 0.054570585 -0.005356985 0.0013032054
0000c0 2d 80 ab bd fe 41 dc 3d e8 79 e9 3d 36 7d 01 bd
       -0.08374057 0.107547745 0.11400205 -0.03161355
0000d0 4b a9 00 3e 44 9a 1d 3e b0 a8 0a be b5 c7 13 3e
       0.1256458 0.15390879 -0.13540912 0.14431651
0000e0 a9 2e 98 3e 10 bc cd 3e 26 49 f6 bc f0 4c 97 bb
       0.297231 0.40182543 -0.030064177 -0.004617326
0000f0 69 eb 5b 3e 55 f8 a9 3c eb 01 07 3d 8c 19 7f be
       0.2147652 0.020748297 0.032960813 -0.24912089
000100 ae a2 fc 3d b2 5a b9 3e ee e4 43 3d e2 5c b4 3d
       0.12335716 0.36202008 0.047825746 0.088067785
000110 a5 e9 02 3e 41 6c 4c be 2e 79 bd 3b c9 4e 36 be
       0.12784441 -0.1996317 0.005782268 -0.17803492
000120 b0 a7 e1 3b 1d 24 aa 3c fc c2 14 be 2b 98 72 3e
       0.006886445 0.020769173 -0.14527506 0.2369086
000130 08 b8 8d 3d 92 51 c8 bc 18 c1 90 3d fe be 41 39
       0.06919867 -0.024452958 0.0706808 0.00018477064
000140 e5 78 91 3d 97 43 d0 bc 05 d6 88 3d 5b b5 b7 3b
       0.07103137 -0.025422854 0.06681446 0.005606336
000150 35 e4 77 bd 88 49 b8 3e ab 05 84 bd e9 e5 1a 3e
       -0.06052037 0.359936 -0.064463936 0.15126766
000160 78 b5 a0 bc af c2 50 3d 86 5c 5f 3c b9 0c e7 bd
       -0.019617781 0.050966915 0.013632899 -0.112817235
000170 46 32 12 3d 94 d5 59 3f 1c f3 75 bc 9f 78 a4 3d
       0.035692476 0.8509152 -0.015011575 0.08030819
000180 87 46 90 3e 0c f2 05 3f 92 de c5 3a a5 d4 0f 3e
       0.28178808 0.5232246 0.0015096238 0.14045961
000190 cc a7 09 3e 40 97 a4 be e0 94 85 3c ff 9a d2 bd
       0.13442916 -0.32146645 0.01630634 -0.102834694
0001a0 90 38 f6 3d 26 81 cd 3e 82 c4 f1 bb bf d0 02 3e
       0.12022507 0.40137595 -0.007378162 0.12774943
0001b0 28 71 33 3e a7 3c 38 3d e7 5e 07 bd e7 77 60 3e
       0.17523634 0.044979718 -0.03304949 0.21920739
0001c0 9c c2 94 bd 98 60 03 3f 17 f4 db bd cb 2f 64 3d
       -0.07263681 0.51319265 -0.10739916 0.05570964
0001d0 1f 5b 81 ba b1 3e 72 3e b8 c8 fd 3b 5c 4b b0 3d
       -0.0009869075 0.23656727 0.007744875 0.08608124
0001e0 7d f5 21 3d 93 6b 88 bd d8 c8 0e 3d ca a7 5c 3e
       0.039540756 -0.06661143 0.03485951 0.21548381
0001f0 6a 88 36 3c db 85 b6 3d 13 1b be bd 13 ff c9 3d
       0.011140922 0.0891225 -0.09282508 0.09863105
000200 da 05 b0 3d 0e 6b 02 be a7 16 ec bc e2 60 8e bc
       0.08594866 -0.1273615 -0.028819395 -0.017380182
000210 c5 8e 8c 3e 45 ff 96 bd 0c 9e 46 3b 33 36 2d 3e
       0.27452675 -0.073729075 0.0030306606 0.16915207
000220 d2 bd 29 3e d2 68 39 be ae 70 36 3d 3c 06 b1 3d
       0.16576317 -0.18106392 0.044541053 0.08643767
000230 a5 16 93 3e bf 24 f8 be f5 1c c6 bd 4e 4e b2 bb
       0.28728214 -0.48465535 -0.09673492 -0.0054414636
000240 fd a0 6b bd 9f c3 aa 3e a9 18 81 bd bd 0a 27 bd
       -0.057526577 0.33352372 -0.06303532 -0.040781725
000250 32 0c 48 be 49 85 b3 bc e6 3b ab 3d 2a a5 01 3e
       -0.19535902 -0.021914141 0.08361034 0.12660661
000260 c0 c4 9d 3e 9c 9d c1 3e b7 0f 0a 3e e4 c9 da 3d
       0.3081417 0.3781556 0.13482557 0.10683039
000270 f2 26 95 be ea 6b 72 bc 83 6c f6 bd 63 04 46 3e
       -0.29131275 -0.0147962365 -0.12032416 0.19337611
000280 20 59 9c 3e 53 cc d4 3e 50 5d ae 3d d7 e4 93 be
       0.30536747 0.41562137 0.08513892 -0.28885528
000290 9a 2b 6a be f3 51 94 3e a8 ef 9c bd f1 1d db bc
       -0.22868195 0.28968772 -0.07662898 -0.026747676
0002a0 d2 c7 f5 3d c5 7b 53 3e d3 bd 2d bd cb 17 89 be
       0.12001003 0.20652683 -0.04241736 -0.26775965
0002b0 bb 4f bf bc 8d bc 34 be 4b cc bd 3d f8 90 14 3b
       -0.023353448 -0.17650051 0.092674814 0.0022669416
0002c0 2a 8f b4 bc 79 a2 28 3e 98 44 29 be b7 ef 3c 3e
       -0.022040922 0.16468228 -0.16530073 0.18450819
0002d0 a5 04 49 3c 31 a6 a1 be af f8 ab 3d 8f c6 55 3e
       0.012269174 -0.31572106 0.08397042 0.20876525
0002e0 ba 0c f5 3b 55 25 8b 3d a2 c4 9e 3d 2f 36 67 be
       0.0074783238 0.0679423 0.077523485 -0.22579263
0002f0 75 18 0d be d9 33 0e 3e 68 9d 45 be 47 8c 98 be
       -0.13778861 0.13886966 -0.19298327 -0.29794523
000300 67 f2 0b 3e 30 46 8f 3d a6 7a 86 bd fc 35 e0 bd
       0.13666688 0.06995809 -0.06566362 -0.10947797
000310 f8 39 22 bd 9a e4 04 bf b7 a6 94 3d 3b dd c1 3d
       -0.039606065 -0.5191132 0.07258361 0.094660245
000320 e4 f3 69 3d b1 63 97 3d 22 db 62 3d a9 6a 0b 3e
       0.057117358 0.073920615 0.055384763 0.13614906
000330 c4 b3 00 be b7 61 a0 bd 26 6e 59 bd d4 e2 68 be
       -0.12568575 -0.078311376 -0.05308356 -0.22742778
000340 4e 0e 54 3d 35 3e 4c 3d fd c1 8a 3c 86 a8 11 3e
       0.051771455 0.049864013 0.016938204 0.14224443
000350 2d aa 90 3e f4 55 07 3e 1c 38 20 bc 2a 7e c8 bc
       0.28254834 0.13216382 -0.0097790025 -0.024474222
000360 01 e2 00 bd f4 f6 dd 3d a3 88 3f bc b6 72 7f bd
       -0.031465534 0.10838118 -0.011690292 -0.062365256
000370 c5 34 06 be 19 f9 8a bd 9b 22 7b 3c 7c 44 54 bd
       -0.13106067 -0.06785793 0.015328075 -0.051823124
000380 60 22 b6 3d eb 52 1e 3e b2 60 19 be e1 8e 3c be
       0.08893275 0.15461318 -0.14978293 -0.18413879
000390 b7 86 d5 3d e7 95 ad be a7 97 ae 3d 9b 67 c8 3d
       0.104260854 -0.3390343 0.08525019 0.09785386
0003a0 57 c2 99 3e 79 4e 01 be 95 a1 e5 bc 22 c8 a7 3d
       0.30031082 -0.12627591 -0.02803115 0.08192469
0003b0 57 4a 3c 3e 9e a3 11 be 40 50 10 3d fb 3d e7 bc
       0.18387733 -0.14222571 0.035232782 -0.028227797
0003c0 3b b4 77 3e 26 49 97 3c 10 65 57 bd 7c ad 5d 3e
       0.24189846 0.018467497 -0.052586615 0.2164821
0003d0 ee c0 00 3d d2 ac f4 be 25 59 99 3d c3 37 ee bd
       0.031433992 -0.477881 0.07487706 -0.116317295
0003e0 7b ee 02 3e 40 f6 a2 bb 75 04 ca bc 0a 6a 79 3e
       0.12786286 -0.004973203 -0.024660328 0.24356857
0003f0 87 06 40 be 23 b7 47 be 51 7d dc bc aa 7f b2 3d
       -0.1875249 -0.19503455 -0.026915224 0.08715756

hidden1.bias f4 [256]
000000 59 59 ce bc d2 e8 2b be 62 5c 06 bf 13 54 0c 3e
       -0.025189089 -0.16788033 -0.52484715 0.13703947
000010 12 7c 13 3e b9 9d 8d be ee 4e 89 bd 4f 0d 02 bd
       0.14402798 -0.27659395 -0.06704508 -0.031750973
000020 93 8c d9 3c 3c 67 c8 be 18 5c 0d 3e b2 b1 d0 be
       0.026556289 -0.39141262 0.13804662 -0.4076057
000030 f3 64 60 3d 2e 17 59 bc b6 ed 43 3d e7 99 2f 3e
       0.054783773 -0.013250155 0.04783412 0.17148553
000040 c2 a8 7d 39 13 1f 77 3b 32 e9 84 be dc e8 6e be
       0.00024190827 0.003770773 -0.25959164 -0.23331016
000050 18 c8 e3 3d 3f c4 4d be ef c6 e1 3e c5 ca 4a 3d
       0.11122149 -0.20094393 0.44097087 0.049509782
000060 49 1f ae be 22 93 51 be 10 51 dc bd e1 2e b9 be
       -0.34008244 -0.20466283 -0.10757649 -0.36168578
000070 23 0c d7 bd 57 4e 65 be 16 0e 42 be 36 a9 b7 3d
       -0.10500362 -0.22393166 -0.18950686 0.08967821
000080 5d 11 dc bc ee e8 ab bd 25 f6 0c 3e 8d 8c 4d bc
       -0.026863748 -0.08394037 0.13765772 -0.012545717
000090 a5 c9 5e be 5b 22 b7 3d e5 c0 d0 3d e6 ee 7a 3d
       -0.21756609 0.089421 0.10193042 0.061262988
0000a0 34 d5 fe 3d 03 48 ff 3e 3c c4 b5 3b 34 5c 78 be
       0.12443009 0.49859628 0.0055470746 -0.24253923
0000b0 37 22 4e 3e 88 0f 1b be 40 46 2c be ab 65 39 3e
       0.2013024 -0.15142643 -0.16823673 0.1810519
0000c0 28 6f 2b be 1a 6d ba be 28 74 ac bc 9b d1 fc bd
       -0.16741621 -0.36411363 -0.021051481 -0.123446666
0000d0 a9 a0 e1 3e b1 a1 1c 3d f3 d8 4f 3e 7a 27 6a ba
       0.44067886 0.03824014 0.20297603 -0.0008932274
0000e0 de 2e bd be ea 93 00 bf ed 88 97 be c2 da 46 bc
       -0.3694982 -0.502257 -0.29596654 -0.012137117
0000f0 60 52 3b be 50 87 7e 3e c7 99 69 3d b0 60 34 bd
       -0.18293142 0.24856305 0.05703142 -0.04403752
000100 30 fc 22 bd 7c 61 33 bb d1 3b 62 3e 90 37 d3 be
       -0.039791286 -0.0027371338 0.2209313 -0.41253328
000110 e5 cc c6 bc a6 44 c2 3d a5 5d 68 3c 1c 6d d6 be
       -0.024267623 0.0948575 0.014182483 -0.4188012
000120 50 f2 3a be 27 11 61 3d 33 98 8d be dd ce ec bd
       -0.18256497 0.054948 -0.2765518 -0.115628935
000130 41 78 85 be 50 84 00 bf 1d 04 5c be 9d 19 41 3e
       -0.2606831 -0.5020189 -0.21485944 0.18857427
000140 85 d0 9a bd 5e a1 36 3e 5e 12 ad bd 1f 74 35 bd
       -0.07559303 0.17834994 -0.08450769 -0.044300195
000150 50 25 49 bb e5 4c 6b bd 39 b9 49 be 28 44 70 3d
       -0.0030692406 -0.05744638 -0.19699563 0.05865875
000160 9b 89 4d be 95 c7 1e be ed c7 79 bd af 5f dd bd
       -0.20072024 -0.15505822 -0.06098168 -0.10809266
000170 30 bb f3 3d a9 78 c1 3d 25 0d 1b be 98 64 9a be
       0.119009376 0.09446842 -0.15141733 -0.30154872
000180 ba 55 46 3e 01 8c c1 be 7a 0e be 3e a2 5a 8c bd
       0.1936864 -0.37802127 0.3712042 -0.06853224
000190 ca c6 3d be 66 38 d0 be e5 f3 6c be 10 99 3c 3e
       -0.18532863 -0.4066803 -0.23139913 0.18417764
0001a0 1f 5c b2 bd e5 9b b0 be ce 9c 9a be 5d 72 1d 3e
       -0.08708977 -0.34493938 -0.30197757 0.15375657
0001b0 af e6 9a bd eb 78 b6 bd 65 4b 49 3e 62 c5 2b 3e
       -0.07563531 -0.08909782 0.19657667 0.16774514
0001c0 39 f4 89 be 42 73 8c be 13 ed 61 be d8 d3 bf 3c
       -0.2694414 -0.27431685 -0.22063093 0.023416445
0001d0 ef 7f 9b 3d ab 6f 93 3d 78 fa 1e 3d e7 44 1c be
       0.07592761 0.07199033 0.038813084 -0.15260659
0001e0 f3 56 91 3e eb ec a6 bc 9e 7a 43 be 0c 25 d9 3d
       0.2838665 -0.020376643 -0.19089743 0.10602769
0001f0 31 c8 08 3e 40 cb c5 3e 80 83 18 be 74 a4 5c be
       0.13357617 0.3863163 -0.14893913 -0.21547109
000200 97 05 00 be 0f 5d 6a be f1 3b b7 be 01 99 d6 bd
       -0.12502132 -0.22887062 -0.3578792 -0.10478402
000210 f8 46 9a bd df 85 60 3e 0f 29 d1 3d a3 f0 6c be
       -0.075330675 0.21926068 0.102129094 -0.2313867
000220 be b5 24 3e 5f 35 27 be 7c ff 7a bd 0d db e1 bd
       0.16084954 -0.16328953 -0.061278805 -0.11028109
000230 98 fe f4 be be 32 ea bc aa 1a 7c 3e 0c 57 43 3e
       -0.4785049 -0.028588649 0.24619547 0.19076174
000240 aa 54 4c be 54 ec 70 be ea 2b 9d be 56 a3 3e 3e
       -0.19954172 -0.23527652 -0.30697566 0.18616995
000250 23 63 9a bd 76 e6 51 3d 4a 1b 19 be 5d e0 ba 3e
       -0.0753844 0.051245175 -0.14951816 0.364993
000260 fb 16 5f 3e 04 4c 2e be f8 0a a8 bd cf e6 55 bd
       0.2178611 -0.17021185 -0.08205217 -0.05222207
000270 5b 79 0f 3e 97 1d 94 3d 56 32 e6 be 07 a7 07 be
       0.14011137 0.07232206 -0.44960278 -0.1324731
000280 a6 57 4c be 0e 51 fc 3c 5b 93 81 3e c1 02 4a bd
       -0.1995531 0.030800369 0.25307736 -0.049319033
000290 85 7d f9 bd f6 fe 3d 3e 8e 12 a4 be 59 f6 5e be
       -0.12182144 0.18554291 -0.32045406 -0.21773662
0002a0 ff 8c 3e 3e e2 be 0b be 59 b9 77 bd 16 e7 67 bc
       0.18608473 -0.13647035 -0.060479496 -0.014154216
0002b0 8e 59 f0 ba 9f f4 ab be 1a 65 88 be 4f 39 71 bd
       -0.0018337236 -0.3358507 -0.26639634 -0.058892544
0002c0 cc 10 a3 bd 31 0c 9e 3d bd ae a1 be e4 a3 fd be
       -0.07962188 0.07717169 -0.31578627 -0.495391
0002d0 e7 4b a5 3e a7 e9 30 be b3 7c d3 be 7c 30 f9 bd
       0.3228447 -0.17276631 -0.41306075 -0.12167451
0002e0 2d ff aa be 12 d7 ff bd 20 64 b0 3b 8f 41 ca bd
       -0.3339781 -0.12492193 0.0053830296 -0.098757856
0002f0 7f 3a 4e be fe 3d 92 bc 1b 37 da be 7d 25 bb bd
       -0.20139502 -0.017851826 -0.42620167 -0.0913801
000300 6a 99 cf be 64 00 36 3e d3 4d b1 be ac ab 63 be
       -0.40546733 0.17773587 -0.34629688 -0.22233456
000310 77 5f 9d bd 67 89 00 be 3f ff f9 3c e6 fb cc be
       -0.07684224 -0.12552415 0.030517219 -0.40035933
000320 28 3c c1 be 45 ae 1d 3e e2 bf eb be 73 6c dc 3e
       -0.37741208 0.1539851 -0.46044832 0.4305149
000330 00 e6 f2 bd 05 27 a0 be 38 f2 24 3d 31 a5 01 3e
       -0.11860275 -0.3127977 0.04027006 0.12660672
000340 ce f6 cf 3e c7 86 10 be 05 2d 5d 3e c1 81 4d be
       0.40617985 -0.14113913 0.21599205 -0.20069028
000350 4b 85 8d be 5c 04 43 bd 93 14 bc 3d 4f 70 0f be
       -0.27640757 -0.04761158 0.09183612 -0.14007686
000360 0c b2 84 be 6a 3e 86 3d 35 1e 0f 3e 2a 54 21 3c
       -0.2591709 0.06554873 0.13976367 0.009846726
000370 87 3b 5a be 57 63 7d 3d 68 e4 fc be d3 bc bd be
       -0.2131177 0.061862316 -0.4939301 -0.37058124
000380 95 0e 90 bd 99 99 8f be 65 d4 69 3e a1 6f ba 3e
       -0.07034031 -0.28046873 0.22834928 0.3641329
000390 27 5a 97 be c6 30 ed bd 53 ea d9 be 52 d2 0c bd
       -0.29560968 -0.115815684 -0.42561588 -0.034380265
0003a0 98 66 17 be e8 cc 5c 3e 00 99 97 bd 30 45 b7 3e
       -0.1478523 0.2156254 -0.07402229 0.35794973
0003b0 e8 27 84 3e 86 76 f5 bd c2 cb 12 be d0 f1 60 bd
       0.25811696 -0.11985497 -0.1433554 -0.05491811
0003c0 00 71 69 3d a6 e4 45 3e f3 d5 3b be 25 23 a8 be
       0.05699253 0.19325504 -0.18343334 -0.32839313
0003d0 ab eb a3 3d e2 30 28 3e d6 d8 64 3e 07 32 ab be
       0.080039345 0.16424897 0.22348341 -0.33436605
0003e0 26 44 3f be 41 39 c7 3e c2 eb 46 3c 9c 45 f2 be
       -0.1867834 0.3891087 0.01214117 -0.47318733
0003f0 03 f4 4b be 67 c4 ec bd 63 ba 6c be 20 d4 b9 3c
       -0.19917302 -0.11560898 -0.23117976 0.022684157

hidden2.weight f4 [256, 256]
000000 63 ae 8b 3d 86 eb 1a be 4e 7b 32 bc 62 99 c8 bc
       0.06820371 -0.15128908 -0.010893656 -0.024487201
000010 85 97 55 bd 07 db f8 bb f4 35 1b bc 0a 70 a4 3c
       -0.052146453 -0.0075944695 -0.009473313 0.020072956
000020 cf 12 a7 3d fd a9 1e bd cf ed 3d bd 1d 43 00 bd
       0.08157884 -0.038736332 -0.04636937 -0.031314004
000030 a5 98 65 bd b3 9f 20 bc 91 c0 85 bd 5b 5b 91 bd
       -0.056053776 -0.0098037 -0.0653087 -0.07097503
000040 4c 9e 74 bd 66 ae 85 bd 87 3b 59 bd 34 89 e1 bc
       -0.059721276 -0.065274045 -0.053035285 -0.027531244
000050 20 d5 06 bd ba 4e 43 bd 04 bf ab bd 29 2d 53 bd
       -0.032918096 -0.0476825 -0.08386043 -0.05155674
000060 1c 02 a1 bd 18 d1 ff bd 38 23 91 3d 7b 87 d8 3c
       -0.078617305 -0.12491053 0.070867956 0.02643179
000070 3e 9b 14 bd 2c 14 56 bd f5 26 44 3d a1 cf 03 be
       -0.036280863 -0.05226533 0.047888715 -0.12872173
000080 a0 37 34 3b d5 a2 b2 3c ae 2f c6 3b 3f fe 36 3d
       0.0027498975 0.02180616 0.0060481643 0.04467606
000090 be ca 92 3c 25 6e 21 3d 77 49 88 3c 1f 0b dd bd
       0.01791894 0.039411683 0.016636593 -0.10793137
0000a0 a3 ff 6d bd f9 e5 b7 bc 3c 78 59 bd 86 ba 06 3c
       -0.058105122 -0.022448527 -0.05309318 0.008223182
0000b0 24 32 48 bd 30 5b 9d bd 80 65 58 3d 39 93 67 bd
       -0.048875943 -0.07683408 0.052831173 -0.056536887
0000c0 26 15 01 bd 4d 8a f9 bd b3 05 9f bc d8 05 7a 3d
       -0.03151431 -0.12184582 -0.019411897 0.06104073
0000d0 27 6e 83 3d 43 70 14 be ea 39 4f bc 83 9e 81 bd
       0.06417494 -0.1449595 -0.012648085 -0.06329062
0000e0 42 b6 04 3d 87 0e a2 bd da 74 94 bc b6 a4 f4 bd
       0.032400377 -0.07912927 -0.018122125 -0.119454786
0000f0 4e 3b 7f bd 98 6a 34 3b 0f b2 b4 3c d0 80 5e bd
       -0.062312417 0.0027529355 0.022057561 -0.054322064
000100 6b 74 78 3b 88 de 3d bd e0 e1 9e bd ea c6 c9 bd
       0.0037911187 -0.0463548 -0.07757926 -0.09852393
000110 3b a8 70 3c 36 b0 1b be 2a 32 36 3c bf 84 e3 bc
       0.014688547 -0.15203938 0.0111203585 -0.02777326
000120 8f 8d 20 be c1 dd 79 bc bd 61 08 bb d8 bc f0 3c
       -0.15679 -0.015250624 -0.002081021 0.029386923
000130 e4 3d b8 3d b7 31 98 3d 00 b6 3e bd 74 f7 67 be
       0.0899618 0.07431357 -0.046560287 -0.2265299
000140 4f 31 36 3c ef 3f 95 3c 41 1d 17 bd 2f f0 b3 3d
       0.0111201545 0.018218962 -0.036893133 0.08786046
000150 7e 2b a5 bd aa ae f7 bc 7a 9a 34 be 77 ed 64 bd
       -0.08064936 -0.030234654 -0.17637053 -0.055890527
000160 54 16 60 bc 2d f1 96 3c d6 d9 83 be b6 0f a6 bd
       -0.013677198 0.018425548 -0.25752133 -0.081084654
000170 e6 8c 07 be b1 c8 2d bd a1 2c 4f bc 17 fa b6 3c
       -0.13237342 -0.042427722 -0.012644918 0.022336049
000180 ac 1b 3b bc 78 42 32 3d e9 f4 e1 bd 1a 10 db bc
       -0.011420172 0.04352042 -0.11033041 -0.026741076
000190 71 20 08 3d 4a 50 58 3d 82 d7 75 3d 51 3d 2f bd
       0.033234064 0.052810945 0.060019977 -0.042783085
0001a0 b4 cb 1d bc 27 b0 05 be c4 6f 00 be 29 f7 98 bd
       -0.009631086 -0.13055478 -0.12542635 -0.07469017
0001b0 ac d4 00 bd 34 e6 1a 3e 77 ce b1 bd 2f 9a 7c 3d
       -0.03145282 0.15126878 -0.08681958 0.06167048
0001c0 a1 6f 32 3c e8 2e ad bd 48 af e5 bd 1d dc c9 3c
       0.010890872 -0.08456212 -0.11215073 0.024641091
0001d0 cc fd 2c bd fd a0 00 3d d7 d0 04 3c 1c 33 92 bc
       -0.042234227 0.03140353 0.008106432 -0.017846636
0001e0 ac b0 a0 bc 67 54 63 3d d7 d6 9c 3b 54 8f 3e be
       -0.019615494 0.055500414 0.004786353 -0.18609363
0001f0 72 60 34 3d 52 37 33 3c 0b be 36 bc 2a 54 02 3e
       0.04403729 0.010938482 -0.011153708 0.12727419
000200 84 4e 74 bd b4 0c 13 bd 26 16 56 bc 39 fe d0 bd
       -0.05964519 -0.035900787 -0.013066804 -0.10204739
000210 e4 a8 5a bd 56 33 19 bd 18 36 ae 3c 97 52 6b bd
       -0.053383723 -0.037402473 0.021266028 -0.05745181
000220 97 88 67 3c a0 30 e1 bc b4 aa 6c bd b7 61 af 3d
       0.014131687 -0.027489007 -0.057779983 0.085635595
000230 a7 ca b5 bd 2a 1a 31 3d fb 98 b3 3c 51 30 1d be
       -0.088765435 0.043237843 0.021923533 -0.15350462
000240 e5 d8 8c bc c5 64 79 bd 7c 16 01 3d 01 c5 98 bd
       -0.017193267 -0.060887117 0.031515583 -0.074594505
000250 9f fd 66 bd 42 1f e1 bc 74 71 e9 3d 72 0f fa bd
       -0.056394216 -0.027480725 0.113985926 -0.12209977
000260 dd 24 fe bd a6 bc 2a 3d 96 be 5f bc c6 31 41 bd
       -0.12409375 0.041683815 -0.013656279 -0.04716661
000270 f8 0e 6b 3c 36 d1 68 bd a8 29 17 3d 1f 3a 43 3d
       0.014346831 -0.056840144 0.03690496 0.04766285
000280 2e 9f b6 39 00 76 52 3d 7e fb a8 bd 69 c7 9a bd
       0.00034832343 0.051382065 -0.08251093 -0.07557566
000290 88 11 49 3d 65 a7 9f bc 02 4b ba 3d df b7 3d bd
       0.049088985 -0.019489 0.09096338 -0.04631793
0002a0 7d 34 e2 3c e9 f9 54 bb 86 2a c3 bc d1 02 0b be
       0.027612919 -0.003249759 -0.023823988 -0.13575293
0002b0 43 93 db bc a1 89 10 3d f3 41 07 bd dd 8d e1 bd
       -0.026803618 0.035287503 -0.03302188 -0.110133864
0002c0 8d bb 93 bd cb 9a 96 3d 8e 65 a7 3d 19 03 87 3d
       -0.07213507 0.07353743 0.08173667 0.06592388
0002d0 f7 d7 22 bc e8 af 79 bd da 5c 54 bd a4 45 13 bd
       -0.009939185 -0.060958773 -0.051846363 -0.035955086
0002e0 b8 20 10 be 91 f5 5f 3c 0d 63 86 3d 19 ab f7 3c
       -0.14074981 0.013669387 0.06561861 0.030232953
0002f0 76 73 8c bc 52 77 8b 3d a6 62 8b 3c 1d 98 f5 bc
       -0.0171449 0.06809868 0.017014813 -0.02997976
000300 cc fd 37 bd 09 50 a2 bd aa 4f 69 bd 98 84 7e bc
       -0.044919774 -0.07925422 -0.05696074 -0.0155345425
000310 40 aa 19 be ab 44 2f be 95 8f 69 bd d0 1e 1b bd
       -0.15006351 -0.17116039 -0.057021696 -0.037871182
000320 5e 30 3b 3d ae 53 87 3d 3e e0 68 bc 32 ec 05 3d
       0.045700423 0.066077575 -0.01421362 0.032695957
000330 6a 01 82 bc 5c c2 47 3c b6 ac 66 3b da 25 b9 bd
       -0.015869815 0.012192335 0.0035198159 -0.09040423
000340 f8 43 92 bd b0 7d 9b bd 60 24 b4 3b bd f4 8d 3d
       -0.0714187 -0.07592332 0.0054975003 0.06931446
000350 07 e0 11 be 5a f4 50 3b 28 45 c7 bc 7a 7f 49 bd
       -0.14245616 0.0031883926 -0.024324968 -0.049193837
000360 e1 44 99 3c de e7 75 bd 65 5e 1d be b0 aa 9f bd
       0.018709602 -0.06003558 -0.1536804 -0.07796228
000370 62 6d ff bc 61 bf db bb 10 4d 81 bd 16 74 30 be
       -0.031180087 -0.0067061638 -0.06313527 -0.17231783
000380 9c e2 8d 3d 5f f8 72 bd 68 66 27 be 3d 16 f1 bd
       0.06927988 -0.059318896 -0.16347659 -0.1177182
000390 ed 31 10 be 37 56 d3 bc 95 a3 b6 3c ca ae a6 bd
       -0.14081545 -0.025797946 0.022294799 -0.08138807
0003a0 b8 94 98 bb a1 bf 66 bd b7 7d ff bd 67 d3 8d bd
       -0.0046564005 -0.056335095 -0.1247515 -0.069250874
0003b0 e0 31 df bc ca 44 a1 39 54 4f 90 bb 1b 21 0c bd
       -0.027245462 0.00030759565 -0.004403988 -0.03421126
0003c0 9c 5e b5 bd 54 ee 06 3c eb 45 71 3d 4a 88 5a 3d
       -0.08855936 0.008235533 0.05890457 0.05335263
0003d0 57 a5 4c bd 19 b4 f3 bd c2 94 a7 bd 29 a6 a8 bc
       -0.049962368 -0.11899585 -0.0818267 -0.020587044
0003e0 f0 1e ee 3c bb 92 6e bd 2c 10 5c bd d5 d9 df ba
       0.029067487 -0.0582454 -0.05372636 -0.0017078469
0003f0 e3 dd 04 3c c4 90 2a bd 2c 04 9c 3d 45 96 a5 bc
       0.008109543 -0.041641966 0.07617983 -0.020213256

hidden2.bias f4 [256]
000000 44 80 f8 bd 5b 57 47 3e 61 ae 5a be c8 e0 01 bd
       -0.1213384 0.19466917 -0.21355583 -0.03170851
000010 6d 11 f5 ba 1a 66 b4 bd ca 61 d4 3e a6 80 9a bb
       -0.001869721 -0.08808537 0.41480857 -0.004715043
000020 7d 00 32 be a4 1d f4 3d 20 f5 b6 3c 2d 66 ac bc
       -0.17382999 0.11919716 0.022333682 -0.021044815
000030 08 7c 98 bd 39 7f 04 bd 38 0b 1f be de 24 6a 3d
       -0.07445532 -0.03234789 -0.15531623 0.057164066
000040 9b 20 10 3d 4f 27 75 bd a0 c6 8b be 50 84 81 bd
       0.035187345 -0.05985194 -0.27299976 -0.06324065
000050 b8 a7 a0 bc bc 35 c8 bc d4 bd d5 bd 72 f7 10 be
       -0.019611225 -0.024439685 -0.104365975 -0.14156893
000060 c1 24 f3 bd 05 e9 89 3b e2 5c 84 bc 14 0a 96 bd
       -0.118722446 0.0042086863 -0.016157571 -0.07326141
000070 3e 93 f9 bd 33 c7 7a be 58 25 1a 3c 8e 6d 25 bd
       -0.12186287 -0.24490051 0.0094083175 -0.040387683
000080 b7 6f f2 bc 95 0b d4 bd 5b f9 c1 bd aa d6 08 be
       -0.029594285 -0.103537716 -0.09471389 -0.13363138
000090 0c 32 04 bc 5c 23 b7 bd 9d 8d 03 3d 75 5a 37 be
       -0.008068573 -0.08942291 0.032117475 -0.179056
0000a0 b9 84 8d bd f0 fd 36 3d 1f 7b 84 bb f5 29 5d 3d
       -0.069100805 0.044675767 -0.0040429975 0.05399509
0000b0 0d 9f c3 bd 6b 2b 87 bd 8a 18 8f bd ec c2 e4 bc
       -0.09551821 -0.06600078 -0.06987102 -0.027924977
0000c0 b0 d3 14 bd e6 e1 39 bd d9 7f 25 be 65 ec ff 3c
       -0.036334693 -0.04538145 -0.16162051 0.031240651
0000d0 b7 fc 9d bc fd 4f 5d 3d 2f 45 94 3d d7 55 bc bd
       -0.019285543 0.05403136 0.07239758 -0.0919606
0000e0 ef e1 d4 3c 72 e4 1e bb 2d 90 48 bd f0 85 68 bc
       0.02598664 -0.002424505 -0.04896562 -0.014192089
0000f0 9c 4b cf bd ec 89 4f bd 66 ac 60 3d 1d 16 05 be
       -0.10121843 -0.050668642 0.054851912 -0.12996717
000100 2e a9 e8 bc 48 8c 3f be 65 8a 95 bd 7a 83 ef bd
       -0.028400984 -0.18705857 -0.07301787 -0.11694999
000110 79 4c 88 bd 21 44 2e bc 2c 77 ca bd d9 bb a4 bd
       -0.06655211 -0.01063636 -0.098860115 -0.080436416
000120 41 01 17 be 4a 87 55 3e 4b c1 53 bc b6 5e 86 3c
       -0.14746572 0.2085239 -0.012924503 0.016402584
000130 da fc d0 bd 8f 0a c0 bd 33 bd a6 bb 16 29 b1 bd
       -0.102044776 -0.09377014 -0.0050884723 -0.08650415
000140 b2 92 7a bc d1 55 e9 3c 8a 38 9a bd 96 51 2f bd
       -0.015293764 0.028483303 -0.07530315 -0.042802416
000150 e1 5d 53 bd b8 cf 08 be 29 81 05 bd 62 7f 97 bd
       -0.0516032 -0.13360488 -0.03259388 -0.07397343
000160 5c 84 2b be 77 15 a7 3d 4b b3 cd bd 67 b2 94 bd
       -0.1674971 0.08158391 -0.10043963 -0.0726059
000170 11 6b ad 3d 3d 89 0e bd fc 0f a7 bd b3 9e 81 bd
       0.08467687 -0.03479885 -0.08157346 -0.063290976
000180 54 49 12 bc ec 56 7d bd 67 65 e9 bd 8c 0d d4 bc
       -0.008928616 -0.061850473 -0.11396294 -0.025885366
000190 11 87 a7 3e ca 35 80 bd b5 c6 a9 3c e0 c3 04 be
       0.32720235 -0.062602594 0.020724634 -0.12965345
0001a0 b4 42 72 be 29 57 0d 3d b1 b6 d4 3d 86 7f 62 bd
       -0.23658258 0.03450695 0.10386408 -0.055297397
0001b0 a8 07 62 bd 23 34 ea 3c 11 9d 26 bd db 54 41 be
       -0.055183083 0.028589314 -0.040677134 -0.18880026
0001c0 4f 5f 2f bd cb 94 d0 bd 25 a8 d9 bd b2 94 64 bd
       -0.042815503 -0.1018463 -0.10627774 -0.05580587
0001d0 03 66 81 3d 1d dd 02 3e 06 50 8d bc 29 47 9c 3d
       0.06318285 0.1277966 -0.017250072 0.0763076
0001e0 3e 7e ff bb 72 4c e3 bc 68 23 da bd 29 13 ac bd
       -0.0077970317 -0.027746413 -0.106512845 -0.08402092
0001f0 21 ee 3f be a7 4c 45 3d 76 5f 49 be cc a2 9a bd
       -0.18743183 0.048168804 -0.19665322 -0.07550582
000200 a0 49 9b 3c af fc d1 bd eb 5b c1 bc 5b 5e 09 3d
       0.018956006 -0.10253274 -0.0236034 0.03353725
000210 a7 46 22 bd 48 f2 2e bd 70 a9 84 bc a4 86 9c bd
       -0.03961816 -0.042711526 -0.016194075 -0.07642868
000220 19 3a 06 bd 9d b4 a1 bb 72 a4 05 be 91 fa cb bd
       -0.03277025 -0.004934861 -0.13051012 -0.09959901
000230 29 93 54 be fc 34 f8 bc 92 57 88 3d bb e4 83 be
       -0.20759262 -0.030298702 0.06657328 -0.25760445
000240 e6 06 eb bd 4d 1f 33 bc 77 1a 8f bd 94 2d ca bd
       -0.11475925 -0.010932756 -0.0698747 -0.098719746
000250 bb 7d 83 bc 20 ef 48 bd 49 d6 0b be 7e ef f2 3d
       -0.016051164 -0.049056172 -0.13655962 0.11862086
000260 45 05 92 bd 95 64 b3 bd 97 d2 08 bd 8d f6 2f bd
       -0.07129911 -0.08759419 -0.03340396 -0.04295974
000270 79 66 bf 3c 21 05 34 3c 16 28 1f bd bf 6d 26 bd
       0.023364292 0.010987551 -0.03885659 -0.040632006
000280 98 65 ae 3c 87 c2 14 bc 34 96 19 bc 8b 01 25 be
       0.021288678 -0.009079582 -0.00937419 -0.1611387
000290 da 6d 1d be 8d ad c6 bd 5f 39 7d bd dd f4 25 be
       -0.15373936 -0.09701071 -0.06182229 -0.16206689
0002a0 06 47 ac bd 76 ff 8f bd ad 1d 37 be a3 9d 59 3c
       -0.08411984 -0.07031147 -0.17882414 0.013282212
0002b0 9d 42 b6 bd 97 9d a1 bd 47 a6 e2 bd 46 8c 0b be
       -0.08899424 -0.07891386 -0.11066871 -0.13627729
0002c0 ec 18 4f be be c5 00 bd ae bd e0 bc 89 35 d9 bd
       -0.2022435 -0.03143858 -0.027434196 -0.10605914
0002d0 8a 38 eb 3c 9a 3d ce bd 34 b2 be bd 89 77 b8 bd
       0.028713483 -0.10070343 -0.09311333 -0.090071745
0002e0 b5 ad 2e be 0e ec 11 bc b4 b8 5b be b1 69 4c bd
       -0.17058451 -0.0089063775 -0.21457177 -0.049905483
0002f0 46 81 d2 bd be b5 c7 bd 61 17 8e bd db 38 20 bd
       -0.10278563 -0.097514614 -0.06938053 -0.03911672
000300 62 f6 8a be 29 1e 76 3c 22 4b 49 3d 90 ad 2e be
       -0.271411 0.015021839 0.049143918 -0.17058396
000310 a3 ee fb bd 12 02 30 bc a8 c5 da bd 69 10 a0 bd
       -0.12301376 -0.010742681 -0.10682231 -0.0781563
000320 c5 1b 0c be e1 b9 72 bd 5d 6d 17 be 6a e1 eb bd
       -0.13682468 -0.0592593 -0.14787813 -0.11517604
000330 81 79 18 bd ad 1a c0 3d c5 88 0d 39 77 f5 72 be
       -0.03722525 0.09380088 0.00013497758 -0.2372645
000340 b8 aa 8c bd 33 51 29 be 7a 8a 57 ba e1 37 15 bd
       -0.068684995 -0.16534881 -0.0008222234 -0.036430243
000350 78 20 c0 bd 7e 0f 41 bb 98 78 09 3d 25 90 91 bd
       -0.09381193 -0.0029458697 0.033562273 -0.071075715
000360 44 2e b1 bd 7a 7e b0 3d 3f ba a8 bd f9 cd 08 be
       -0.086514026 0.086178735 -0.082386486 -0.13359822
000370 2d 3e bf bd 42 c2 e3 bb 99 92 0d be a3 ef 94 bd
       -0.09338031 -0.0069506476 -0.13825454 -0.072722696
000380 32 98 74 3d 51 3a 35 be 49 98 84 bd c5 5d ac bc
       0.059715457 -0.17698027 -0.064743586 -0.021040807
000390 ba dd a3 38 67 26 53 bd 45 4f 72 bd eb 05 4c 3d
       7.8137455e-05 -0.051550295 -0.05915763 0.04981033
0003a0 fc 71 0d bd 7f 63 6e bd eb 14 dc bd 09 f5 a1 bd
       -0.034532532 -0.058200356 -0.10746177 -0.07908065
0003b0 a0 41 fe bc 6e 7f f0 bc ed f5 76 bd 37 97 72 bd
       -0.031037152 -0.029357638 -0.060293127 -0.05922624
0003c0 72 df 66 bd 84 16 bf 3c e5 e3 62 bd c1 27 97 bd
       -0.056365438 0.023326166 -0.05539312 -0.07380629
0003d0 b8 ff fe bc 63 22 4b be 86 01 86 bd 0d 13 d8 3b
       -0.031127796 -0.19837336 -0.06543259 0.006594068
0003e0 2a e4 2b 3e 29 79 88 bd d3 fe f2 bd e2 82 0d be
       0.16786256 -0.066637345 -0.1186501 -0.13819459
0003f0 65 66 4c 3b a0 20 95 3c fd 2b a7 bd 6d aa 14 bd
       0.0031188962 0.018204033 -0.08162687 -0.036295343

out.weight f4 [1, 256]
000000 4b ab 37 bc f5 e9 94 3d f1 8d f6 3c 42 96 a5 bb
       -0.011210273 0.07271186 0.03009698 -0.0050533125
000010 ca d6 e3 bb 4d af bb 3b ae 14 d3 3c 70 3d 09 3c
       -0.006953095 0.0057276846 0.025766697 0.008376464
000020 d5 f6 48 3c 9c 19 dd 3b be fb 79 bb 20 b7 c0 bc
       0.012265881 0.0067474376 -0.0038144435 -0.02352482
000030 ab ff 11 bc ac 76 3b 3a d3 85 1e 3d 57 11 6a 3d
       -0.008911054 0.00071511674 0.038701843 0.057145443
000040 d3 3f 0e bc d5 3a 65 bc bc c9 36 b9 cb 86 91 3b
       -0.008682209 -0.013991077 -0.00017432024 0.0044411174
000050 60 ea 8b bb 0a 97 cd 3b 36 de 48 3c 00 f5 9b 3b
       -0.004269883 0.006274109 0.0122600105 0.004759431
000060 c1 f9 11 bb 97 42 a8 3b 1f b3 8e bb 8c e8 3d bb
       -0.002227411 0.0051348913 -0.004354849 -0.002897772
000070 7e 47 d0 bb db a4 81 bc e2 6d 02 bb ca 0e e9 3b
       -0.006356179 -0.01582568 -0.001990192 0.0071123587
000080 8e 65 c1 3b f1 eb 90 39 56 04 4b 3d 19 81 ca bd
       0.005901999 0.0002764161 0.049564682 -0.09887905
000090 ae 58 96 3b a2 51 30 3b c1 0c a9 3c 52 a4 89 bc
       0.004588208 0.0026904126 0.020635964 -0.016801987
0000a0 a9 88 35 3d c0 01 75 3b 76 d9 00 3c 24 95 87 3c
       0.044319782 0.0037385076 0.007864347 0.016550608
0000b0 e1 a5 37 bd 2a 1f a1 b9 0f bf 66 bc 9e f4 02 3b
       -0.04483593 -0.00030731532 -0.014083638 0.001998223
0000c0 64 fc a3 3a aa 98 0a 3a 8e e6 92 bc 27 fd 26 3b
       0.0012511131 0.0005287031 -0.017932203 0.002548048
0000d0 35 7e 27 3c c9 8b 86 3d 79 ec 12 bb 57 9c f9 bb
       0.010222961 0.06569631 -0.002241878 -0.007617514
0000e0 79 e2 2c bd b6 eb 93 bb 13 50 9e 3d 92 f2 0e bc
       -0.04220817 -0.004514183 0.07730117 -0.008724825
0000f0 70 5f ee 3b 8e 4d 60 3d c7 d9 b1 bb 22 7b da bc
       0.0072745606 0.054761462 -0.0054275724 -0.026670042
000100 77 6e 83 3b e9 2f 81 ba 3c 95 4b bb f7 08 93 bd
       0.004010971 -0.0009856197 -0.0031064292 -0.07179444
000110 6a 90 33 3b 10 92 31 ba c2 87 b2 bd 8d f0 bb bc
       0.002739931 -0.0006773779 -0.087173 -0.022941852
000120 44 99 f0 3b af 6b 62 bc be ca c1 3a 91 ca 8f 3a
       0.0073424894 -0.013819619 0.0014785153 0.0010970404
000130 db 08 0b 3c bd e5 00 bc dc 03 07 bd c1 5d 08 3b
       0.008485998 -0.007867274 -0.032962665 0.0020807835
000140 bc 7f 64 3a 8c 74 9b 3c a7 e7 0a 3a 2c a7 d7 bc
       0.00087165437 0.018976472 0.0005298801 -0.026324831
000150 ec b2 e1 bb da 01 ec 3b 17 09 d1 bb e2 8d c3 3b
       -0.006887784 0.007202369 -0.0063792574 0.0059678415
000160 81 25 a2 3b f4 a2 f9 bc ff 8e b2 bb 2b 73 02 bd
       0.0049483185 -0.03047321 -0.0054491754 -0.031848114
000170 0c 29 73 3b c3 ae 5c ba 4f 2f 1a 3b 8a 55 09 3b
       0.0037103323 -0.00084183755 0.0023526733 0.0020955526
000180 e4 8c 13 3d d7 b0 56 3c cb 0e 12 3b 05 2c bf 3b
       0.036023036 0.013103685 0.002228665 0.005834105
000190 b6 2a c4 3a c0 84 d5 3d 61 6c cf bb 45 2c 9f bc
       0.0014966342 0.10425711 -0.0063300584 -0.019430289
0001a0 4c d6 8e 3b 37 9e c5 3d 94 53 fa bc cd 45 0c bc
       0.0043590423 0.09649318 -0.030557431 -0.008561564
0001b0 56 b6 d0 ba 12 6d c9 ba 6e 2c 09 3c 58 14 8b 3c
       -0.0015923481 -0.0015367588 0.008372409 0.016977474
0001c0 5c 7c 07 3b 50 07 9a bc d9 6a 8b 3c 6a 54 f9 bc
       0.002067349 -0.018802315 0.017018722 -0.03043576
0001d0 1a 32 46 3b fd 9e c7 bb 02 1e f6 3a a7 3e 9b 3c
       0.0030242265 -0.006091951 0.0018777254 0.018950773
0001e0 64 12 a7 3b d7 3d 86 3b ff f7 2f bd 21 f4 b7 3b
       0.005098628 0.0040967274 -0.042961117 0.005613819
0001f0 54 cd c6 bc c9 36 94 3c a2 68 c4 3c 02 7d 81 3b
       -0.02426783 0.01809253 0.023975674 0.0039516697
000200 a2 bb 97 bb f0 59 07 bd 2d 49 6b 3a d0 9d 4f bb
       -0.004630522 -0.033044755 0.00089754426 -0.0031679757
000210 d5 88 95 bc 02 e0 d4 3b 01 41 d0 38 eb bf ff bb
       -0.018253723 0.0064964304 9.930321e-05 -0.007804861
000220 f8 cc ce 3b 1c 2e d1 ba b0 53 21 3d ab da 5a 3b
       0.0063110553 -0.0015959176 0.03938645 0.0033394496
000230 33 e5 83 bc 3f 51 06 3d 54 cc 42 3d cf ff c4 bc
       -0.016100502 0.032792326 0.047558144 -0.02404776
000240 03 c4 95 3b dc 93 41 bd a3 a0 da 3b 31 2d 99 bc
       0.0045704856 -0.04726015 0.0066719814 -0.018698307
000250 6d e1 e1 3c 1b 63 b2 3b 3c 87 48 bb 49 c5 b4 3b
       0.027573312 0.005443943 -0.0030598184 0.0055166823
000260 01 9f 2c bd de 18 da bb 04 67 d5 3b f9 02 ce 3b
       -0.042143825 -0.0066557964 0.0065125246 0.0062869755
000270 44 09 d7 3a ef 5a a5 bc 6a f1 18 bc fb aa 7d bd
       0.001640596 -0.020184962 -0.009334901 -0.061930638
000280 9d bd d2 b9 6e 3a 09 bb ce ea 6b 3c 5b c3 c3 bd
       -0.00040195594 -0.0020939368 0.0143992435 -0.095587455
000290 f5 5b 11 ba 54 ef 14 bc a2 d3 81 3c 4e bd fe bc
       -0.00055450137 -0.009090263 0.015847985 -0.031096127
0002a0 f2 a3 32 3c da 7b 34 bb 40 eb aa bc b2 45 41 3d
       0.010903345 -0.0027539642 -0.020864129 0.047185607
0002b0 23 9a d3 3b 2a 8a b1 bd 19 92 d3 3b 1c 27 01 3d
       0.0064575835 -0.08668931 0.006456625 0.03153144
0002c0 2e bb 1e bd 57 d2 31 bb 73 0e dc bb 3d 4c b9 bb
       -0.038752727 -0.002713343 -0.0067155897 -0.0056548403
0002d0 28 03 de ba 9d 5a cd 39 d3 ff c1 b9 65 f3 5d bc
       -0.0016938196 0.0003916816 -0.00037002433 -0.013546799
0002e0 9d 65 ab bc e4 68 a6 3c cc 7a a2 3a d7 24 8f 39
       -0.020922476 0.020313688 0.0012396215 0.00027302533
0002f0 64 d5 4c bc f5 cf cd bc e8 0d 73 bc 39 47 13 bc
       -0.012502048 -0.025123576 -0.0148348585 -0.008989149
000300 fd 56 84 bb ae 68 0c bc 88 92 cc bc 20 72 1d 38
       -0.00403869 -0.008569879 -0.024972215 3.7538004e-05
000310 1a d4 09 bd 96 6a 0e 3c 94 ea 6c bc f1 47 b9 3c
       -0.03364954 0.008692404 -0.014460225 0.022617312
000320 d4 c6 2c bc 60 b7 bb bc 6b 1d dc 3b ce 8f 0e 3c
       -0.010545451 -0.022914588 0.006717374 0.008701278
000330 3b 01 53 3c c5 29 14 bc 24 c3 be 3c e4 9b 3c bd
       0.012878711 -0.009043162 0.02328641 -0.046047106
000340 b3 d9 eb bc b5 29 61 bd 94 ab 94 bb 14 1c fe bc
       -0.02879033 -0.054971416 -0.0045370553 -0.031019248
000350 88 94 01 3c ea 18 94 3b 1f d6 b4 bd 59 8b fc 3b
       0.007908948 0.0045195716 -0.08829903 0.007707041
000360 9d c3 f0 bb 18 6a 74 3c 15 76 1a bd 82 fd 04 3b
       -0.0073475377 0.014917873 -0.037710268 0.0020292704
000370 38 4c 14 3b 70 53 bf 3a ab af 7f ba 26 63 ea bc
       0.0022628438 0.001459701 -0.00097536546 -0.02861173
000380 ca f6 d0 bc a4 4d 1d ba 41 fa 90 3b 55 3e 8b bc
       -0.025508303 -0.0006000644 0.004424364 -0.016997496
000390 84 f9 a4 bb ee 8d b1 38 9b b4 ab ba 59 17 9c bc
       -0.0050346274 8.466454e-05 -0.0013100089 -0.019054102
0003a0 22 c8 6c ba 4c 91 fb 3a 60 4d 02 bb 9d e1 1c 3b
       -0.00090325077 0.0019193082 -0.0019882545 0.0023938187
0003b0 5c 18 8b 3b 73 12 df bc 64 10 84 3a 4a 1d 42 bc
       0.004244847 -0.027230477 0.0010075686 -0.011847803
0003c0 94 54 02 ba 9b 96 5a bb 34 03 42 3b 24 ea d4 3b
       -0.00049717096 -0.0033353928 0.002960396 0.0064976383
0003d0 bd 55 9e bd 56 a3 8f 3b 67 32 99 3a 2c 6b 21 3a
       -0.07731197 0.004383485 0.0011687995 0.00061576325
0003e0 b8 e0 ce ba 4c fd 74 bd 94 af d0 bc f8 2e 36 be
       -0.0015783524 -0.059811875 -0.025474347 -0.17791355
0003f0 75 17 8a 3b 9c e8 32 3c 30 d4 6a 3c 79 e0 6f bd
       0.004214222 0.010919716 0.014332816 -0.058563683
