model_weight/qf1.pt (torch_old, 87052 bytes, 5 tensors)

hidden1.weight f4 [128, 37]
0.073586926 -0.022659844 0.11503953 -0.21937716 0.18141487 -0.058331557 -0.2397646 -0.21791643
0.11105719 0.057440955 0.015372186 0.010695703 0.13799478 -0.14342318 0.20473285 0.055817124
-0.07740704 1.0562646 0.23414974 -0.17516659 0.014448381 0.17009409 -0.0071370234 -0.20598905
0.10084936 -0.008514255 0.150331 0.18790928 -0.077167995 0.13643722 -0.47564557 -0.14918818
0.7126985 -0.016281566 0.007383147 -0.15280424 0.12308996 -0.0059726113 -0.2426381 0.020721968
0.16625997 0.025615634 0.19689605 -0.048540883 -0.13967367 -0.02434871 -0.098790385 0.08715178
0.094171904 0.06191053 0.11858618 0.13642025 0.055607565 -0.13549832 0.15303859 -0.17567626
-0.10261379 0.13576184 0.039057847 -0.07465318 0.040899597 0.057771444 -0.009076795 -0.08755056
0.06720045 0.13399005 0.079731956 0.01072559 0.12169249 -0.76625055 0.01880418 0.08905555
-0.013226746 -0.03853516 0.14739068 -0.018111208 -0.03750931 -0.051711228 0.06091093 0.23427711
0.113326155 -0.0102939205 -0.017680226 0.042372845 0.026911581 0.0106658125 -0.1039869 -0.05511837
-0.0033832008 0.05165237 -0.087784804 0.04172835 -0.10039426 -0.049189426 -0.030105408 -0.104533754
-0.032226514 0.035295866 0.059727278 -0.110445306 -0.060594928 -0.28432256 -0.19850676 0.09952907
0.19995514 0.050125048 -0.22560056 0.065959506 -0.0030257585 -0.04803906 -0.057158403 0.24921449
0.2001013 0.15866819 -0.15353268 0.033922307 0.035512473 0.14755532 0.11565877 0.11498209
-0.033666845 -0.08206775 -0.10155981 -0.06050242 0.07795962 0.06363436 0.008271998 0.010612587
-0.15345415 0.085877016 -0.09674742 -0.14019902 0.03659174 0.06627948 0.26962593 0.0032114955
0.10403812 -0.16144793 -0.10583932 0.15733522 -0.15114962 -0.007862359 0.06165503 0.7033004
0.072791025 0.12026244 -0.19582184 -0.1675215 0.00090176956 -0.020324422 -0.10748061 -0.3005802
-0.22053911 0.04824875 0.40626547 -0.16991685 0.10497656 0.23746051 -0.08334362 0.07076105
0.05593929 0.0781634 -0.009566784 -0.012105932 0.21869998 0.011435902 -0.4225934 -0.34552503
0.30348548 -0.22081576 0.06187103 0.0059632906 -0.13831422 0.05355648 -0.079080254 0.07145693
-0.03507427 0.10088985 0.062181793 0.09569256 -0.29369265 -0.08344945 0.03245509 0.21457006
0.14104672 -0.10066442 -0.0054656444 -0.008208589 0.2285106 0.16190901 -0.2760459 0.13490678
-0.13551679 -0.030399496 -0.09601984 0.073908634 0.034908745 -0.040092003 0.104538724 0.059580207
0.038860206 -0.061340157 -0.1197551 0.08304414 0.022291811 -0.009317107 -0.018813398 -0.07076373
0.009728147 0.014644025 0.017578889 0.25070935 -0.3522704 -0.013457021 0.08260481 0.2846537
0.09250246 -0.020473218 0.029092846 0.0558672 0.0020726093 0.007935698 -0.0028565242 0.12459708
0.09125782 -0.18020865 0.46942753 0.10503041 -0.08325784 0.13445804 -0.20288464 0.13760667
-0.055621386 0.07022119 -0.10938039 0.0050942237 -0.0585914 0.05459039 -0.034366235 -0.22023353
0.016348626 -0.1345454 -0.1380912 0.010039459 -0.122645825 -0.06980247 0.120211355 -0.07629909
-0.05862683 0.12518673 -0.08350043 0.08900513 -0.032989264 0.11818831 -0.0900106 0.13169472
00000000: beb4 963d 23a1 b9bc d899 eb3d 68a4 60be
00000010: d2c4 393e 12ed 6ebd da84 75be 7c25 5fbe
00000020: f471 e33d 3547 6b3d 9fdb 7b3c 083d 2f3c
00000030: 814e 0d3e 87dd 12be 7da5 513e 7fa0 643d
00000040: 9587 9ebd ae33 873f f3c4 6f3e df5e 33be
00000050: e7b8 6c3c 252d 2e3e b1dd e9bb cbee 52be
00000060: 1c8a ce3d 607f 0bbc 5ff0 193e 4a6b 403e
00000070: 410a 9ebd 33b6 0b3e d187 f3be c9c4 18be
00000080: 6973 363f eb60 85bc 53ee f13b b778 1cbe
00000090: 9716 fc3d e5b5 c3bb 1f76 78be 1ec1 a93c
000000a0: 0e40 2a3e e1d7 d13c 1e9f 493e ced2 46bd
000000b0: 9d06 0fbe f276 c7bc 9d52 cabd a27c b23d
000000c0: 33dd c03d e595 7d3d 50dd f23d c0b1 0b3e
000000d0: c2c4 633d 12c0 0abe 26b6 1c3e 7ae4 33be
000000e0: 2e27 d2bd 2705 0b3e 1ffb 1f3d c4e3 98bd
000000f0: 5686 273d c0a1 6c3d d6b6 14bc b54d b3bd
00000100: 64a0 893d b034 093e 824a a33d 63ba 2f3c
00000110: ea39 f93d ff28 44bf 390b 9a3c c262 b63d
00000120: feb4 58bc 0bd7 1dbd 95ed 163e f55d 94bc
00000130: 5da3 19bd 27cf 53bd bd7d 793d 57e6 6f3e
00000140: 8b17 e83d d5a7 28bc 1fd6 90bc 268f 2d3d
00000150: ad75 dc3c a9bf 2e3c 15f7 d4bd cdc3 61bd
00000160: b1b8 5dbb 6f91 533d 85c8 b3bd 59eb 2a3d
00000170: 819b cdbd da7a 49bd 9e9f f6bc cb15 d6bd
00000180: f3ff 03bd 6692 103d 97a4 743d 2631 e2bd
00000190: 6332 78bd ba92 91be 5b45 4bbe e6d5 cb3d
000001a0: 0ac1 4c3e ec4f 4d3d d503 67be c715 873d
000001b0: ce4b 46bb 9bc4 44bd ee1e 6abd 1532 7f3e
000001c0: 5be7 4c3e ea79 223e ac37 1dbe 1ef2 0a3d
000001d0: 8775 113d be18 173e 81de ec3d bb7b eb3d
000001e0: 3fe6 09bd 2313 a8bd 97fe cfbd 63d1 77bd
000001f0: 4ba9 9f3d bb52 823d 4687 073c 6be0 2d3c
00000200: 1623 1dbe 4ae0 af3d 8323 c6bd 5590 0fbe
00000210: 38e1 153d 89bd 873d 690c 8a3e f477 523b
00000220: f011 d53d 9b52 25be 49c2 d8bd 7c1c 213e
00000230: f7c6 1abe 20d1 00bc fc89 7c3d 7f0b 343f
00000240: 7613 953d 274c f63d 8585 48be c28a 2bbe
00000250: bb64 6c3a 677f a6bc cb1e dcbd a6e5 99be
00000260: 01d5 61be 7ba0 453d 0702 d03e affe 2dbe
00000270: f3fd d63d d928 733e 0fb0 aabd 2beb 903d
00000280: 9920 653d 2214 a03d 00be 1cbc f657 46bc
00000290: e3f2 5f3e a65d 3b3c 2a5e d8be a8e8 b0be
000002a0: 7362 9b3e 871d 62be 7a6c 7d3d b567 c33b
000002b0: 3ea2 0dbe 0a5e 5b3d d4f4 a1bd 0358 923d
000002c0: 0aaa 0fbd 569f ce3d 56b2 7e3d 76fa c33d
000002d0: e25e 96be 8ce7 aabd a1ef 043d 41b8 5b3e
000002e0: 8d6e 103e 2629 cebd 2619 b3bb 517d 06bc
000002f0: affe 693e 7acb 253e e355 8dbe 0125 0a3e
00000300: eac4 0abe 5d08 f9bc 0da6 c4bd 695d 973d
00000310: 79fc 0e3d 8337 24bd 6618 d63d 600a 743d
00000320: e12b 1f3d d13f 7bbd 2942 f5bd 0c13 aa3d
00000330: 519d b63c c7a6 18bc 8e1e 9abc 93ec 90bd
00000340: ce62 1f3c 7eed 6f3c 9a01 903c fa5c 803e
00000350: c95c b4be d67a 5cbc b62c a93d 21be 913e
00000360: ee71 bd3d 73b7 a7bc 1f54 ee3c 01d5 643d
00000370: 9dd4 073b bb04 023c 8634 3bbb c12c ff3d
00000380: 61e5 ba3d 9e88 38be ce58 f03e 2f1a d73d
00000390: 1683 aabd 5eaf 093e fec0 4fbe c3e8 0c3e
000003a0: 40d3 63bd 21d0 8f3d d302 e0bd 72ed a63b
000003b0: 89fd 6fbd 2c9a 5f3d 9cc3 0cbd e684 61be
000003c0: 8eed 853c 45c6 09be c867 0dbe 8b7c 243c
000003d0: bc2d fbbd 99f4 8ebd 5f31 f63d b342 9cbd
000003e0: b022 70bd f330 003e 4602 abbd 5248 b63d
000003f0: c01f 07bd b60c f23d 7a57 b8bd fbda 063e

hidden1.bias f4 [128]
-0.50132984 0.047061816 0.28698713 -0.012642419 -0.029660491 0.33970723 -0.3074269 0.010180423
0.0712119 -0.0639479 -0.10579139 0.05456105 0.13403706 -0.0122099705 0.27783698 0.20560889
-0.24329348 -0.31304914 -0.2858949 -0.120006375 0.30361673 0.019041257 0.045079526 -0.27720106
-0.32449168 -0.08634621 0.28373143 0.040898826 -0.026306959 0.07114902 -0.12238094 -0.13038363
0.008041128 0.012114459 -0.10110056 -0.116788946 -0.19864959 -0.001253381 -0.08367286 0.08666262
-0.16945024 -0.13355812 -0.39940363 -0.044515103 0.10409038 -0.07752934 -0.20759638 -0.03198768
0.2300088 -0.1542335 0.16928293 -0.25157315 -0.02876321 -0.02876658 -0.09711987 0.0039736237
-0.08735316 0.151552 -0.24221678 -0.012681357 -0.013327955 0.13319393 0.32655442 -0.16046481
-0.02762175 -0.097938396 -0.38608694 0.010501147 -0.12736934 -0.050302353 0.23169829 0.29690126
0.06712686 0.123963185 0.1347459 -0.09772754 0.1438693 -0.12617071 -0.10932247 -0.3166409
0.0846935 -0.13834347 -0.091514334 0.022616792 0.20230564 -0.14058207 -0.05557651 -0.015091956
0.004388358 -0.019531408 -0.26497263 0.035053574 -0.07443823 0.030362269 0.033590022 0.026171822
-0.046552036 0.10549135 -0.23108895 -0.14799093 0.13138404 0.006086714 -0.020967226 0.003159027
-0.28602192 0.26350066 0.1356593 -0.21395117 0.29188108 0.041987572 -0.11667448 -0.10891799
0.14147717 0.10630831 -0.04989602 0.13980012 -0.41456416 -0.12346533 -0.058438733 0.073354214
-0.17087977 0.08920046 0.3772362 0.10545006 -0.1680512 -0.05532898 -0.10682269 0.03241796
00000000: 2757 00bf e4c3 403d faef 923e 2622 4fbc
00000010: 8ffa f2bc 1bee ad3e 0f67 9dbe cacb 263c
00000020: 8bd7 913d 1ef7 82bd 28a9 d8bd 687b 5f3d
00000030: 0341 093e 540c 48bc a640 8e3e 238b 523e
00000040: ed21 79be fa47 a0be d160 92be e7c5 f5bd
00000050: a773 9b3e 69fc 9b3c 4fa5 383d 4ced 8dbe
00000060: c623 a6be 48d6 b0bd 3f45 913e 8785 273d
00000070: b181 d7bc 94b6 913d dca2 fabd 4983 05be
00000080: efbe 033c b97b 463c cf0d cfbd 0b2f efbd
00000090: cc6a 4bbe 7d48 a4ba ad5c abbd 2c7c b13d
000000a0: 5d84 2dbe 76c3 08be a27e ccbe 7855 36bd
000000b0: 562d d53d b4c7 9ebd 2594 54be 8305 03bd
000000c0: 6d87 6b3e 63ef 1dbe 8158 2d3e 32ce 80be
000000d0: d3a0 ebbc e4a7 ebbc c8e6 c6bd 2c35 823b
000000e0: 37e6 b2bd 7330 1b3e ad07 78be 77c5 4fbc
000000f0: 7f5d 5abc fd63 083e 2432 a73e e350 24be
00000100: 0247 e2bc ed93 c8bd 30ad c5be 010d 2c3c
00000110: 1c6d 02be d709 4ebd 5142 6d3e 7103 983e
00000120: cf79 893d 69e0 fd3d d4fa 093e 6025 c8bd
00000130: 7952 133e e532 01be 76e4 dfbd c21e a2be
00000140: c973 ad3d e9a9 0dbe de6b bbbd da46 b93c
00000150: 3629 4f3e bff4 0fbe 32a4 63bd 4044 77bc
00000160: 37cc 8f3b 5500 a0bc 7eaa 87be 5694 0f3d
00000170: 1273 98bd 4bba f83c b195 093d 4a66 d63c
00000180: 59ad 3ebd d90b d83d 95a2 6cbe ef8a 17be
00000190: 8a89 063e 0f73 c73b 76c3 abbc ae07 4f3b
000001a0: 7771 92be 8fe9 863e 46ea 0a3e 0416 5bbe
000001b0: 7071 953e 29fb 2b3d 08f3 eebd 6510 dfbd
000001c0: 64df 103e 2cb8 d93d c55f 4cbd c327 0f3e
000001d0: c141 d4be 64db fcbd 745d 6fbd bc3a 963d
000001e0: 1bfb 2ebe bbae b63d 1a25 c13e 33f6 d73d
000001f0: 9d15 2cbe a4a0 62bd dbc5 dabd b2c8 043d

hidden2.weight f4 [128, 128]
0.11890973 -0.48219404 0.15136677 0.31509116 -0.035590075 0.03674437 0.13103999 0.033252858
-0.52546245 -0.14985977 -0.0422641 -0.14683802 -0.077843025 0.022340238 -0.0008280625 -0.095435105
-0.063394934 -0.042180665 0.073629834 0.105403975 -0.34892252 0.07050571 0.2249847 0.042523745
0.10638878 0.04782453 0.027468717 -0.029521897 -0.033406686 -0.09821474 -0.19979036 0.021728262
0.0745088 0.21417442 0.08317668 -0.3909769 -0.19088353 0.02502291 -0.08551073 0.09324786
0.0836422 -0.043616522 -0.394351 0.0637164 -0.1642421 -0.1916802 0.03458875 -0.12056034
0.08790085 -0.13623875 -0.03113361 0.16608372 -0.116290346 0.12310027 0.01931034 0.1294717
-0.11995525 0.034715284 -0.013196512 -0.18571758 -0.3037568 -0.0898636 -0.078067325 -0.09488325
0.015568922 0.0733058 0.2297995 -0.1174773 -0.262227 -0.028853824 0.0295949 -0.083161004
-0.04243134 -0.020311259 0.13334285 0.23342277 0.00183321 -0.041832656 0.027384704 -0.09027305
0.039730463 0.017983563 -0.113074206 -0.0613638 -0.127286 -0.11822125 -0.08218697 0.002541929
0.012264516 -0.19456623 0.16002817 -0.03858532 0.04222496 0.1157162 0.19815691 -0.14017633
-0.04775346 0.030152386 -0.076882094 -0.116819635 0.10857066 0.028632276 -0.0009194529 -0.28939372
0.085829794 -0.012204575 -0.015838139 -0.18605557 0.14378957 -0.06579155 -0.074308515 0.10443979
0.11156587 0.08613064 0.050907996 0.042975843 -0.14857772 0.07738004 0.027266633 -0.05935633
0.10829994 0.10388594 0.108763546 0.073882 -0.05831248 -0.02464005 -0.05158116 -0.15819307
-0.1914696 -0.25505617 -0.21714363 0.08833492 0.044380255 0.09383144 -0.14158158 -0.104273096
0.19146045 -0.28363568 0.27567482 -0.08430184 0.05310622 -0.028713405 0.07734402 -0.0021743348
0.21799554 -0.04055322 0.01487812 -0.028830132 0.12324502 0.06539451 -0.008005336 -0.09469033
-0.13344952 -0.12248863 0.07599453 -0.26001665 0.010859213 -0.13953638 0.13864104 0.05193868
0.089564264 0.017885016 -0.044420503 0.20841876 -0.3986366 0.03492314 -0.13353953 0.052156013
-0.16823861 -0.1052563 0.079746395 -0.1924354 -0.09178457 -0.041258022 0.22364679 0.04468662
0.051496208 0.11579311 -0.15631306 0.13924336 -0.30934876 -0.3419286 0.020757463 -0.1220863
0.043733492 -0.0043206234 0.05324841 -0.0922264 -0.054921072 -0.31120777 0.05520253 -0.23468518
-0.12798879 -0.1347311 -0.028398994 -0.5092711 0.1596842 0.13820584 -0.03050364 0.044922534
0.16597201 -0.3279701 -0.0048693214 0.10155219 0.11818755 -0.10831995 0.105121985 -0.10463861
-0.19556311 -0.039850563 -0.10946237 0.16482413 -0.04015812 -0.21762548 -0.3093561 -0.24301136
-0.124506004 0.117932856 0.016893858 0.0007838629 -0.0736757 -0.03146305 -0.047683828 -0.033983734
-0.17896445 0.17013532 -0.24687141 -0.16852741 0.18322681 -0.25749946 0.12529671 -0.20372541
-0.32529923 0.09899191 0.12920187 -0.5339989 0.042597737 0.08846146 -0.037426606 -0.17055301
0.11953158 0.04722252 -0.10053075 -0.06433176 -0.06631347 -0.13639733 0.5041008 -0.15931691
-0.003454336 0.018095778 -0.06721408 0.075303055 -0.06859124 0.13098826 0.0070654484 -0.10073073
00000000: f286 f33d 23e2 f6be e4ff 1a3e a153 a13e
00000010: e6c6 11bd 4481 163d 592f 063e 2634 083d
00000020: b584 06bf d774 19be 1f1d 2dbd b55c 16be
00000030: 2a6c 9fbd e002 b73c 5512 59ba 7b73 c3bd
00000040: 34d5 81bd a2c5 2cbd 3dcb 963d 0ade d73d
00000050: f9a5 b2be 4c65 903d 6462 663e 612d 2e3d
00000060: 5ce2 d93d a8e3 433d 1306 e13c e8d7 f1bc
00000070: 73d5 08bd cf24 c9bd d895 4cbe 78ff b13c
00000080: 1298 983d 8a50 5b3e 8958 aa3d 202e c8be
00000090: f976 43be d9fc cc3c 4020 afbd bcf8 be3d
000000a0: 9a4c ab3d 3da7 32bd 60e8 c9be be7d 823d
000000b0: 152f 28be d047 44be efac 0d3d 57e8 f6bd
000000c0: 5c05 b43d 2c82 0bbe ea0b ffbc da11 2a3e
000000d0: a229 eebd ff1b fc3d b830 9e3c 3b94 043e
000000e0: 19ab f5bd 9d31 0e3d 2f36 58bc c02c 3ebe
000000f0: 0386 9bbe 680a b8bd c3e1 9fbd 2652 c2bd
00000100: cb14 7f3c 5a21 963d 8f50 6b3e f097 f0bd
00000110: 9e42 86be db5e ecbc 0171 f23c 5150 aabd
00000120: 7ccc 2dbd cc63 a6bc 078b 083e 6106 6f3e
00000130: 5248 f03a b858 2bbd e355 e03c 14e1 b8bd
00000140: 69bc 223d 4452 933c 7393 e7bd 9c58 7bbd
00000150: 4357 02be fc1d f2bd a451 a8bd 7e96 263b
00000160: 1cf1 483c 5f3c 47be 6dde 233e a40b 1ebd
00000170: 14f4 2c3d 9dfc ec3d a5e9 4a3e 628a 0fbe
00000180: 2299 43bd 2302 f73c 5c74 9dbd 223f efbd
00000190: 4b5a de3d 3c8e ea3c 7107 71ba 6a2b 94be
000001a0: 88c7 af3d b3f5 47bc fcbe 81bc 5a85 3ebe
000001b0: 933d 133e b8bd 86bd 102f 98bd 87e4 d53d
000001c0: a67c e43d 4365 b03d e784 503d 7007 303d
000001d0: c224 18be 6d79 9e3d 465e df3c a01f 73bd
000001e0: 5ccc dd3d 27c2 d43d 6cbf de3d 724f 973d
000001f0: 11d9 6ebd eed9 c9bc c446 53bd 5dfd 21be
00000200: 9b10 44be b996 82be e65a 5ebe f0e8 b43d
00000210: 12c8 353d b32a c03d c3fa 10be 228d d5bd
00000220: 350e 443e b238 91be 4025 8d3e 71a6 acbd
00000230: e885 593d 6038 ebbc 8b66 9e3d 497f 0ebb
00000240: 393a 5f3e 221b 26bd 5cc3 733c 2b2d ecbc
00000250: e367 fc3d 8fed 853d d028 03bc 01ed c1bd
00000260: fea6 08be 52db fabd 05a3 9b3d e720 85be
00000270: d7ea 313c a0e2 0ebe ebf7 0d3e a7bd 543d
00000280: 786d b73d 9983 923c 46f2 35bd ba6b 553e
00000290: 191a ccbe 910b 0f3d 96be 08be 8ba1 553d
000002a0: be46 2cbe 9d90 d7bd 1452 a33d c90d 45be
000002b0: 8cf9 bbbd 2cfe 28bd aa03 653e 5109 373d
000002c0: b0ed 523d f024 ed3d 8810 20be d095 0e3e
000002d0: f662 9ebe 4411 afbe 8e0b aa3c 6208 fabd
000002e0: e421 333d 0494 8dbb 011b 5a3d 32e1 bcbd
000002f0: ebf4 60bd a056 9fbe 0c1c 623d 5051 70be
00000300: 7e0f 03be f3f6 09be 02a5 e8bc 975f 02bf
00000310: 4184 233e d585 0d3e c5e2 f9bc b100 383d
00000320: 91f4 293e b2eb a7be d48e 9fbb 98fa cf3d
00000330: 500c f23d dad6 ddbd 324a d73d c44c d6bd
00000340: b241 48be 583a 23bd cf2d e0bd a8c7 283e
00000350: d77c 24bd 37d9 5ebe ec63 9ebe f8d7 78be
00000360: 01fd febd c886 f13d fd64 8a3c 267c 4d3a
00000370: 49e3 96bd 66df 00bd 1e50 43bd 8732 0bbd
00000380: 7542 37be f437 2e3e dccb 7cbe 7392 2cbe
00000390: cf9f 3b3e f8d6 83be c84d 003e 659d 50be
000003a0: 9f8d a6be 45bc ca3d 7f4d 043e 27b4 08bf
000003b0: f77a 2e3d 482b b53d a44c 19bd 73a5 2ebe
000003c0: f9cc f43d 676c 413d 11e3 cdbd 5fc0 83bd
000003d0: 5bcf 87bd beab 0bbe c00c 013f f923 23be
000003e0: 2462 62bb 993d 943c 89a7 89bd 7d38 9a3d
000003f0: 9079 8cbd c921 063e 4785 e73b ea4b cebd

hidden2.bias f4 [128]
0.18971914 0.18921204 0.16037747 0.10330437 0.087542474 -0.10347849 -0.08097632 0.10031961
0.19920592 0.3594594 0.24341796 -0.27326348 0.2939277 0.3066116 0.12449423 0.28769967
0.11707844 0.15303393 0.23476672 0.029575987 0.1085294 0.33038822 0.061571132 0.2997452
0.24615824 0.10961611 0.31139982 0.43865642 0.015118651 0.19672534 0.16573988 0.14956044
-0.021539085 0.1586129 0.0466892 0.3247707 0.1767919 0.27942485 0.19449173 0.20751445
0.27236336 -0.2954347 0.24540436 -0.02499891 0.07156023 0.33901775 0.30398518 0.28482866
0.2719277 0.22195391 0.203687 0.08860709 0.06723352 0.2717784 0.18911336 0.28139123
0.26596582 0.17110272 0.053951416 0.2706231 0.1753341 -0.15202457 0.10029426 0.22537598
0.3473168 0.19952992 -0.17409097 0.20666045 -0.16095045 0.4604541 0.20050141 0.1664126
0.35103256 0.093972 0.09080036 0.31701 0.079977535 0.027255606 0.38452607 0.33838362
0.25154337 0.2058796 0.3167094 0.33959907 0.029347492 -0.23133522 0.18447973 0.30759135
0.15199497 0.27419207 0.07571353 0.11720638 0.32865658 -0.08644437 0.14927995 0.29351518
0.31108147 0.2578845 0.11740846 -0.15767111 0.2786576 0.2965582 0.32011738 0.29516372
0.3109615 0.30630153 0.30105436 -0.0013110782 0.23239204 0.13014926 0.29603857 0.20294122
0.32193905 0.09771541 0.31305066 0.3866606 -0.049640536 0.30122223 0.22698608 0.11513521
-0.0010051954 -0.027744053 0.05402435 0.1965577 0.1156746 0.23040481 -0.19060017 0.18678297
00000000: bc45 423e cdc0 413e fe39 243e 3e91 d33d
00000010: 7849 b33d 88ec d3bd ead6 a5bd 5e74 cd3d
00000020: a3fc 4b3e 100b b83e 8f42 793e 31e9 8bbe
00000030: b17d 963e 32fc 9c3e d5f6 fe3d 5f4d 933e
00000040: d2c6 ef3d edb4 1c3e b066 703e 5749 f23c
00000050: a944 de3d a528 a93e 0332 7c3d 3478 993e
00000060: e810 7c3e 697e e03d cc6f 9f3e 9397 e03e
00000070: 38b4 773c 5e72 493e b7b7 293e 5f26 193e
00000080: bc72 b0bc 6c6b 223e 2d3d 3f3d 5848 a63e
00000090: f008 353e c610 8f3e d728 473e ab7e 543e
000000a0: 3673 8b3e 3843 97be 484b 7b3e 84ca ccbc
000000b0: 2b8e 923d bc93 ad3e f2a3 9b3e 10d5 913e
000000c0: 1c3a 8b3e e347 633e 5393 503e a277 b53d
000000d0: bab1 893d 8a26 8b3e efa6 413e 8312 903e
000000e0: ac2c 883e 8d35 2f3e 29fc 5c3d 1c8f 8a3e
000000f0: c88a 333e 54ac 1bbe 1467 cd3d f6c8 663e
00000100: 82d3 b13e 9251 4c3e e744 32be cc9e 533e
00000110: 32d0 24be a4c0 eb3e 3e50 4d3e 1168 2a3e
00000120: 8aba b33e 6474 c03d 8af5 b93d 224f a23e
00000130: 43cb a33d 2647 df3c 9ae0 c43e 9e40 ad3e
00000140: 4bca 803e 1ad2 523e bc27 a23e eedf ad3e
00000150: 276a f03c 24e3 6cbe 41e8 3c3e 9d7c 9d3e
00000160: 92a4 1b3e e762 8c3e b20f 9b3d e609 f03d
00000170: ad45 a83e bf09 b1bd d8dc 183e 9f47 963e
00000180: 1246 9f3e 7009 843e d973 f03d 8974 21be
00000190: 35ac 8e3e 7ad6 973e 6de6 a33e b31f 973e
000001a0: 5936 9f3e 8ed3 9c3e cc23 9a3e 7cd8 abba
000001b0: 2ef8 6d3e d945 053e 5e92 973e d3cf 4f3e
000001c0: 32d5 a43e 041f c83d 2d48 a03e 61f8 c53e
000001d0: e053 4bbd cd39 9a3e 0a6f 683e 02cc eb3d
000001e0: c3c0 83ba 7f47 e3bc a348 5d3d 6c46 493e
000001f0: cee6 ec3d 3def 6b3e b12c 43be 0944 3f3e

out.weight f4 [1, 128]
0.019203922 0.04206879 0.048115335 0.038683277 -0.14173448 -0.0047716065 -0.0036018596 -0.21971491
0.031213291 0.047260992 0.067421675 -0.09686113 0.051948246 0.040128212 0.019405486 0.040207207
-0.126662 0.0217355 0.0570426 0.05374916 0.039810963 0.049882036 -0.071937606 0.025380747
0.07697034 0.075663745 0.038085256 0.08382737 -0.012088686 0.045914814 0.049791344 0.04584857
0.00414963 -0.03978942 -0.035376694 0.04372537 0.07675018 0.04534027 0.04787204 0.062149085
0.04023169 -0.07601437 0.041233104 -0.07029758 0.20403537 0.044540554 0.057042237 0.04680611
0.03502324 0.03618996 0.051525697 -0.21377027 -0.09954649 0.04658644 0.027887229 0.053049885
0.06036442 0.14566654 0.0781413 0.06505238 0.056856807 -0.027947849 0.13444974 0.058296543
0.08262192 0.055280462 -0.13849843 0.050692264 -0.07346588 0.064040005 0.018990912 -0.008653674
0.0775947 -0.07462073 0.08601179 0.06471633 0.07011632 0.0038313838 0.04474497 0.025304839
0.040558197 0.09636285 0.041836623 0.059696257 0.14127807 -0.10239881 0.07741744 0.0660022
0.07593684 0.034632184 -0.078509524 -0.06086169 0.04337715 0.12340732 0.048924226 0.029960446
0.056985207 0.047359463 0.080253944 -0.076368 0.048685215 0.046894953 0.05868213 0.043103516
0.043545894 0.033220083 0.052251846 -0.12109353 0.059285946 -0.24177548 0.030877214 0.0376611
0.07648515 0.10824554 0.049785413 0.056856655 -0.25411838 0.08408378 0.072059214 0.046681996
-0.06893074 0.00921895 -0.15195793 0.029922087 -0.049970657 0.03786796 -0.055034187 0.047446385
00000000: 8b51 9d3c 5350 2c3d 9614 453d 5b72 1e3d
00000010: d822 11be 235b 9cbb 2d0d 6cbb f2fc 60be
00000020: 04b3 ff3c be94 413d 6014 8a3d 215f c6bd
00000030: afc7 543d 7b5d 243d 41f8 9e3c 50b0 243d
00000040: afb3 01be a60e b23c 80a5 693d 1428 5c3d
00000050: d210 233d 1b51 4c3d 0654 93bd 49eb cf3c
00000060: a0a2 9d3d 98f5 9a3d 49ff 1b3d afad ab3d
00000070: a00f 46bc 2c11 3c3d 02f2 4b3d b6cb 3b3d
00000080: 9ff9 873b 3bfa 22bd 27e7 10bd 6019 333d
00000090: 332f 9d3d b8b6 393d 7915 443d 0a90 7e3d
000000a0: fcc9 243d 6cad 9bbd 0be4 283d 2df8 8fbd
000000b0: a6ee 503e 2870 363d 1fa5 693d c3b7 3f3d
000000c0: 8774 0f3d ec3b 143d 9c0c 533d 98e6 5abe
000000d0: 08df cbbd 6cd1 3e3d c273 e43c d64a 593d
000000e0: af40 773d 9c29 153e 8c08 a03d 2f3a 853d
000000f0: afe2 683d e3f2 e4bc 31ad 093e 5bc8 6e3d
00000100: ae35 a93d c46d 623d 88d2 0dbe b1a2 4f3d
00000110: 4775 96bd 6827 833d d492 9b3c 24c8 0dbc
00000120: f8e9 9e3d c1d2 98bd f326 b03d ff89 843d
00000130: 2599 8f3d f417 7b3b 8046 373d 184c cf3c
00000140: 5a20 263d e359 c53d e15c 2b3d 1084 743d
00000150: 33ab 103e 78b6 d1bd 098d 9e3d 292c 873d
00000160: c684 9b3d 7ada 0d3d 9ac9 a0bd 1c4a 79bd
00000170: 3dac 313d fabc fc3d c564 483d 9c6f f53c
00000180: 5269 693d fffb 413d 2e5c a43d d366 9cbd
00000190: 266a 473d ec14 403d ac5c 703d 508d 303d
000001a0: 2e5d 323d c811 083d 0806 563d e2ff f7bd
000001b0: d2d5 723d fe93 77be 36f2 fc3c 8742 1a3d
000001c0: 3fa4 9c3d d6af dd3d caeb 4b3d 86e2 683d
000001d0: ce1b 82be 1e34 ac3d c893 933d 9f35 3f3d
000001e0: 8f2b 8dbd 140b 173c dc9a 1bbe 2a1f f53c
000001f0: 08ae 4cbd 6f1b 1b3d 876b 61bd 2457 423d
