model_weight/qf2.pt (torch_old, 87052 bytes, 5 tensors)

hidden1.weight f4 [128, 37]
0.10858517 0.048279718 -0.1806447 0.20498918 0.04854978 0.015713213 -0.17202194 -0.0117854625
0.029351894 -0.14818263 -0.042837646 0.0053153927 -0.046761774 -0.072035424 0.19877571 0.072678596
-0.26562545 -0.17618428 0.009325311 -0.080193646 0.13011536 -0.13660754 0.13761318 0.012104275
0.07521928 0.019858146 -0.18078768 -0.03489749 0.104199 0.011999413 -0.035577253 -0.16360952
0.48834205 0.0036246795 0.031976353 0.062365327 0.025618395 -0.23241787 0.018793894 0.058367703
0.13313463 0.09719035 -0.38226202 0.28245568 -0.026368406 0.08526519 -0.106935 0.0003032832
0.061118495 0.053677697 0.11938989 0.270228 0.18001167 0.34278235 0.22895202 0.29611242
-0.3111048 0.21581803 -0.068666056 -0.13831632 -0.0011171978 0.07230213 -0.08686762 -0.050603602
0.04850645 -0.20249377 0.15676598 0.17412668 0.0073961616 -0.24786009 -0.0588621 -0.07142627
0.043939672 -0.112582654 -0.009925472 -0.18603863 0.064527884 -0.05130621 -0.38432202 -0.2852139
0.008623552 0.030529207 0.073441625 0.09834227 0.010501566 -0.0805299 0.014679206 -0.017020488
0.14190236 -0.040164985 0.0914098 0.04686131 -0.03653729 0.12182655 0.083293304 -0.01362087
-0.03299587 -0.040192116 0.05171678 -0.03087937 0.18528987 -0.25258538 -0.21783027 0.12144722
0.13076769 -0.077820204 -0.22151619 0.0017483581 -0.018704936 0.07091968 -0.037405323 0.19380897
-0.052686587 -0.083557315 0.04873848 -0.0898951 -0.016020548 -0.12926126 0.0069388477 0.059988186
0.010939789 -0.009930109 -0.025936095 0.0029868342 -0.37058443 0.18268676 0.25946712 -0.0127442805
0.06819866 0.4557376 0.060975213 0.012374164 0.0040256507 0.036493976 -0.07261213 0.041688737
0.01362443 0.21851535 0.24818297 -0.18538772 0.0018955916 -0.00553958 0.09530209 0.023234887
0.0006747349 -0.010707591 0.009671039 0.117709555 -0.05929667 0.38560766 -0.09224117 0.039080314
0.072165 -0.21883197 0.037993576 -0.21031025 -0.044491187 -0.34459242 -0.040922496 0.06598665
-0.31261358 -0.022446888 0.26748464 -0.120698206 0.08660308 -0.11054887 0.44115356 -0.03403732
0.02252134 0.05531617 0.06961195 -0.074301764 0.038650844 0.18248062 0.058321692 0.26864538
0.059014734 0.15942542 -0.025069576 0.066190064 -0.002109869 0.26822275 -0.184702 0.0119727235
-0.06103207 0.26937094 0.0069655343 0.324801 -0.13503848 -0.05132748 -0.3273583 -0.41651076
-0.04586787 -0.18979791 0.1979874 -0.0014234902 0.101028994 0.044791196 0.019310387 0.077989325
-0.087434344 0.5834881 0.08993975 -0.26360965 0.83214206 -0.10429867 0.13097167 -0.048612032
-0.11538828 -0.09232489 0.1350453 -0.010584448 0.10824221 -0.02937625 0.15766563 0.0018152731
-0.15412216 -0.15451825 -0.06229707 0.01716746 0.02438032 -0.0126942275 0.0124714235 0.016465375
-0.023681903 0.25045043 -0.049339067 0.07535209 0.20279506 0.09414916 0.090892255 -0.024196465
-0.030461838 0.061474733 0.0734764 -0.04374972 0.11096176 0.028319284 0.19736595 -0.07267181
-0.1715479 0.114819214 0.018547403 0.03814152 0.003747661 0.01981095 -0.015382901 0.008153591
0.12546045 -0.15278323 0.28378475 0.0888928 0.074649334 0.010581911 0.32989022 -0.03618676
00000000: e761 de3d f4c0 453d edfa 38be afe8 513e
00000010: 22dc 463d ffb8 803c 8526 30be d017 41bc
00000020: 6273 f03c 30bd 17be 8776 2fbd bf2c ae3b
00000030: 4689 3fbd 4f87 93bd dc8b 4b3e 84d8 943d
00000040: 0f00 88be a769 34be 30c9 183c 913c a4bd
00000050: f63c 053e d9e2 0bbe 78ea 0c3e 0251 463c
00000060: 910c 9a3d 8dad a23c 6820 39be acf0 0ebd
00000070: 4966 d53d 3099 443c 74b9 11bd 4189 27be
00000080: f807 fa3e 088c 6d3b a3f9 023d c972 7f3d
00000090: abdd d13c f3fe 6dbe a7f5 993c f912 6f3d
000000a0: 7254 083e bc0b c73d d9b7 c3be 089e 903e
000000b0: 8e02 d8bc 849f ae3d bd00 dbbd fb01 9f39
000000c0: 6357 7a3d 25dd 5b3d b082 f43d 535b 8a3e
000000d0: fb54 383e 2b81 af3e 6672 6a3e 0c9c 973e
000000e0: 2149 9fbe 67ff 5c3e caa0 8cbd cba2 0dbe
000000f0: f06e 92ba 2413 943d a7e7 b1bd b945 4fbd
00000100: b3ae 463d 875a 4fbe 4387 203e 444e 323e
00000110: 805b f23b 09cf 7dbe 6319 71bd f047 92bd
00000120: 16fa 333d bc91 e6bd 729e 22bc e980 3ebe
00000130: 3227 843d 7626 52bd dbc5 c4be 8e07 92be
00000140: cc49 0d3c 6318 fa3c 9068 963d ac67 c93d
00000150: c30e 2c3c dcec a4bd 0d81 703c 8d6e 8bbc
00000160: da4e 113e 0a84 24bd 1035 bb3d a5f1 3f3d
00000170: 20a8 15bd 3380 f93d ae95 aa3d 122a 5fbc
00000180: ad26 07bd 7da0 24bd f9d4 533d bcf6 fcbc
00000190: a1bc 3d3e df52 81be e60e 5fbe 52b9 f83d
000001a0: f7e7 053e 3360 9fbd 24d5 62be 2a29 e53a
000001b0: 183b 99bc 563e 913d 5336 19bd dc75 463e
000001c0: e4cd 57bd 1920 abbd 00a2 473d ec1a b8bd
000001d0: 863d 83bc 105d 04be 465f e33b 2cb6 753d
000001e0: cd3c 333c e5b1 22bc ef77 d4bc c3be 433b
000001f0: 3ebd bdbe 3d12 3b3e e0d8 843e 63cd 50bc
00000200: bdab 8b3d 7056 e93e 25c1 793d 01bd 4a3c
00000210: 9be9 833b b57a 153d abb5 94bd cfc1 2a3d
00000220: 0039 5f3c 7dc2 5f3e ad23 7e3e 47d6 3dbe
00000230: 8075 f83a 5d85 b5bb be2d c33d 1757 be3c
00000240: b1e0 303a e46e 2fbc 4773 1e3c b511 f13d
00000250: 11e1 72bd 5e6e c53e f0e8 bcbd ae12 203d
00000260: 3ecb 933d 7d15 60be 279f 1b3d 925b 57be
00000270: 643c 36bd 6b6e b0be 599e 27bd 0224 873d
00000280: e30e a0be 89e2 b7bc bff3 883e 9f30 f7bd
00000290: f55c b13d 7267 e2bd e1de e13e b86a 0bbd
000002a0: ac7e b83c 3593 623d b690 8e3d 862b 98bd
000002b0: 5950 1e3d 33dc 3a3e bae2 6e3d e38b 893e
000002c0: 6fb9 713d 6b40 233e b65e cdbc a88e 873d
000002d0: ba45 0abb 7e54 893e 8522 3dbe 3e29 443c
000002e0: c4fc 79bd fdea 893e 233f e43b 514c a63e
000002f0: 8747 0abe c33c 52bd 829b a7be e640 d5be
00000300: f3df 3bbd 625a 42be 36bd 4a3e 6894 baba
00000310: 4ae8 ce3d f976 373d d130 9e3c deb8 9f3d
00000320: c710 b3bd 7a5f 153f 5532 b83d d8f7 86be
00000330: 4307 553f 8b9a d5bd 701d 063e 691d 47bd
00000340: b150 ecbd d514 bdbd 5149 0a3e 656a 2dbc
00000350: 17ae dd3d 76a6 f0bc 1973 213e 75ee ed3a
00000360: 33d2 1dbe 083a 1ebe 362b 7fbd c6a2 8c3c
00000370: 3db9 c73c 73fb 4fbc f154 4c3c 65e2 863c
00000380: 8d00 c2bc 0a3b 803e c317 4abd 3252 9a3d
00000390: 82a9 4f3e 46d1 c03d b825 ba3d aa37 c6bc
000003a0: 1b8b f9bc eecc 7b3d cb7a 963d e832 33bd
000003b0: eb3f e33d d8fd e73c 4d1a 4a3e f5d4 94bd
000003c0: 41aa 2fbe 5626 eb3d b9f0 973c 483a 1c3d
000003d0: 519b 753b 934a a23c 9008 7cbc a496 053c
000003e0: b478 003e 3573 1cbe 3c4c 913e 6e0d b63d
000003f0: c0e1 983d c05f 2d3c 5fe7 a83e 9138 14bd

hidden1.bias f4 [128]
0.19729374 -0.07023281 0.09584325 -0.054520205 -0.088014305 -0.21223274 0.18083182 0.14849202
-0.31669974 0.10511928 -0.0076844464 0.13678674 0.03357778 0.092661515 0.18296312 -0.0036347562
0.2700551 -0.066535525 -0.20716001 -0.14903931 0.15662976 0.15948375 -0.38206843 0.0826815
-0.13777976 0.032011677 -0.10137501 0.072835125 -0.10161883 0.0556572 0.07280696 -0.028431682
-0.18773243 0.07986584 0.10428529 -0.024121465 0.07923016 -0.46148178 -0.0470511 -0.0048169345
-0.17692235 -0.35158136 -0.020321442 -0.36908472 -0.055535994 0.00056827196 -0.0981997 -0.17687917
0.134375 -0.060209095 0.011554749 0.14088683 0.19353242 -0.15064028 -0.29081136 0.21321987
-0.0016909594 -0.068022184 -0.19741909 0.12692493 0.054214325 -0.020717165 -0.042594425 -0.016014788
-0.16864273 -0.07307671 -0.2473542 0.033763107 -0.2277801 -0.030313252 -0.023856306 0.12700148
0.14458156 0.049762532 -0.0036219351 0.2220561 -0.21249667 -0.05498671 0.31415686 -0.07199084
-0.022500928 -0.33907107 -0.24282297 0.039412014 0.011421446 -0.003229981 0.33143842 0.026566707
-0.22935992 -0.1115327 0.0052994275 0.030332824 0.10110674 -0.1908557 -0.14771022 -0.17749485
0.23028545 -0.007296954 -0.048977934 0.068090096 -0.29126826 -0.22431436 0.09254304 0.07449833
-0.0085031595 -0.28189173 -0.05165168 -0.10126171 0.18284982 -0.08034532 0.14557414 0.29934847
-0.06643958 -0.037818193 0.2639973 -0.04625545 -0.02602142 0.15104157 0.12818244 -0.27394542
0.17616157 -0.33168125 -0.28576672 0.32743236 -0.1710774 -0.13387334 -0.18025358 -0.18281288
00000000: 5f07 4a3e 38d6 8fbd 7749 c43d 9450 5fbd
00000010: d840 b4bd 8a53 59be fa2b 393e 4b0e 183e
00000020: 7826 a2be c748 d73d cfcd fbbb d311 0c3e
00000030: db88 093d 52c5 bd3d af5a 3b3e 1735 6ebb
00000040: a944 8a3e c743 88bd c121 54be c39d 18be
00000050: 8d63 203e b54f 233e 799e c3be eb54 a93d
00000060: 2316 0dbe ad1e 033d b49d cfbd 952a 953d
00000070: 881d d0bd cef8 633d d11b 953d 8fe9 e8bc
00000080: ee3c 40be b490 a33d 8793 d53d 619a c5bc
00000090: 6c43 a23d 5747 ecbe a7b8 40bd 60d7 9dbb
000000a0: 222b 35be 7902 b4be 2779 a6bc acf8 bcbe
000000b0: b679 63bd 16f8 143a ed1c c9bd d01f 35be
000000c0: 9a99 093e d09d 76bd 2150 3d3c a344 103e
000000d0: 5d2d 463e 7241 1abe 3ae5 94be 4f56 5a3e
000000e0: 2fa3 ddba 374f 8bbd 3b28 4abe 9cf8 013e
000000f0: d70f 5e3d 0bb7 a9bc 7e77 2ebd 7231 83bc
00000100: aeb0 2cbe 3ea9 95bd 6b4a 7dbe 2f4b 0a3d
00000110: 303f 69be 7f53 f8bc 4d6e c3bc ad0c 023e
00000120: 300d 143e ccd3 4b3d fd5d 6dbb ad62 633e
00000130: ba98 59be bf39 61bd 2bd9 a03e ef6f 93bd
00000140: de53 b8bc b99a adbe 96a6 78be 7e6e 213d
00000150: 0421 3b3c 17ae 53bb 4cb2 a93e 6ca2 d93c
00000160: 54dd 6abe 426b e4bd d2a6 ad3b 8b7c f83c
00000170: 0d11 cf3d ad6f 43be 5941 17be 36c1 35be
00000180: f3cf 6b3e 491b efbb 169d 48bd d272 8b3d
00000190: 1d21 95be aab2 65be 3587 bd3d 9592 983d
000001a0: d650 0bbc 1d54 90be b690 53bd 4d62 cfbd
000001b0: fc3c 3b3e 168c a4bd 6311 153e 3444 993e
000001c0: 7911 88bd 40e7 1abd a72a 873e 5b76 3dbd
000001d0: df2a d5bc a4aa 1a3e 4242 033e 9342 8cbe
000001e0: b363 343e 20d2 a9be 0450 92be 37a5 a73e
000001f0: ea2e 2fbe 1816 09be 6594 38be 4d33 3bbe

hidden2.weight f4 [128, 128]
-0.31384224 0.19873472 0.055850845 0.06536366 0.039683588 -0.03652761 -0.025755791 0.055061262
-0.15165192 -0.12868635 -0.07677213 -0.031826783 -0.3311448 -0.110963896 0.15681934 0.12452324
-0.2780687 -0.23313306 -0.21917537 0.1360712 -0.035883915 0.097631626 -0.15611963 -0.11100057
0.09749669 -0.17517848 -0.1640525 -0.3019959 -0.105677575 0.012305489 0.0184476 -0.019561464
0.080354616 -0.32744655 0.05236654 -0.057169054 0.06836508 -0.10816145 0.016048528 0.10779822
-0.22617109 0.17665021 0.11811158 -0.100246064 0.02770093 0.0969982 -0.26575604 -0.057934266
-0.19488946 -0.041563936 0.27063626 -0.40457043 -0.16785388 -0.17857932 -0.23033854 -0.19136715
0.0348831 0.10639532 -0.1955396 -0.15687709 0.3008849 -0.13317792 -0.31520298 0.1641266
-0.2234895 -0.16357091 -0.21261905 -0.27940214 0.19960329 0.3172751 0.122568645 -0.09330035
-0.018843362 -0.112495415 -0.07774704 0.16545218 0.024350693 -0.28494418 -0.080631174 -0.11563077
-0.07705474 -0.00836996 -0.2469361 -0.08572 -0.26193407 -0.1279158 0.12801237 -0.012319162
0.18306628 0.0992357 -0.10350022 0.032091267 -0.2761432 0.21343413 0.1858056 0.08181866
0.11622392 -0.035722904 -0.00020782759 0.03092695 0.2204407 -0.020389436 -0.14261515 -0.17880085
0.010651835 -0.21064346 -0.26298922 -0.24254885 -0.05351164 -0.0001611632 0.06374601 -0.13784195
-0.17539018 -0.051031303 -0.19966102 -0.07523953 0.053928006 0.019161515 0.0652265 -0.2362126
0.12802792 0.2319804 0.19974339 -0.028101256 0.07908604 -0.18399915 -0.05824098 -0.18923019
0.18997426 -0.29898897 -0.13718627 0.2300899 -0.07151068 -0.15402445 -0.14125884 0.0067320494
0.51108336 -0.24738638 -0.34170732 -0.2736162 -0.035690762 -0.06144259 0.19056411 0.09599093
-0.38436288 0.15498815 -0.078402385 0.2209558 0.013258489 0.018682597 -0.1486909 0.22667174
-0.054845005 -0.29594907 -0.06903563 -0.0032585687 0.011208236 0.1661362 0.052721366 0.108387016
-0.1846851 0.02985079 0.20690174 0.09040297 -0.10476324 0.068682894 -0.43629432 0.0705713
-0.15246744 -0.09884344 -0.37752506 -0.27406573 0.059890673 0.027025467 -0.10924638 -0.037719183
0.15832648 -5.8366706e-05 -0.08992635 -0.12239903 -0.026885161 0.22944096 0.22015479 -0.16006808
0.08454079 -0.14272806 -0.23722188 -0.1715029 -0.011380943 -0.08232084 0.059386905 -0.1586504
-0.065183766 -0.19843946 -0.09764138 -0.12558684 0.0076512787 -0.25244132 -0.12581949 0.020447858
-0.42488578 0.020478956 -0.0044981902 0.07254722 -0.05359728 -0.12386919 -0.008240805 0.18722002
0.03254562 -0.30409956 -0.079541534 -0.5206156 -0.2449816 0.036409497 0.095770344 0.17657737
-0.43120202 -0.041543305 0.07813578 -0.036310922 -0.014379578 0.04109814 -0.04213673 -0.15916348
-0.07209359 -0.2355349 -0.23200032 0.18139262 0.06732634 -0.054233026 0.021635024 0.06721376
0.0011177746 -0.37168953 -0.087938316 -0.21011868 0.16402617 0.22214699 0.019300278 0.10992055
-0.10268716 -0.47004643 0.13525385 -0.0608789 0.044893533 -0.09330791 -0.23265794 -0.026543688
-0.21306543 0.0899719 0.27091327 -0.09228091 -0.1009395 -0.0025477456 -0.11806721 0.11141398
00000000: eeaf a0be 1d81 4b3e dbc3 643d 62dd 853d
00000010: 428b 223d fa9d 15bd cffd d2bc eb87 613d
00000020: a44a 1bbe 5bc6 03be b53a 9dbd cd5c 02bd
00000030: d08b a9be 0a41 e3bd 4095 203e 0a06 ff3d
00000040: 055f 8ebe 6fba 6ebe 826f 60be 4056 0b3e
00000050: 03fb 12bd 17f3 c73d d3dd 1fbe 4454 e3bd
00000060: 58ac c73d fd61 33be 61fd 27be 359f 9abe
00000070: 7c6d d8bd f69c 493c 6c1f 973c 5d3f a0bc
00000080: f690 a43d 13a7 a7be 4c7e 563d 192a 6abd
00000090: fe02 8c3d c083 ddbd 3478 833c 50c5 dc3d
000000a0: 6599 67be cbe3 343e 7ce4 f13d cf4d cdbd
000000b0: 10ed e23c fea6 c63d 2d11 88be 7b4c 6dbd
000000c0: 1a91 47be f23e 2abd d690 8a3e db23 cfbe
000000d0: e3e1 2bbe 7fdd 36be dedd 6bbe c0f5 43be
000000e0: 95e1 0e3d cae5 d93d 883b 48be 63a4 20be
000000f0: 960d 9a3e cb5f 08be 4962 a1be ce10 283e
00000100: 6eda 64be 227f 27be cfb8 59be cc0d 8fbe
00000110: ce64 4c3e e271 a23e 4505 fb3d 4114 bfbd
00000120: 655d 9abc ff63 e6bd d739 9fbd 4c6c 293e
00000130: 1b7b c73c 34e4 91be f521 a5bd d3cf ecbd
00000140: e0ce 9dbd 2822 09bc d1dc 7cbe f88d afbd
00000150: 391c 86be 5cfc 02be ad15 033e 4fd6 49bc
00000160: ba75 3b3e 163c cb3d ecf7 d3bd 2272 033d
00000170: a462 8dbe 7a8e 5a3e d343 3e3e 8b90 a73d
00000180: ce06 ee3d 2e52 12bd 4bec 59b9 845a fd3c
00000190: 35bb 613e bf07 a7bc b509 12be 9217 37be
000001a0: 0985 2e3c ebb2 57be 86a6 86be ba5e 78be
000001b0: 052f 5bbd ebfd 28b9 458d 823d 7126 0dbe
000001c0: 7c99 33be 3306 51bd f073 4cbe 2f17 9abd
000001d0: 9de3 5c3d 9cf8 9c3c 7995 853d b7e1 71be
000001e0: c019 033e 458c 6d3e 8889 4c3e 9b34 e6bc
000001f0: ddf7 a13d 466a 3cbe 188e 6ebd 8fc5 41be
00000200: 9d88 423e 1515 99be 8f7a 0cbe b09c 6b3e
00000210: 3174 92bd 96b8 1dbe 28a6 10be 8698 dc3b
00000220: 5cd6 023f db52 7dbe 43f4 aebe 6c17 8cbe
00000230: 7a30 12bd 3aab 7bbd 3d23 433e e596 c43d
00000240: 36cb c4be 37b5 1e3e 6e91 a0bd 3d42 623e
00000250: 223a 593c 3f0c 993c 6d42 18be a31c 683e
00000260: 28a5 60bd a386 97be 8d62 8dbd b68d 55bb
00000270: c0a2 373c 9c1f 2a3e 5cf2 573d 03fa dd3d
00000280: 171e 3dbe a589 f43c 0dde 533e 3125 b93d
00000290: 1c8e d6bd 9ea9 8c3d f861 dfbe b087 903d
000002a0: 6d20 1cbe 6e6e cabd f74a c1be 5852 8cbe
000002b0: ec4f 753d 8364 dd3c 91bc dfbd 6e7f 1abd
000002c0: 5620 223e c6ce 74b8 4e2b b8bd 58ac fabd
000002d0: 453e dcbc 92f2 6a3e 4270 613e e3e8 23be
000002e0: b923 ad3d 4e27 12be 4bea 72be 759e 2fbe
000002f0: 2277 3abc d497 a8bd af3f 733d 4075 22be
00000300: 117f 85bd b733 4bbe 34f8 c7bd d699 00be
00000310: 94b7 fa3b fd3f 81be d3d6 00be 4482 a73c
00000320: a18a d9be 7cc3 a73c 8e65 93bb a393 943d
00000330: d288 5bbd 21af fdbd 7104 07bc 9bb6 3f3e
00000340: 8e4e 053d f0b2 9bbe ace6 a2bd 1047 05bf
00000350: 75dc 7abe 2022 153d 3e23 c43d b3d0 343e
00000360: 83c6 dcbe 5029 2abd a705 a03d c3ba 14bd
00000370: 5298 6bbc 8656 283d 9097 2cbd c0fb 22be
00000380: cea5 93bd 1030 71be 7e91 6dbe fdbe 393e
00000390: 64e2 893d 7323 5ebd ef3b b13c 5ea7 893d
000003a0: 4b82 923a 174e bebe 0119 b4bd 5a29 57be
000003b0: 7af6 273e 807a 633e 9e1b 9e3c 061e e13d
000003c0: a54d d2bd eda9 f0be fc7f 0a3e 275c 79bd
000003d0: 48e2 373d 3818 bfbd e23d 6ebe 2672 d9bc
000003e0: d32d 5abe 3043 b83d 25b5 8a3e c6fd bcbd
000003f0: 5eb9 cebd 14f8 26bb 39cd f1bd 032d e43d

hidden2.bias f4 [128]
0.023833591 0.11415837 -0.36824596 0.3115593 -0.054740373 -0.16854748 0.012364807 0.05962342
0.31301355 0.37044132 -0.032852847 0.29221174 0.34415564 0.41721264 0.3736695 0.21227916
0.08387716 0.124196105 0.4326106 -0.14597866 0.28533217 0.2316326 0.23011246 0.14637573
0.07609522 0.26848626 0.34122148 0.16719258 0.20680258 0.44277978 0.13199784 0.06775692
0.2602593 -0.14414683 0.21353175 0.19115339 0.34492472 -0.27040198 0.08685562 0.49029765
0.22213173 0.16137137 0.14436601 0.25578165 0.23330535 0.16554101 -0.24126802 0.19566101
0.30007008 -0.011510265 0.01387197 0.1581433 0.26825503 0.3892489 0.34929794 0.25128177
0.15402697 0.11628859 0.2403492 0.230821 0.08960407 0.32304987 0.057268456 0.29898378
0.19948356 0.014248529 0.09614012 0.18102573 0.11021485 -0.23910367 0.2483802 0.063056655
0.26701847 -0.28342634 0.30990914 0.04297848 0.10877386 0.40115306 -0.0073554837 0.2525554
-0.024413753 -0.08164631 0.29450086 0.08513931 0.28605604 -0.21819209 0.0791662 0.31564772
0.42028046 0.3514227 0.053464264 0.3652764 -0.011506193 0.16391125 -0.31173286 0.2573059
0.15957014 0.17809033 0.107561775 0.07061066 0.2172323 0.25580272 0.21946505 0.28732562
0.26885223 -0.12135425 0.2936655 0.19486056 0.1647955 0.32337883 0.450739 0.26230064
-0.067675166 0.23628691 0.2634057 -0.29679677 0.21729818 0.1313658 0.16359603 0.36762002
0.042138305 -0.09610242 0.24931604 -0.05338101 -0.24001051 0.3391745 0.23399638 0.27619198
00000000: aa3e c33c ddcb e93d bc8a bcbe b384 9f3e
00000010: 7137 60bd b697 2cbe c295 4a3c b037 743d
00000020: 5043 a03e 7caa bd3e b590 06bd c79c 953e
00000030: 2b35 b03e e59c d53e 9c51 bf3e b55f 593e
00000040: cac7 ab3d 875a fe3d 237f dd3e 6e7b 15be
00000050: 0f17 923e 1931 6d3e 9aa2 6b3e 85e3 153e
00000060: d0d7 9b3d 0877 893e 95b4 ae3e 8834 2b3e
00000070: 0ec4 533e 08b4 e23e 712a 073e 24c4 8a3d
00000080: b540 853e 3a9b 13be 11a8 5a3e b7bd 433e
00000090: f999 b03e 2172 8abe 5ce1 b13d 4b08 fb3e
000000a0: 8076 633e 893e 253e afd4 133e d0f5 823e
000000b0: 99e7 6e3e 9583 293e f70e 77be 5c5b 483e
000000c0: c9a2 993e 8d95 3cbc 4247 633c 51f0 213e
000000d0: b958 893e a24b c73e 2ed7 b23e 01a8 803e
000000e0: 3fb9 1d3e b628 ee3d 1a1e 763e 575c 6c3e
000000f0: 5782 b73d cb66 a53e 5492 6a3d 6714 993e
00000100: 6b45 4c3e aa72 693c 1ce5 c43d cf5e 393e
00000110: 53b8 e13d 98d7 74be 6157 7e3e d923 813d
00000120: a5b6 883e 421d 91be 69ac 9e3e 340a 303d
00000130: d4c4 de3d ef63 cd3e 4506 f1bb f14e 813e
00000140: 5aff c7bc 2e36 a7bd d1c8 963e 855d ae3d
00000150: f075 923e bf6d 5fbe e321 a23d 949c a13e
00000160: 002f d73e aded b33e 58fd 5a3d 8205 bb3e
00000170: 7984 3cbc 5ad8 273e 739b 9fbe 99bd 833e
00000180: 5b66 233e 505d 363e 5949 dc3d 529c 903d
00000190: 2572 5e3e 93f8 823e 72bb 603e 581c 933e
000001a0: 00a7 893e 9488 f8bd 535b 963e 8789 473e
000001b0: 27c0 283e e991 a53e 43c7 e63e 454c 863e
000001c0: 4799 8abd 32f5 713e 1ddd 863e bff5 97be
000001d0: 6a83 5e3e c284 063e b885 273e b138 bc3e
000001e0: 3799 2c3d 58d1 c4bd b44c 7f3e 0ca6 5abd
000001f0: 51c5 75be 48a8 ad3e bf9c 6f3e 0969 8d3e

out.weight f4 [1, 128]
-0.14272307 0.042899914 -0.01954679 0.04799342 -0.005463629 -0.11053669 -0.07766461 -0.113123454
0.031350553 0.03331297 -0.0971008 0.041635286 0.058528762 0.11110084 0.07833015 0.042264275
-0.09258293 0.075626716 0.05583337 -0.018182099 0.029991692 0.037356015 0.021235863 0.08850027
0.084115006 0.045373928 0.03658171 0.051745135 0.031007646 0.0499253 -0.11586677 0.06452295
0.06962249 -0.039300073 0.040530615 0.03141805 0.09302598 -0.016556077 0.0381287 0.06378535
0.055761587 -0.1023062 0.09278248 0.042202584 0.034936678 0.10361197 -0.061971255 0.031539407
0.055293374 0.018603535 0.016174266 -0.10267719 0.0449669 0.07664631 0.03901585 0.034391865
-0.1295024 -0.08410053 0.049035016 0.037946288 -0.051185384 0.053776275 -0.1209623 0.044654176
0.033515014 -0.042811953 0.064058684 -0.00013346836 -0.051194865 -0.071993485 0.05371852 -0.108492434
0.049051024 -0.092646144 0.022478016 -0.13909966 0.030203652 0.024659846 0.11375015 0.041504785
-0.0006023084 -0.049556833 0.0432374 0.06790379 0.044158477 -0.0827391 0.11400826 0.038167495
0.05279353 0.05194464 0.051654704 0.043388 0.007400874 0.06501773 -0.104092136 0.059066992
0.06504987 0.04555543 0.1413598 0.08268245 0.07509457 0.07187671 0.030678138 0.06412348
0.047971904 -0.060672976 0.0614768 0.04762259 0.06276083 0.061140068 0.063723944 0.052130762
-0.002471766 0.05060478 0.05288319 -0.002973759 0.04776174 0.09521021 0.043385394 0.055745564
0.07064602 0.04098854 0.048890203 0.07655878 -0.1758094 0.04379714 0.042212818 0.055076767
00000000: ff25 12be d2b7 2f3d 9720 a0bc c094 443d
00000010: 3e08 b3bb 0f61 e2bd a00e 9fbd 45ad e7bd
00000020: 7069 003d 2e73 083d c9dc c6bd c389 2a3d
00000030: dbbb 6f3d d688 e33d 8f6b a03d 4e1d 2d3d
00000040: 1f9c bdbd 2ee2 9a3d 88b1 643d a0f2 94bc
00000050: 23b1 f53c 9f02 193d d5f6 ad3c a13f b53d
00000060: 7d44 ac3d 03da 393d b4d6 153d b5f2 533d
00000070: bf03 fe3c 797e 4c3d 8f4b edbd 9c24 843d
00000080: 3c96 8e3d 1df9 20bd 6e03 263d 37b0 003d
00000090: 6884 be3d 9ca0 87bc d72c 1c3d e5a1 823d
000000a0: 4366 643d ea85 d1bd be04 be3d 9edc 2c3d
000000b0: c319 0f3d 8332 d43d 92d5 7dbd 772f 013d
000000c0: 4e7b 623d 7166 983c e57f 843c 6b48 d2bd
000000d0: 362f 383d bef8 9c3d 15cf 1f3d 7cde 0c3d
000000e0: 479c 04be e63c acbd f1d8 483d 916d 1b3d
000000f0: c4a7 51bd 8344 5c3d 15bb f7bd 4ce7 363d
00000100: 0a47 093d 965b 2fbd 3331 833d a4f3 0bb9
00000110: b5b1 51bd 5271 93bd f307 5c3d 4831 debd
00000120: bae9 483d 43bd bdbd d123 b83c 2470 0ebe
00000130: a66d f73c 7203 ca3c d7f5 e83d ec00 2a3d
00000140: 3ce4 1dba 1bfc 4abd b319 313d 2411 8b3d
00000150: 85df 343d 1e73 a9bd 2a7d e93d 8555 1c3d
00000160: 073e 583d e7c3 543d e293 533d 9eb7 313d
00000170: 0883 f23b 0428 853d 422e d5bd 3bf0 713d
00000180: de38 853d 5598 3a3d a0c0 103e 6b55 a93d
00000190: 2fcb 993d 1934 933d b850 fb3c 2c53 833d
000001a0: 307e 443d 3a84 78bd 19cf 7b3d e80f 433d
000001b0: c088 803d 026e 7a3d b381 823d 1187 553d
000001c0: 5afd 21bb f546 4f3d 0b9c 583d 66e3 42bb
000001d0: d0a1 433d 92fd c23d e2b4 313d 7655 643d
000001e0: dcae 903d 99e3 273d 1841 483d daca 9c3d
000001f0: 6107 34be a164 333d 59e7 2c3d 2d98 613d
