model_weight/vf.pt (torch_old, 85004 bytes, 5 tensors)

hidden1.weight f4 [128, 33]
0	0x3e5f9239	0.21833123
1	0x3e90ac9d	0.28256693
2	0xbd67c493	-0.056583952
3	0xbb69aa5f	-0.0035654528
4	0x3e49ba2b	0.19699924
5	0xbe45fb52	-0.19334152
6	0xbce4ce33	-0.027930355
7	0xbdf694cc	-0.120400995
8	0x3e625d0e	0.2210581
9	0x3d66e85f	0.05637395
10	0x3b5f69cf	0.0034090166
11	0x3de5cd94	0.112208515
12	0x3ddb5816	0.107101604
13	0x3e0f658f	0.14003585
14	0xbe1c1306	-0.15241632
15	0xbe0e4130	-0.13892055
16	0x3e805967	0.2506821
17	0xbe640e37	-0.22271048
18	0xbea389e1	-0.3194113
19	0xbe7aa07a	-0.2447528
20	0x3e5cf973	0.21579532
21	0x3c6d0178	0.014465682
22	0xbd2f0339	-0.042727683
23	0x3e01e8ad	0.12686415
24	0xbab5cf06	-0.0013870902
25	0xbd8c7fd6	-0.0686032
26	0xbd2de2d8	-0.042452663
27	0x3c0eb0bf	0.008709132
28	0x3e1fb7b0	0.15597415
29	0xbda42dff	-0.080165856
30	0x3d1ef848	0.038811
31	0xbe02fb1f	-0.12791108
32	0xbeb0157b	-0.34391388
33	0xbcf7d14a	-0.030251164
34	0x3e1928c9	0.14956965
35	0x3cf943c2	0.030427817
36	0x3e48f778	0.19625652
37	0x3e4204b2	0.18947104
38	0x3f80167f	1.0006865
39	0xbf2ca85e	-0.6744441
40	0x3ebdedc3	0.3709546
41	0x3dca06d6	0.09864585
42	0x3e6720e1	0.22571136
43	0x3d841b75	0.064505495
44	0xbc80491e	-0.015659865
45	0x3e0fc9bb	0.14041798
46	0xbd64008a	-0.055664577
47	0x3e003ce6	0.12523231
48	0x3def90e8	0.116975605
49	0xbc60f3c3	-0.013729992
50	0x3ed51cb3	0.41623458
51	0x3e9928db	0.29913983
52	0xbdc07eed	-0.09399209
53	0xbe2de472	-0.16981676
54	0x3e3c8142	0.18408683
55	0x3e8fc3d2	0.28079087
56	0x3e15670c	0.1459009
57	0xbb74e106	-0.003736557
58	0x3e394425	0.18092401
59	0x3c88f1b7	0.016716821
60	0x3d2dc3f2	0.042423196
61	0xbe28cebd	-0.16485114
62	0x3df3afa0	0.11898732
63	0xbe6d0210	-0.23145318
64	0xbcdd53f8	-0.027017578
65	0xbe56c2d1	-0.20972754
66	0xbdd9db7d	-0.10637567
67	0xbde4904f	-0.11160337
68	0x3e0420cd	0.12903138
69	0x3e80da69	0.25166634
70	0xbe802452	-0.2502771
71	0x3c8bad62	0.017050449
72	0x3e85b9bb	0.26118264
73	0xbc8e742b	-0.017389378
74	0xbd63ff08	-0.05566314
75	0xbdb218ce	-0.08696137
76	0xbd60913e	-0.054826014
77	0x3c5c8a8c	0.0134607665
78	0x3db502ff	0.08838462
79	0xbdf0eb49	-0.11763627
80	0x3e1d6f71	0.15374543
81	0xbc8fda80	-0.017560244
82	0x3c3607be	0.011110244
83	0x3dc3d230	0.095615745
84	0xbc5c482c	-0.0134449415
85	0x3debb413	0.11508956
86	0x3d0393a6	0.03212323
87	0xbc7cb26a	-0.015423397
88	0x3da4da40	0.080494404
89	0xbcbffcfc	-0.023436062
90	0x3cf00df5	0.02930353
91	0xbcea7614	-0.028620757
92	0xbe8fae2a	-0.28062564
93	0xbcd38c1b	-0.025823643
94	0x3db86901	0.09004403
95	0x3bf53660	0.0074832886
96	0x3c6cbd75	0.014449467
97	0xbc2b0d90	-0.010440245
98	0x3ee29e20	0.44261265
99	0x3e5b2147	0.21399413
100	0x3de2d79f	0.11076283
101	0x3e6fc12e	0.23413536
102	0x3e80353a	0.2504061
103	0x3e74ceaa	0.23906961
104	0xbe9f938b	-0.31167254
105	0xbee68503	-0.45023355
106	0xbdd586ed	-0.10426126
107	0x3e2c8730	0.16848445
108	0x3d7676ed	0.06017201
109	0x3def54c4	0.1168609
110	0x3c8053c0	0.015664935
111	0xbdd8ec7a	-0.10591979
112	0xbe983d40	-0.2973423
113	0xbd3591ab	-0.044328373
114	0xbdc0f624	-0.094219476
115	0xbe67612e	-0.22595665
116	0x3dc49351	0.09598411
117	0x3e07d105	0.13263328
118	0x3c935292	0.017983709
119	0xbdb2d2fc	-0.08731648
120	0x3e0d7d8a	0.1381742
121	0xbdb2aa95	-0.08723942
122	0x3d25911e	0.040421598
123	0x3d3e27ba	0.046424605
124	0xbc7facf9	-0.015605205
125	0x3e3bd027	0.18341123
126	0x3e2b2a6e	0.16715404
127	0x3d3c4f02	0.045973785
128	0xbe224765	-0.15847547
129	0xbda82922	-0.082109705
130	0xbc81c130	-0.01583919
131	0xbf198174	-0.59963155
132	0x3e002c8d	0.12516995
133	0x3e135d15	0.14390977
134	0x3b7c00b7	0.0038452575
135	0xbedc9fde	-0.4309072
136	0xbed256e3	-0.41081914
137	0x3ee7bfbb	0.45263466
138	0x3e917d38	0.28415847
139	0x3e6ad776	0.22933754
140	0x3d968597	0.07349699
141	0x3e13feac	0.14452618
142	0x3d0d2196	0.03445586
143	0x3d03955f	0.032124873
144	0xbe1b7671	-0.151819
145	0x3e394e15	0.18096192
146	0x3e232dbd	0.15935417
147	0x3e08d4bf	0.13362406
148	0x3e4795c1	0.1949072
149	0xbeb205e0	-0.34770107
150	0xbecd82b6	-0.40138787
151	0xbe81bbbf	-0.2533855
152	0xbd6b86cf	-0.05750161
153	0xbea4cdb4	-0.3218819
154	0xbd34aa8d	-0.044107962
155	0x3d1242e3	0.03570832
156	0xbc1e4138	-0.009659104
157	0xbd933572	-0.07187928
158	0xbe2ae530	-0.1668899
159	0xbc1e3e13	-0.009658354
160	0xbe35e6a5	-0.17763765
161	0x3d7c972c	0.061667606
162	0xbcb48479	-0.022035824
163	0x3db6e274	0.08929911
164	0xbef7e92c	-0.48420084
165	0x3d8ec882	0.069718376
166	0x3d26c9fb	0.040719967
167	0x3de073e5	0.10959605
168	0x3d8a318d	0.06747732
169	0x3cecd58b	0.028910419
170	0x3eaf79e5	0.34272686
171	0xba26231e	-0.00063376303
172	0x3d8343ce	0.06409417
173	0xbd150294	-0.03637941
174	0x3e144de0	0.14482832
175	0xbc7ac6cd	-0.015306187
176	0x3d39170f	0.045188006
177	0x3d491205	0.04908945
178	0xbe857a79	-0.26070002
179	0x3d7e993f	0.062157866
180	0xbe73d136	-0.23810276
181	0x3d84dcf3	0.06487455
182	0xbd9632f5	-0.07333938
183	0x3f415b6f	0.7553014
184	0xbe545ac9	-0.20737757
185	0x3d25727d	0.040392388
186	0xbe23578e	-0.15951368
187	0x3d6fc845	0.0585406
188	0xbd5fda2b	-0.05465142
189	0x3c07495f	0.008257239
190	0xbda5f7d9	-0.08103914
191	0x3e321dd4	0.17394191
192	0x3e09b33d	0.1344728
193	0x3e3d9b37	0.18516241
194	0x3e1adab2	0.15122488
195	0x3c331518	0.010930322
196	0x3cd1f8b0	0.025631279
197	0x3e997446	0.29971522
198	0x3e1f008b	0.15527551
199	0x3e2d4f22	0.16924718
200	0xbe2c6f15	-0.1683925
201	0xbe223653	-0.15841036
202	0x3e233e3e	0.15941712
203	0xbd33693a	-0.043801524
204	0x3e2195a7	0.15779744
205	0x3d259cf6	0.040432893
206	0x3ed85c60	0.42257977
207	0x3dd354f8	0.10318941
208	0x3d72594f	0.059167203
209	0x3e834245	0.25636497
210	0xbd8a2d1d	-0.06746886
211	0x3a27522f	0.0006382791
212	0x3e79167b	0.24324982
213	0x3da89393	0.082312725
214	0x3e2cd64b	0.16878621
215	0x3f15fcd4	0.5858891
216	0xbe9f2d12	-0.31089073
217	0xbe30a2a7	-0.17249547
218	0xbd3552cb	-0.04426841
219	0xbd497fb9	-0.04919407
220	0x3d9f5661	0.07780147
221	0xbd2a5fa2	-0.04159511
222	0xbdb827d0	-0.08991969
223	0xbdef67e0	-0.116897345
224	0x3a0b7da1	0.00053211494
225	0x3e1f10b3	0.15533714
226	0x3d59ef4b	0.053206723
227	0xbe0f6e26	-0.14006862
228	0x3b631b8f	0.0034653877
229	0xbdbe72b4	-0.09299222
230	0x3f178186	0.5918201
231	0x3e16ccab	0.14726512
232	0x3d9d7c76	0.07689755
233	0xbd55a816	-0.052162252
234	0x3e39a837	0.18130575
235	0xbec87ee7	-0.3915932
236	0xbec36743	-0.3816472
237	0x3e56b84e	0.20968744
238	0xbdbb81aa	-0.09155591
239	0x3e9ee232	0.31031948
240	0xbd5af18c	-0.053453013
241	0xbd563fc1	-0.052306894
242	0x3d6bf855	0.057609875
243	0x3e01bd03	0.12669758
244	0xbe6bff7b	-0.23046677
245	0x3e31d204	0.17365271
246	0xbdb12d9c	-0.086512774
247	0xbd8c97d3	-0.06864896
248	0x3ec6d4df	0.38834283
249	0xbd24260c	-0.040075347
250	0xbe16f15b	-0.14740507
251	0xbda5d5aa	-0.08097394
252	0x3db76e86	0.089566275
253	0x3d28239d	0.04104959
254	0xbe1fff4d	-0.15624733
255	0x3e0fe0a2	0.14050534

hidden1.bias f4 [128]
0	0x3e3c2c77	0.18376337
1	0xbe5ca0df	-0.21545742
2	0xbd4bb23c	-0.049730524
3	0xbdc52937	-0.09627002
4	0xbe17370b	-0.14767091
5	0x3db5f05b	0.08883735
6	0xbe83ad92	-0.2571836
7	0xbe363dc3	-0.17796998
8	0xbdcc7398	-0.09982985
9	0xbe13fe9b	-0.14452593
10	0xbde15895	-0.11003224
11	0xbe671caf	-0.22569536
12	0xbe8740d3	-0.26416644
13	0xbe7e4f4b	-0.24834935
14	0xbeb02e56	-0.34410352
15	0x3d336e67	0.04380646
16	0xbe0b66fe	-0.13613507
17	0x3d9f304f	0.07772886
18	0x3e3f099d	0.18656011
19	0xbdd2650d	-0.1027318
20	0x3e7a6832	0.2445381
21	0x3cd1510f	0.025551347
22	0xbde5c4dd	-0.11219189
23	0x3e5376de	0.20650813
24	0xbd113253	-0.035448384
25	0x3e3c52b5	0.18390925
26	0xbdee7ff6	-0.116455
27	0xbd92cce2	-0.071679845
28	0xbe33b965	-0.17551191
29	0x3bd08cc0	0.006364435
30	0x3c4fd9be	0.012686191
31	0xbaacea7f	-0.0013192444
32	0xbb0f088c	-0.0021825163
33	0x3cf8d4ef	0.030374972
34	0xbe2b6d99	-0.16741027
35	0x3c4808d0	0.012209132
36	0xbe3c950f	-0.18416236
37	0x3b28cd48	0.0025757123
38	0xbe1db51d	-0.1540112
39	0xbdfa2b4c	-0.122152895
40	0xbd1a3b0e	-0.037653975
41	0xbd9d5aea	-0.07683356
42	0xbe97c3f6	-0.29641694
43	0xbe343bc2	-0.17600921
44	0xbdcc24ea	-0.09967978
45	0x3e4a7272	0.1977022
46	0xbdac5d5c	-0.084162444
47	0xbdd80d23	-0.10549381
48	0xbdd43fc8	-0.10363728
49	0xbd116813	-0.035499644
50	0xbced1e49	-0.028945105
51	0xbe0b0b08	-0.13578427
52	0x3caa125a	0.020760704
53	0x3df3a236	0.11896174
54	0xbdcb085a	-0.09913702
55	0xbe99f6b3	-0.3007103
56	0x3e2ce3c2	0.16883758
57	0x3eac1cd0	0.33615732
58	0x3d87536e	0.0660771
59	0x3daeb35d	0.085303046
60	0x3e3ac026	0.18237361
61	0x3e3cd8fe	0.18442151
62	0xbd16a4e7	-0.036778357
63	0xbd46b1b0	-0.0485093
64	0xbe3d83c2	-0.18507293
65	0xbe684892	-0.22683933
66	0xbe0a2929	-0.13492264
67	0xbcad2272	-0.021134589
68	0x3daf2d18	0.08553523
69	0xbc8005ba	-0.01562773
70	0x3e8bd302	0.27309424
71	0xbe861aa6	-0.26192206
72	0xbd81b7ac	-0.06333861
73	0xbdedf058	-0.116181076
74	0x3eb958f4	0.36200678
75	0x3e537eae	0.20653793
76	0x3e3623b3	0.17787056
77	0x3d9eeffc	0.07760617
78	0xbe192093	-0.14953832
79	0x3dd800f9	0.105470605
80	0xbcdb6dff	-0.026785849
81	0xbd4bc42a	-0.049747624
82	0xbe69cfd2	-0.22833183
83	0x3e1f0c6d	0.15532084
84	0xbc8d0b98	-0.017217442
85	0x3eae4bb7	0.3404214
86	0x3ea89b2c	0.32930887
87	0xbe3a3fd3	-0.1818841
88	0x3ea7b85c	0.32757843
89	0xbe6a9b27	-0.22910748
90	0xbe155942	-0.1458483
91	0x3e3194a1	0.17341854
92	0x3d1df6a3	0.03856529
93	0xbeca085b	-0.394595
94	0x3deecb27	0.11659842
95	0x3e86f86e	0.26361412
96	0x3cc82639	0.024432288
97	0xbe71a4b5	-0.23597987
98	0xbe9dfc6a	-0.3085664
99	0xbdf0ffff	-0.117675774
100	0xbd29ae2f	-0.04142588
101	0xbc7bf73a	-0.015378768
102	0x3dbfaf5f	0.09359621
103	0x3e718b00	0.2358818
104	0x3e2bfb72	0.16795138
105	0x3dd600a9	0.10449345
106	0xbebf4a81	-0.3736153
107	0x3ea6d4eb	0.3258432
108	0x3d8a7a00	0.06761551
109	0x3e536aeb	0.20646255
110	0x3cfd63be	0.03093135
111	0xbc46bab5	-0.012129475
112	0xbe9bb91d	-0.30414668
113	0x3ea587da	0.3233021
114	0x3d53ae11	0.051679675
115	0x3d3ebb21	0.04656518
116	0xbda06887	-0.07832437
117	0xbd58d5fd	-0.05293845
118	0xbdb22f79	-0.08700461
119	0xbdc71714	-0.09721199
120	0xbca32174	-0.019913413
121	0x3d7f1df1	0.062284414
122	0x3bbf7f95	0.0058440664
123	0xbe059430	-0.1304481
124	0x3de24571	0.11048401
125	0xbe1eb90d	-0.15500279
126	0x3cd973b5	0.026544431
127	0x3e0d2208	0.13782513

hidden2.weight f4 [128, 128]
0	0xbe8f3f1b	-0.27977833
1	0x3ea0cd7a	0.31406766
2	0xbe223f4d	-0.1584446
3	0xbee63545	-0.44962516
4	0xbeace4df	-0.33768365
5	0xbee19487	-0.4405863
6	0x3db418b1	0.08793772
7	0xbe178b7d	-0.14799304
8	0xbd137a37	-0.036005225
9	0x3dce9c6d	0.100884296
10	0x3dcfcd9a	0.10146637
11	0xbea441a2	-0.32081324
12	0xbe94d52a	-0.2906888
13	0x3dafa185	0.08575729
14	0x3dae88cb	0.08522185
15	0x3e9c5758	0.30535388
16	0xbeb7b447	-0.35879728
17	0xbc162f61	-0.009166569
18	0x3e9a16c0	0.30095482
19	0x3e3938e1	0.18088104
20	0x3c597222	0.01327184
21	0x3e83bb1a	0.25728685
22	0xbda46d00	-0.080286026
23	0xbd804605	-0.06263355
24	0xbee2fc54	-0.44333136
25	0xbe68c168	-0.22730029
26	0xbeb9b5ab	-0.36271414
27	0xbdbce6b1	-0.092236884
28	0xbd7e2f49	-0.062056813
29	0x3b9f0576	0.004852946
30	0x3cacd142	0.021095876
31	0x3ef3ffbd	0.4765605
32	0xbdd9d1d0	-0.10635722
33	0xbd501b37	-0.050807204
34	0xbe866ea3	-0.26256284
35	0x3e1ac61f	0.1511464
36	0x3e257611	0.1615832
37	0x3ebadfba	0.36498815
38	0x3d1c08cd	0.03809433
39	0xbe5b32c3	-0.21406083
40	0xbd979f3d	-0.07403419
41	0x3e81e523	0.2537013
42	0x3d76e65d	0.060278285
43	0x3e06a0fd	0.1314735
44	0xbea5eb87	-0.32406256
45	0x3d3b4b6f	0.045726236
46	0xbe3657bd	-0.17806907
47	0x3d862687	0.06550317
48	0xbf2e3f70	-0.6806555
49	0xbe5c5bf2	-0.2151945
50	0x3e70b04b	0.2350475
51	0xbe3f3853	-0.1867383
52	0xbc9e1e56	-0.019301575
53	0x3eb0bc0d	0.3451847
54	0xbe8b112f	-0.27161548
55	0xbea8d680	-0.3297615
56	0xbe9a21d5	-0.30103937
57	0xbdd06075	-0.10174648
58	0xbd4d3dca	-0.050107755
59	0xbe8ce1e8	-0.27516103
60	0xbd83d0b4	-0.06436291
61	0x3d5effe3	0.05444325
62	0xbd3713a9	-0.044696484
63	0xbec8abae	-0.3919348
64	0xbde304fa	-0.110849336
65	0xbe8be7bf	-0.27325246
66	0xbe68592c	-0.22690266
67	0xbee60966	-0.44929045
68	0xbf0d87dc	-0.5528543
69	0xbe940dc1	-0.28916743
70	0xbe4df203	-0.20111851
71	0x3e0b8678	0.13625515
72	0x3e6678b0	0.22506976
73	0x3e5d9d03	0.21641926
74	0x3d166e9d	0.036726583
75	0x3c45a18f	0.012062444
76	0xbd5d4190	-0.054017603
77	0xbe23ff97	-0.16015469
78	0x3ea0363d	0.3129138
79	0x3d85579e	0.06510852
80	0xbe72e262	-0.2371917
81	0x3e4cddeb	0.2000653
82	0xbcdb075b	-0.026736906
83	0x3ce69020	0.028144896
84	0x3e3a98f0	0.18222404
85	0xbc9b1a96	-0.018933576
86	0x3d68ac0c	0.0568047
87	0x3d3f1c50	0.04665786
88	0xbe339afd	-0.17539592
89	0x3e453f8e	0.19262525
90	0xbdb25859	-0.08708257
91	0xbe6edc65	-0.23326261
92	0x3d6edc18	0.058315367
93	0xbdb70ebe	-0.08938359
94	0xbf226cf3	-0.63447493
95	0xbe7c68a6	-0.24649295
96	0xbd919504	-0.071085006
97	0x3dde58e7	0.108568005
98	0xbe3de972	-0.18546084
99	0xbe8da10f	-0.2766194
100	0xbd448db1	-0.04798669
101	0xbd7c23d8	-0.06155762
102	0xbddc9d7a	-0.10772224
103	0xbd5fa6fc	-0.054602608
104	0xbe9eaeb0	-0.3099265
105	0xbebac9a6	-0.3648197
106	0xbf1ab332	-0.6042968
107	0x3dfa6157	0.12225597
108	0x3e8a57e5	0.27020183
109	0x3e0e624e	0.13904688
110	0x3e434237	0.19068228
111	0xbd0b6594	-0.03403242
112	0x3dfb4092	0.12268175
113	0xbe853dbf	-0.2602367
114	0xbe4bbc11	-0.1989596
115	0xbf17b858	-0.5926566
116	0xbeae78d1	-0.3407655
117	0xbbfd9c58	-0.007739585
118	0x3e1e1eab	0.15441386
119	0xbe127a68	-0.14304507
120	0x3e94b70d	0.29045907
121	0xbe75fbe1	-0.24021865
122	0xbe2c9bf6	-0.1685637
123	0x3d58bb80	0.05291319
124	0xbdb710b2	-0.08938731
125	0xbe970470	-0.29495573
126	0x3e8da195	0.2766234
127	0xbed62e32	-0.4183212
128	0xbe154421	-0.1457677
129	0x3d8de064	0.06927565
130	0xbcdf0503	-0.02722407
131	0x3d72b45f	0.059254047
132	0xbe17d272	-0.14826372
133	0xbb6c13d4	-0.003602256
134	0x3d684c50	0.056713402
135	0x3caf04a8	0.021364525
136	0x3ae94de3	0.0017799701
137	0xbd75f5d8	-0.060048908
138	0xbe1819ab	-0.14853542
139	0xbe2be759	-0.16787471
140	0xbd326169	-0.04354993
141	0xbe014e99	-0.12627639
142	0x3e2f9a78	0.17148769
143	0xbc2ff182	-0.010738732
144	0xbe0d2308	-0.13782895
145	0xbcab9f8b	-0.0209501
146	0x3c971b92	0.018445764
147	0xbcd09266	-0.025460433
148	0xbda1c11b	-0.0789816
149	0x3cadc6ef	0.021213023
150	0x3ddd8e21	0.108181246
151	0x3d9e8e72	0.07742013
152	0x3d8d08f2	0.06886472
153	0xbbfc6d52	-0.0077034617
154	0xbc9f2c57	-0.019430323
155	0xbdb01834	-0.085983664
156	0xbd85e64a	-0.06538065
157	0xbd2e2375	-0.042514283
158	0x3cd9bd87	0.026579631
159	0xbe3053dd	-0.17219491
160	0xbe6d5fb1	-0.23181035
161	0x3d461f98	0.048369974
162	0xbebbe5e4	-0.3669883
163	0xbd5de70d	-0.054175425
164	0xbde030cc	-0.10946807
165	0xbec0fed8	-0.3769443
166	0x3c39e919	0.011347079
167	0xbdbef30a	-0.093237
168	0x3cc6f6e7	0.024287654
169	0xbb45e3c1	-0.0030195566
170	0xbdf54afe	-0.11977194
171	0x3d21f33f	0.03953862
172	0x3d7d456c	0.061833784
173	0xbe0aa393	-0.13538961
174	0xbe91bfec	-0.28466737
175	0xbe055812	-0.13021877
176	0x3d59718c	0.053086802
177	0xbd20b287	-0.039232757
178	0x3d3a9790	0.045554698
179	0xbde038d4	-0.10948339
180	0x3d29b67f	0.041433807
181	0xbe156a0c	-0.14591235
182	0xbdcfde95	-0.10149876
183	0xbe44954d	-0.19197579
184	0xbdb6e04c	-0.089295
185	0x3ba511a2	0.0050375024
186	0xbcb1cd22	-0.02170426
187	0xbc6ee0b8	-0.014579944
188	0x3ddfbde0	0.10924888
189	0x3cd97ccd	0.026548767
190	0xbe203239	-0.15644158
191	0xbe0379e8	-0.12839472
192	0x3d89e5ef	0.067333095
193	0x3dc68c67	0.09694748
194	0xbdcdb56b	-0.10044368
195	0xbc9dc128	-0.019257143
196	0xbe05ef0a	-0.13079467
197	0x3ce6d58f	0.028178005
198	0xbe59cf19	-0.21270408
199	0xbe809c39	-0.25119188
200	0xbcb22b3d	-0.021749133
201	0xbd29d2bf	-0.04146075
202	0x39998a43	0.00029285447
203	0x3dbbb307	0.09165006
204	0xbddbffd0	-0.10742152
205	0x3d862fe3	0.065521024
206	0xbdd5f988	-0.10447985
207	0xbc4fefb5	-0.012691428
208	0xbd89acba	-0.06722398
209	0xbd0ca62f	-0.034338173
210	0xbe2df1ad	-0.16986723
211	0xbe1f7203	-0.15570836
212	0xbde6e130	-0.1127342
213	0xbd9d3602	-0.07676317
214	0xbd8871b1	-0.0666231
215	0xbeabed84	-0.33579648
216	0xbd31f6be	-0.043448202
217	0xbbaa2180	-0.005191982
218	0xbe2f785d	-0.17135759
219	0xbd41b1f3	-0.047288846
220	0x3de5877c	0.11207482
221	0xbc681909	-0.014166125
222	0xbe1ff4de	-0.15620753
223	0xbe3ec32f	-0.18629144
224	0xbda5642b	-0.08075746
225	0x3de1d09c	0.11026117
226	0xbde8acf3	-0.113611124
227	0x3d3d3de6	0.04620161
228	0x3d913e33	0.07091942
229	0xbd8400bc	-0.064454526
230	0xbe7c6d5a	-0.2465109
231	0x3d3d2d8f	0.046186026
232	0x3d808be0	0.06276679
233	0xbe0c23ab	-0.13685481
234	0x3dd9ea31	0.106403716
235	0xbe05ecff	-0.13078688
236	0x3c3746cb	0.011186312
237	0x3e1febd1	0.156173
238	0x3e1238c8	0.14279473
239	0xbe161efa	-0.14660254
240	0xbd035257	-0.032060947
241	0xbd4dc406	-0.05023577
242	0xbe6cccc4	-0.23124987
243	0xbda841ca	-0.08215673
244	0x3d783949	0.060601506
245	0x3db08dcc	0.086207956
246	0x3d1191fc	0.035539612
247	0x3d5345f8	0.0515804
248	0xbd717f20	-0.058959126
249	0xbe4b2ec4	-0.19842058
250	0xbd24aeac	-0.040205643
251	0x3dd17174	0.102267176
252	0xbd8faf40	-0.07015848
253	0xbda7292b	-0.08162149
254	0x3c3d2cb8	0.011546306
255	0xbe70fe05	-0.23534401

hidden2.bias f4 [128]
0	0x3daec36a	0.08533366
1	0xbcf050c2	-0.029335383
2	0x3ea1e2a3	0.31618223
3	0xbde658ba	-0.11247392
4	0x3c815b35	0.015790561
5	0x3d1d5d5d	0.038419116
6	0x3dbd0368	0.09229165
7	0x3e272b1f	0.16325043
8	0xbd0fb81d	-0.035087693
9	0x3c9d1a7e	0.019177672
10	0xbda9bcd2	-0.08287968
11	0x3ec56fb0	0.38561773
12	0xbcf9cef6	-0.030494194
13	0x3d0f1708	0.034934074
14	0x3cb6b1b6	0.022301536
15	0xbe452232	-0.19251326
16	0x3c6e1b6b	0.014532904
17	0xbe5af251	-0.21381499
18	0x3b8fd6d9	0.0043896255
19	0xbd10ef28	-0.035384327
20	0xbc62d276	-0.013844123
21	0xbd1927d2	-0.03739149
22	0xbd5ac3f7	-0.053409543
23	0x3dbc8f8f	0.09207069
24	0xbda44123	-0.08020236
25	0x3e5fdb04	0.21860892
26	0x3e9e35ad	0.30900326
27	0x3e504f3a	0.20342723
28	0x3e69f11a	0.22845879
29	0x3d5e115b	0.05421577
30	0xbe216118	-0.15759695
31	0xbdd54d3e	-0.104151234
32	0x3da96649	0.082714625
33	0xbb564c31	-0.0032699222
34	0x3ec4836c	0.38381517
35	0x3c1f3f24	0.009719644
36	0x3e79d368	0.24397051
37	0x3dccaf1d	0.09994338
38	0xbbbc2144	-0.0057412703
39	0xbd84dd2d	-0.064874984
40	0x3e4c0b9a	0.199263
41	0x3ebe3d78	0.37156272
42	0x3d9bfabc	0.07616183
43	0x3cfda597	0.030962748
44	0x3d9429cd	0.07234535
45	0x3cddcf06	0.027076256
46	0x3d14aad4	0.036295727
47	0x3ef5e83a	0.48028737
48	0x3d1192bf	0.03554034
49	0x39cacc2d	0.00038680565
50	0xbdef298c	-0.11677846
51	0xbb4a13f2	-0.0030834642
52	0x3de973c7	0.11399036
53	0x3db5629f	0.08856701
54	0xbce0def9	-0.027450072
55	0x3c83e38c	0.016099714
56	0x3d81694f	0.06318914
57	0x3db72e4e	0.08944379
58	0x3ad24a33	0.0016043842
59	0x3e4faa2b	0.20279758
60	0xbd95adab	-0.07308515
61	0xbe177418	-0.1479038
62	0x3e03e5c1	0.12880613
63	0x3ea699c7	0.32539198
64	0xbd31a5dd	-0.04337107
65	0xbe4f437e	-0.2024059
66	0xbc9d6314	-0.019212283
67	0x3d881287	0.06644159
68	0x3d0bb58f	0.034108695
69	0x3e11bf7b	0.142332
70	0x3da64d38	0.08120197
71	0xbe41d6e9	-0.18929638
72	0x3db0c26c	0.08630833
73	0x3cdc035f	0.026857076
74	0xbe487f27	-0.19579755
75	0xbe871848	-0.26385713
76	0x3e560336	0.20899662
77	0x3dc16772	0.09443559
78	0x3dd0b5c8	0.10190922
79	0x3e1c1f85	0.15246399
80	0xbe1524ce	-0.14564821
81	0x3dd97fbf	0.10620069
82	0x3d3fc124	0.046815053
83	0x3d74cd8b	0.059766334
84	0x3dc152ed	0.09439645
85	0x3ced3aef	0.028958766
86	0xbe303c84	-0.17210585
87	0x3de9bb09	0.11412627
88	0xbe365690	-0.17806458
89	0x3c3d71dd	0.011562792
90	0xbcda2e66	-0.026633453
91	0x3e23d598	0.15999448
92	0x3dede0b3	0.116151236
93	0x3e206ad2	0.15665749
94	0x3de2e591	0.110789426
95	0x3c8d8f0a	0.01728012
96	0x3d20a12a	0.039216198
97	0x3e182878	0.14859188
98	0x3dcb9181	0.09939862
99	0x3c9999b4	0.01875005
100	0x3df66533	0.12031021
101	0x3e11f12a	0.14252153
102	0xbd86568e	-0.06559478
103	0x3e4ddd47	0.20103942
104	0x3e14618f	0.1449034
105	0x3d9c927f	0.076451294
106	0x3cfcbcfa	0.03085183
107	0x3e2ed5fa	0.17073813
108	0x3b0e9e23	0.0021761737
109	0x3c8ea271	0.017411442
110	0xbd977726	-0.07395773
111	0x3e1fb70a	0.15597168
112	0xbd5a4521	-0.053288583
113	0x3ca38e79	0.019965397
114	0x3dd644d1	0.104623444
115	0x3d9ea4a8	0.077462494
116	0xbcbe1008	-0.023201004
117	0x3e13185c	0.14364761
118	0x3df7a209	0.12091453
119	0xbd9cab60	-0.07649875
120	0xbe551186	-0.20807466
121	0xbd95cd16	-0.07314508
122	0xbd9383a9	-0.072028466
123	0x3e559cee	0.20860645
124	0x3f212563	0.6294767
125	0xbd49a9a6	-0.049234055
126	0x3e0c7444	0.13716227
127	0x3e5e6506	0.21718225

out.weight f4 [1, 128]
0	0x3d8476f4	0.06468001
1	0x3d20e14c	0.03927736
2	0x3cf10331	0.029420467
3	0xbdbce844	-0.09223989
4	0xbc968967	-0.018376065
5	0x3ced6c95	0.02898244
6	0x3c910c76	0.017706137
7	0x3cd50e10	0.026007682
8	0xbdb8b7e8	-0.09019452
9	0x3d073cfa	0.033017136
10	0x3d6135e2	0.054983027
11	0x3dc84730	0.09779203
12	0x3ad4266f	0.001618577
13	0xbc406258	-0.011742197
14	0xbcc1d85b	-0.023662737
15	0xbd4286c1	-0.047491793
16	0x3d08411b	0.033265214
17	0xbc5ad492	-0.013356345
18	0x3a5e3af1	0.0008477411
19	0x3d2f6a01	0.042825703
20	0x3d93ce93	0.07217135
21	0xbb34ceca	-0.0027589076
22	0xbd5abfea	-0.05340568
23	0x3bb5bd6e	0.0055462634
24	0xbc3d767c	-0.011563893
25	0x3d71aaea	0.059000887
26	0x3cef08c1	0.029178979
27	0x3cf9f3e0	0.030511796
28	0x3d78121a	0.060564138
29	0x3caca61b	0.021075299
30	0xbb9a507f	-0.004709303
31	0xbd11905c	-0.035538062
32	0x3caa87a2	0.020816628
33	0xba908ac1	-0.001102768
34	0x3d75d9b2	0.060022064
35	0x3d15ac4e	0.036541276
36	0x3cf6b24c	0.030114315
37	0x3d35145b	0.044208866
38	0xbd447a89	-0.04796842
39	0xbe198415	-0.14991792
40	0x3d0f36bd	0.034964312
41	0x3d95d8ca	0.0731674
42	0x3d727edf	0.059203025
43	0xbc99dd3a	-0.018782247
44	0x3d3916e1	0.045187835
45	0x3cbab27f	0.022790192
46	0xbdca1103	-0.09866526
47	0x3dfb7f1d	0.12280104
48	0x3de44d86	0.11147599
49	0x3baae567	0.005215335
50	0xbd2deed7	-0.042464104
51	0xbb20eb33	-0.0024554252
52	0x3d171b92	0.036891527
53	0xba8ecff7	-0.0010895719
54	0xbc6e58bb	-0.014547522
55	0xbc8498df	-0.016186176
56	0x3ad7b928	0.0016458379
57	0x3d033d67	0.03204098
58	0x3d917d48	0.071039736
59	0x3d022845	0.031776685
60	0xbc1b0ea4	-0.00946394
61	0xbd1a015b	-0.03759895
62	0x3d23afc0	0.03996253
63	0x3ca62bf1	0.020284625
64	0x3cf02023	0.029312199
65	0xba68fdbc	-0.0008887907
66	0x3d8e15fa	0.069377854
67	0xbd158e60	-0.036512733
68	0x3c90630e	0.017625358
69	0x3d3ccd81	0.04609442
70	0x3cf788ce	0.0302166
71	0xbd8e1c9f	-0.06939053
72	0xbab5d757	-0.001387338
73	0xbc3fafb4	-0.011699606
74	0xbd958cd6	-0.07302253
75	0xbe118923	-0.1421247
76	0x3cfe867d	0.031069988
77	0x3cc9a4a1	0.024614634
78	0x3d163198	0.03666839
79	0xbd507ab1	-0.050898258
80	0xbc8bdf5d	-0.017074281
81	0xbc3d6c62	-0.011561485
82	0x3c88d23b	0.016701808
83	0x3be09f3d	0.00685492
84	0xbb9ab654	-0.0047214422
85	0xbd9e8f82	-0.07742216
86	0xbd6f545b	-0.058430057
87	0xbbd0a012	-0.006366738
88	0xb9713fe6	-0.00023007355
89	0xb999d8da	-0.00029344
90	0x3c905859	0.017620252
91	0x3d200c4a	0.03907422
92	0x3d0f9812	0.035057135
93	0x3d6b44c0	0.057438612
94	0x3dd38fe9	0.10330183
95	0xbce014a3	-0.02735359
96	0xbcf73e26	-0.030181002
97	0x3de5c77c	0.11219689
98	0xbd8fbf66	-0.07018928
99	0xbc0c58f8	-0.008566134
100	0x3d0b9959	0.03408179
101	0x3d5a8f0d	0.05335908
102	0xbc58d1e7	-0.013233638
103	0x3cd8284b	0.0263864
104	0x3d054ca1	0.032543782
105	0x3cd1740e	0.025568034
106	0xbcde1ee2	-0.027114335
107	0x3d54d27a	0.05195854
108	0x3d148b05	0.03626539
109	0xbbd309c5	-0.0064403736
110	0xbbca1db6	-0.0061680926
111	0x3d577cf9	0.052609418
112	0x3cfa1c76	0.03053115
113	0x3bcaad15	0.006185184
114	0x3be25112	0.006906637
115	0x3dea9af4	0.11455336
116	0xbd651195	-0.05592497
117	0x3d26d894	0.04073389
118	0x3d5f8580	0.054570675
119	0xbe1ad453	-0.15120058
120	0xba6e28b9	-0.00090850476
121	0xbdac4653	-0.08411851
122	0xbd7edb40	-0.06222081
123	0x3d4b6bbb	0.049663287
124	0x3e169a55	0.1470731
125	0x3b0a4ba5	0.0021102217
126	0x3c21e1a2	0.009880455
127	0x3d20bcd1	0.03924257
